epoch_118_model.pth (torch, 288136 bytes, 42 tensors)

e_conv1.weight f4 [32, 3, 3, 3]
00000000: a31b 313d 9152 973e f6d0 843e 0bd6 ef3d
00000010: 024d c1bc 296f 183e 1496 1a3e b187 b83a
00000020: 439a 073e f063 923d 0167 bfbe d4db 533e
00000030: f656 293d a14b 983e 7f40 00be 47d5 16bd
00000040: c4c7 26be d8a0 00bc 9018 3c3d 9e33 2c3e
00000050: 8fe3 383d 349d 1fbd 2af9 0a3e 4536 343e
00000060: e196 6ebe 12b3 ff3e b283 48bd 1f17 c2bb
00000070: f46f 56bc f34a 89bc 66cd 053b e2dd b3bb
00000080: d29f b5bb 5a0c 093c 7520 c13b b399 013c
00000090: ba73 05bc b19b 77bc 0ccf 98bc f589 bb3b
000000a0: 739b a3ba c072 58bb 1155 353c de98 573c
000000b0: d684 c13b 08dd c1bb 37a1 49bc e531 86bc
000000c0: 9856 463c 4dff 8f3b 8c2f 0f3b 87a2 863c
000000d0: 3c2e 533c e5a4 4c3c 642c 133d 520c 0e3d
000000e0: 6971 003d 8084 603d 2a6a a3bc 2131 db3c
000000f0: f84e b03d e2de 4b3d e753 313d 6010 eb3c
00000100: e6b7 b53d d211 1f3d bed8 363d 71a6 ae3c
00000110: eaf0 f3bc f047 383d dbff 273d ac90 8e3c
00000120: 1bdc 04be c763 c8bd 1acc edbd 4d3f b4bd
00000130: 7011 c5bd 17dc 82be 2c8b b2bd 32db d0bd
00000140: da2a 16be a508 d83c f715 06be 9868 edbd
00000150: 9b26 8f3e 37a4 1ebe e584 4c3e b178 483d
00000160: 5012 973c 0311 5b3d f0b3 403d adc1 e1bc
00000170: 0ace a43e 684d 39be 9281 1ebe 1139 b83d
00000180: 0d55 033e 46a6 78bd e9dd dd3d 1455 1abc
00000190: 8fe4 a43c 089b 99bd 5e95 8bbd 99c6 6fbb
000001a0: 14f5 c7bd b22a b3bd eb87 383d ea61 10be
000001b0: 85ed 7fbe 3347 2b3e 9f53 bbbd 87ac 9dbe
000001c0: 6721 3f3e 163f 3dbc dc20 00bf 861a 64be
000001d0: 277a c8bc ec46 013f 523e b6bc bf95 4d3e
000001e0: 3b0b aa3d 527f dbbd 4cce e03d a0f4 b13e
000001f0: a763 f93d 04c0 df3e 53ad 9fbe 1bde 0c3f
00000200: e5da 4c3e 0b2e 893d 7723 e1bc 7778 df3d
00000210: f4e9 17bd 5775 033e 955a 01be 24b9 b73d
00000220: 8563 1e3e 68cc 7b3e 5f3d 633e aa3f 88bd
00000230: 4b43 06be 3e32 b2be 55a4 963d 549d db3d
00000240: 6eab 723e b1aa 83be f2fa 1d3e 64ce 1abe
00000250: 246a 813a 492d 653e f963 4ebd 5ca3 823e
00000260: 1c91 4ebe 6664 1dbd cfa4 92bd 2f5a 163e
00000270: 3d85 39bd d535 943e daf5 6e3e 278b 7f3e
00000280: 843e 3c3d 7d7d 233d 2757 f2bc a40b 903c
00000290: 181d 8dbe 29ef 843e 25d1 893d e0b3 0f3e
000002a0: 7d45 823d 99ae 903e a3c6 b5bd 6fb4 93be
000002b0: 4139 b5bd 83a2 aabd 305b 443e 5a85 67be
000002c0: cfda f6bc ba1b 463e 7cc2 9e3d 2540 0d3e
000002d0: ab73 79be 3881 2d3e 59fe 183e 9872 243e
000002e0: d67f 283d d3df fd3c c1fd 743d 157e 45bd
000002f0: e00e 7cbe da2e 1dbe 5dfd 7c3d 70eb 96bd
00000300: 1b56 bc3c bc68 adbd f686 3cbd eb98 c33d
00000310: 6666 a73c 49b8 b3bd 3134 fdbc 9ddd d1bd
00000320: 04a5 51be f822 10be 9453 18bd 050e 473d
00000330: 3760 4c3c ffac 04be c2ef 97bd a077 973d
00000340: cd10 123e a9d2 ce3c f26e 093e 7088 f7bd
00000350: 2e86 413d b584 89bd b5f8 bdbd af32 133c
00000360: d2dd 0a3d a2b3 433c 1b0a 833d 36e1 823d
00000370: de07 9e3e 6baf f83d 73ae f7be bb74 873e
00000380: c0fb e5be 1688 c23c 5a85 ce3d e69d 143e
00000390: b04d 293d 9580 d43c f700 a63d 7b1c 93be
000003a0: a2f1 eebd 9af3 583c a0db a03d a1c0 8bbc
000003b0: b0ce c23d 7961 33be 5d69 42bd 07e2 0f3e
000003c0: 0e7b c03e 517f c53e 38ec c73b a8c6 183e
000003d0: 7efe ad3e cf43 f03e e997 aabe 41c5 2a3e
000003e0: 1bd1 723e 6167 0d3e 1d30 943d 5f49 b7bc
000003f0: da82 69be 51c2 48be a34a c8bd 3501 753d
0.043239247 0.2955518 0.25940675 0.11710747 -0.02359629 0.14886154 0.15096313 0.0014078525
0.1324244 0.07147968 -0.37383273 0.20689327 0.041342698 0.297452 -0.12524603 -0.03682449
-0.16287142 -0.007850848 0.045921862 0.16816565 0.04513889 -0.03896828 0.13571611 0.17598827
-0.23299743 0.49941307 -0.04895372 -0.0059231664 -0.013088215 -0.016759371 0.0020416616 -0.005489097
-0.0055427337 0.008364761 0.0058937618 0.00791018 -0.008145267 -0.015112803 -0.018653415 0.005723233
-0.001248224 -0.003302738 0.011067645 0.013159005 0.005905728 -0.0059162416 -0.012306503 -0.016381213
0.0121056065 0.004394448 0.0021848409 0.016434921 0.012889441 0.012490486 0.035931006 0.03467972
0.031358156 0.05481386 -0.019948084 0.026756825 0.08608812 0.049773104 0.043292906 0.028694332
0.088729665 0.038835354 0.044640295 0.0213196 -0.029777963 0.04499048 0.041015487 0.01740297
-0.12974589 -0.09784656 -0.11611195 -0.08801136 -0.096224666 -0.2555854 -0.08717951 -0.10198058
-0.14664784 0.02637131 -0.13094316 -0.11592215 0.2795914 -0.1549233 0.1997257 0.048943225
0.01844135 0.05348302 0.0470466 -0.027558172 0.32188445 -0.18095934 -0.15479115 0.089952596
0.12825413 -0.060705446 0.10833342 -0.009419698 0.020128516 -0.07500273 -0.06815599 -0.003658688
-0.09763542 -0.08748378 0.045051496 -0.14099851 -0.2499295 0.16726379 -0.09146809 -0.3079569
0.18665086 -0.011550685 -0.5005014 -0.22275743 -0.02447231 0.50498843 -0.022246514 0.20076655
0.08302923 -0.10717644 0.10976848 0.34756947 0.1217721 0.43701184 -0.31186923 0.55026406
0.20005377 0.06698235 -0.027482731 0.10911649 -0.03708835 0.1283773 -0.1263221 0.0897086
0.15467651 0.24589694 0.2219138 -0.06652768 -0.13111608 -0.34803957 0.073555626 0.10723367
0.23698208 -0.25716165 0.1542776 -0.15117794 0.0009873551 0.22380556 -0.05038831 0.25515258
-0.20172542 -0.038425826 -0.07160341 0.1468284 -0.04529308 0.2894732 0.23335972 0.24955426
0.045958057 0.039914597 -0.029582573 0.017583676 -0.2756126 0.25963715 0.06729344 0.1403346
0.0636091 0.28258207 -0.088757776 -0.28848597 -0.08848811 -0.08331778 0.1917541 -0.22609463
-0.030133633 0.19346514 0.07751939 0.13794 -0.2436053 0.16943824 0.14940776 0.16059339
0.04113754 0.030990517 0.05981231 -0.048215944 -0.2461505 -0.15349904 0.061765064 -0.07369125
0.022990277 -0.08467242 -0.046027146 0.09550651 0.02043457 -0.08775384 -0.030908676 -0.102473475
-0.20473105 -0.1407584 -0.03718908 0.048597354 0.012474111 -0.12956618 -0.07418777 0.073958635
0.14264221 0.025246935 0.13421229 -0.1208657 0.047247104 -0.06714765 -0.09275953 0.008984252
0.03390295 0.011944683 0.06398412 0.06390612 0.30865377 0.12142833 -0.48375282 0.26456246
-0.44918633 0.023746531 0.100840285 0.14513358 0.041333854 0.025940219 0.08105653 -0.28732666
-0.116671816 0.013241673 0.0785439 -0.017059626 0.09512079 -0.17517652 -0.047463764 0.14051066
0.37593883 0.38573697 0.0061011575 0.14919531 0.33983225 0.46926734 -0.33319023 0.16676809
0.2371258 0.13808967 0.072357394 -0.022373853 -0.22803822 -0.19605376 -0.09779861 0.059815604

e_conv1.bias f4 [32]
00000000: 58eb db3d 7cf0 1bbb 5c82 0a3c 3bc5 d2bd
00000010: d439 7f3e 909a 91bd b730 b93e e123 373e
00000020: 4352 c43d ecec 02bb 857f 4f36 681e 8b3d
00000030: 2dd6 3439 bf72 9b3e 4471 1e3e 4f5f 753e
00000040: 85e5 9faa 3509 a33e c216 eeba b923 5f3e
00000050: 62c4 a7ba e79b 753d 5f5b d73d 633c 9a3e
00000060: f5a3 adbd 221f 353e ec95 663e 91dc 1cbb
00000070: 155c 00bd b760 adbd 7357 b83d 9ab5 0a3e
0.10738248 -0.0023794463 0.008453932 -0.10291525 0.24924403 -0.071095586 0.3616998 0.1788478
0.09586003 -0.0019977642 3.091963e-06 0.06792909 0.00017245924 0.30360982 0.15472895 0.23962139
-2.8403335e-13 0.31842962 -0.0018164741 0.21790971 -0.0012799616 0.059963133 0.105154745 0.30124196
-0.08478538 0.17687657 0.22518128 -0.0023935179 -0.031337816 -0.084657125 0.090010546 0.13545838

e_conv1_a.weight f4 [3, 32, 3, 3]
00000000: 7657 1f3d 0356 453d 6b45 043d ea96 4e3d
00000010: 7348 773d a050 373d 3282 123d adc7 3d3d
00000020: d9fe 013d 3c49 94b7 afa6 1ab8 eb33 9fb8
00000030: 662f bd39 5195 ab39 7dc4 9139 c526 b638
00000040: 8d76 ab38 56ef 1d38 19a5 673a dc08 093b
00000050: 0ecf d639 4c6a 883a 824f 103b 31c2 063a
00000060: 1359 343a cd83 e53a 2c57 cf38 a304 9c36
00000070: 8a80 d6b7 88c5 91b6 4614 e3b6 703a 31b8
00000080: 4bf8 a7b7 b82c ed36 6c7d 04b8 38ad da35
00000090: 668b 663d ce43 a93d 6b52 5f3d 6e40 9e3d
000000a0: 3753 d63d 8367 9b3d 5fe7 523d 8637 a13d
000000b0: 1eae 503d 0835 883b 0abc 713a 5f49 033b
000000c0: abbf 673b ae58 273a ab8c 053b b970 6f3b
000000d0: 1495 9d3a e7e3 453b 7d99 983d 61c3 e13d
000000e0: 1feb 863d bbc9 e43d a4c6 173e fa01 d53d
000000f0: b4d1 953d 8cd9 e03d 31e1 873d f826 e03c
00000100: fbc2 3a3d dfb7 e33c 1ed8 2f3d 1b0d 7b3d
00000110: cd9b 2f3d dd5d d13c 3a9f 303d 8690 cd3c
00000120: d1a6 c13c 94dd 163d 4a33 b03c 51a8 0c3d
00000130: 8990 443d 0a02 063d 4692 a23c a5cc 0a3d
00000140: 50c7 9e3c 6c3f a83b f604 a23b c8b7 ac3b
00000150: 7752 e53b 6e06 f33b 3104 013c 45a5 b53b
00000160: af73 ce3b 35e3 e13b 38be e6b8 5662 b239
00000170: 07bb 07b9 eca7 fa38 29c7 1c3a a7b4 d238
00000180: 57e0 5bb9 574a 8239 cb4b 47b9 b452 253c
00000190: eaaa 883c eb51 1c3c f3e7 823c 7925 ba3c
000001a0: a9e5 7c3c 1544 2a3c b8d0 8a3c ede5 1e3c
000001b0: 8449 2038 6ef3 3738 99a7 f937 6bee 7039
000001c0: 022b 6a39 2ca6 5839 b5b8 e9b7 5217 ceb7
000001d0: 1dd9 08b8 1ba1 7e3d 4dd8 c03d daa0 763d
000001e0: 209a b53d 8506 fa3d f53c b43d 48fa 703d
000001f0: c632 bd3d ddd0 713d 10a9 0d3d bc57 563d
00000200: 8688 0b3d a137 473d 3135 893d 72d8 483d
00000210: 56ab fe3c 28cf 4c3d e6f5 053d f6e3 3d3d
00000220: e165 8f3d 2620 3a3d 71b4 8b3d da3c bd3d
00000230: b07f 893d 480b 323d 682a 893d 7354 2d3d
00000240: 2590 0000 9a91 0000 c78c 0080 05a8 0080
00000250: 418c 0080 5f91 0000 8889 0080 7189 0000
00000260: aa8a 0080 7110 853d b207 c03d abcd 7e3d
00000270: a7fa c43d 86d0 003e a52b c03d 3c01 7b3d
00000280: 2f0c b83d 5599 733d 97fe 2b39 80e5 5bb9
00000290: 5607 6eb9 f5d8 0ab7 d888 d4b9 6991 e0b9
000002a0: 7c30 193a 1fff 1039 1082 f638 7105 3e3d
000002b0: 680b 8a3d 6d26 2a3d c153 823d dec1 ad3d
000002c0: dfeb 6f3d 0b29 2d3d b6b5 803d 32f9 193d
000002d0: 4780 9a3b 5e52 963b 07ff 133b cef5 9d3b
000002e0: 5e24 933b b836 113b bbcf 3c3b 8364 333b
000002f0: 02bc 573a 53dd 153c 83a3 8d3c 06ce fc3b
00000300: bf15 643c 3e69 b43c a203 483c beb5 053c
00000310: 6942 833c 0304 d63b e945 fb3c bf34 393d
00000320: 3832 e43c 55dd 1c3d 3e79 5c3d 72f7 143d
00000330: 524c e63c d563 333d 7faf db3c a3af 6a3d
00000340: 045e b23d 2cdd 6b3d b4f6 a83d 37f6 e73d
00000350: efa3 a93d 21a6 5c3d 0be2 ab3d 96b1 5d3d
00000360: 07b7 e33b 6bfa 833b a330 903a 3de9 b33b
00000370: e615 193b 17cc 59b9 7289 a73b 7afe 143b
00000380: 04e0 a338 837c 733d affb 923d ed24 4b3d
00000390: 1a03 9a3d e147 b43d e329 873d 9111 5c3d
000003a0: 0cdf 883d c4dd 3d3d 63c1 313d 4b4b 863d
000003b0: c9db 303d accc 803d 4eed af3d c600 813d
000003c0: 4de6 2e3d 5349 853d 6f02 2e3d cf84 713b
000003d0: 97f1 5c3b 21ae 533b 49ef 1b3b ec6f 043b
000003e0: 0e1f f33a a83c 793b b24f 613b 2bef 593b
000003f0: a560 143c b896 a83b aa19 333b 6dd4 043c
0.03890177 0.04817773 0.032292765 0.05043689 0.060371827 0.044754624 0.035768695 0.046333004
0.031737182 -1.7677077e-05 -3.6871697e-05 -7.591381e-05 0.00036084204 0.0003272691 0.0002780295 8.685658e-05
8.175997e-05 3.7654616e-05 0.0008836552 0.0020909822 0.00040971529 0.0010407655 0.0022020047 0.0005140631
0.0006879728 0.0017510593 9.886766e-05 4.649702e-06 -2.5570644e-05 -4.3443324e-06 -6.7674873e-06 -4.2254513e-05
-2.0023572e-05 7.0683564e-06 -3.158806e-05 1.6292679e-06 0.056285284 0.08264886 0.05452196 0.07727133
0.10465091 0.07588103 0.051490184 0.078719184 0.0509473 0.0041567124 0.00092214404 0.0020032746
0.0035362046 0.0006383759 0.0020378034 0.0036535694 0.0012022578 0.0030195655 0.074511506 0.11023594
0.065878145 0.111712895 0.14821869 0.104007676 0.07315388 0.10978994 0.06634749 0.027362332
0.045596104 0.027797638 0.042930715 0.061291795 0.042873193 0.025557453 0.0431206 0.025093328
0.023639115 0.036832407 0.021508832 0.034340207 0.047989402 0.03271679 0.01984514 0.03388657
0.019382149 0.0051345136 0.004944439 0.005270932 0.006998356 0.007416538 0.007874534 0.0055433833
0.0063004117 0.0068935403 -0.00011002686 0.00034024072 -0.00012944276 0.00011952207 0.0005980605 0.000100472294
-0.0002096904 0.0002485092 -0.00019006354 0.010090519 0.01668306 0.009541015 0.015979743 0.022722946
0.015435615 0.010392209 0.016945228 0.009698373 3.821544e-05 4.385731e-05 2.9761157e-05 0.00022977001
0.00022332 0.00020661269 -2.7861775e-05 -2.4567973e-05 -3.262713e-05 0.06216536 0.09416256 0.060211994
0.08867288 0.12208275 0.08800689 0.058832437 0.092382 0.05903708 0.03458506 0.052329764
0.034065746 0.048637036 0.066995986 0.049034543 0.031087559 0.050002247 0.03270521 0.04635998
0.07001854 0.045440815 0.06821526 0.09240122 0.067138076 0.04346779 0.066975415 0.042316865
5.171e-41 5.2232e-41 -5.0501e-41 -6.0274e-41 -5.0314e-41 5.215e-41 -4.9337e-41 4.9305e-41
-4.9743e-41 0.064972766 0.09376468 0.06220786 0.09618121 0.12579545 0.093833245 0.061280474
0.08986699 0.0594724 0.00016402673 -0.00020970963 -0.00022700182 -8.275955e-06 -0.00040537748 -0.00042832948
0.00058437116 0.0001382795 0.0001175442 0.046391908 0.06740457 0.041540552 0.06363631 0.08484243
0.058574554 0.04227547 0.062846586 0.037591167 0.004714999 0.0045874557 0.0022582428 0.004820562
0.0044904193 0.002215786 0.002881034 0.0027373142 0.00082296145 0.009147006 0.017289883 0.0077149896
0.0139212 0.02202284 0.012207897 0.0081610065 0.016022878 0.00653124 0.030672984 0.04521632
0.027855977 0.038297016 0.053826563 0.036368795 0.028112564 0.04379638 0.026817081 0.057296406
0.08709338 0.057583973 0.0825018 0.11326259 0.08283221 0.05386937 0.08392724 0.054124437
0.006949309 0.004027655 0.0011000823 0.0054904507 0.0023359 -0.00020770762 0.0051128203 0.0022734688
7.814172e-05 0.059444916 0.07176911 0.049595762 0.07520123 0.08802772 0.06599786 0.05372769
0.06683168 0.04635407 0.04339732 0.0655733 0.043178353 0.06289038 0.08590184 0.06298976
0.0427001 0.06508126 0.04248279 0.0036852842 0.0033713335 0.0032299834 0.0023793748 0.0020208312
0.0018548684 0.0038030539 0.0034379777 0.0033254127 0.009056245 0.00514492 0.002732853 0.008107287

e_conv1_a.bias f4 [3]
00000000: bc24 c13e c1ac c63e 2149 7cbb
0.3772334 0.38803676 -0.0038495737

e_conv1_b.weight f4 [3, 32, 3, 3]
00000000: 05a2 7939 bfaf 9d3c b83d a23b cc0f 6bbc
00000010: 0777 66ba 2375 ff3c 37f1 343d 823e 123c
00000020: bad1 463c 55ab 77ba 0d5b f0b9 f771 2fba
00000030: 522f 143a 9255 893a 7f96 813a 4f96 92b9
00000040: cb1c 13b9 35e9 c3b9 5523 bdbb 3527 c2bb
00000050: 08b1 01bc 75b3 abbb 0410 98bb 8d8e bbbb
00000060: 5120 d1bb 3c07 b0bb 65fd bbbb 8d97 87bb
00000070: f991 99bb 3248 89bb 83ae 56bb 040e 64bb
00000080: 9d11 45bb d43f 51bb c61c 57bb 5bbc 46bb
00000090: 0071 33bc a129 77bc 1a1a a6bc 44a5 cebc
000000a0: 1a98 02bd e460 90bc 7103 91bc b402 cfbc
000000b0: 6b38 b3bc fa38 a33c 25ff 073c ad0a ab3b
000000c0: 0c29 4f3b 78ef 343c ca93 a13c baf9 043c
000000d0: f7ab 363b 1ed2 bdbb 9428 9a3a c9f1 d2bb
000000e0: 454f 173c 2740 d3bb 7cf0 21bb 607f 03bc
000000f0: b875 5b3b c494 39bc 2db6 1dbc 75e1 f83a
00000100: 141e 403b ae36 323b b64a 533b 5459 4b3b
00000110: 0b7f 533b 3c67 453b ec28 443b 7f23 483b
00000120: ca21 7fbb b58b adba a400 7d3b 540a 1cbb
00000130: 02e1 e539 8407 bbbb a435 9ebb 8801 faba
00000140: d06a 14bb f732 5d3b 0b27 1dba 9e6e 5c3b
00000150: 99b8 c33a 4188 dcba 8512 363b ea53 1fbb
00000160: ff34 60ba f28f 9f3a 43f2 02ba 88cc 823a
00000170: 9b54 89ba 4c5f ff38 38a1 cd3a ccd6 ffb9
00000180: 550b 3dba 6149 703a f20e 3aba 0a81 8fb9
00000190: d529 5e3a 099c 663a 897f 2f39 63ae 613a
000001a0: 2a94 cc3a ab3e 0c38 aa5f e338 3fc3 293a
000001b0: 7903 7339 feb7 8439 cbfb 6e39 b186 b339
000001c0: 542b 9f39 4ffe 8839 a1ee a838 edf5 e138
000001d0: f6f5 eb38 98d3 1dbb 8797 48bc d61c 73bb
000001e0: 7b80 763a 2d45 32bc 74e9 8ebc 3a89 da3b
000001f0: 1706 41bc b1c3 113c 9d40 d9ba 6fc4 213c
00000200: 7b7c 543b 6766 8a3c a894 5b3c 22e7 af3b
00000210: fe63 903a 9dab 5e3c d6a9 2f3b 2914 043b
00000220: 0833 f6ba c9fb bb3b 8400 7537 e9a6 4ebb
00000230: 0068 bd3b f78c 353b 718c 243b c171 3d3c
00000240: 238a 0000 6a8a 0080 6895 0080 3c8a 0000
00000250: d989 0080 fd88 0080 cc88 0000 ab89 0000
00000260: 9089 0000 7d96 bc3b e390 bdbb 5405 053c
00000270: 1c0e 6d39 5c7e 7ebc b5e4 97ba 42f3 3d3c
00000280: a5e8 92bb 52d2 a83b 12fe 25bc d6e7 24bc
00000290: 7f38 23bc 9980 33bc ab73 2ebc c3ca 25bc
000002a0: 44d9 29bc 2565 23bc 9d2f 2abc d980 1b3c
000002b0: 0f5d e6ba 4b41 8bba d172 603b 9049 d1bb
000002c0: bffb cbba a3fd a23b c5c8 b9ba 0309 133a
000002d0: bd1c 56b9 bc9f ef39 e2a8 02bb 1043 f9b9
000002e0: 813c bf3a 67a7 343a 0b52 9039 3f27 243b
000002f0: 7e45 c63a ce0a 24bb eeaf 48b9 d5a6 44bb
00000300: 553e 11bb ef8a e2b9 b020 0fbb c028 4dbb
00000310: 7ded 99ba 30ed 48bb 7c55 e3bb f27a b1bb
00000320: ac05 093b 6d93 853b d66c 003c c526 743b
00000330: afe3 a03a c8d9 cd3b f79f 353c 48f2 393b
00000340: ef3f 99bb e47f ad3a 8d58 0bbb ab48 1cbc
00000350: deb2 b0ba b0e1 1b3c 8e08 1eba 5e46 fa39
00000360: 2736 e5bb 527a 0f3c 4bc6 18bb e97d e2bb
00000370: f57e 3c3b 44e1 19bb 9acd 223b 048e 0a3c
00000380: 6170 293b baa3 b9bb 0c81 de3c bcb7 403c
00000390: 4ee3 353b cfd7 a9bb 6e57 05bd 577b cebc
000003a0: 6362 463c 5ec8 743b f664 cb3b d88f 953a
000003b0: 734e 493c 75e5 173b 617b 3dbb f1be c13b
000003c0: 54b5 7d3b 4600 9b3a 227b 233c c77d d53a
000003d0: 4ad8 713a 78a5 14ba 1fd8 a9ba 2a02 0bbb
000003e0: 630a 3ebb 9e1e 68ba cecf 79bb 135e 9bbb
000003f0: 1ca9 d03b 2ec7 a4bb fd23 eebc 9b40 6b3c
0.00023806847 0.019248841 0.004951205 -0.014347028 -0.000879154 0.031183785 0.044175353 0.008926036
0.012134964 -0.00094478327 -0.00045844205 -0.00066927023 0.0005652803 0.0010477772 0.000988677 -0.0002795928
-0.00014029739 -0.0003736705 -0.005772034 -0.005925084 -0.007915743 -0.005239899 -0.004640581 -0.0057237805
-0.0063820262 -0.005371956 -0.005736994 -0.0041379393 -0.0046865907 -0.0041895146 -0.0032757826 -0.0034798393
-0.0030070313 -0.0031928914 -0.0032823547 -0.003032467 -0.010952234 -0.015085609 -0.020276118 -0.02522529
-0.031883337 -0.017624326 -0.017701836 -0.025269844 -0.021877488 0.01992463 0.008300577 0.0052197785
0.003161016 0.011043422 0.019723792 0.00811618 0.0027873495 -0.00579287 0.0011761361 -0.0064375144
0.009235208 -0.0064468565 -0.002470999 -0.008025974 0.0033486914 -0.011326972 -0.009625954 0.001898809
0.0029314803 0.0027193236 0.0032240576 0.0031028586 0.0032271768 0.0030121347 0.0029931618 0.0030538735
-0.0038930052 -0.0013240488 0.0038605118 -0.0023809867 0.00043845928 -0.005707683 -0.004828172 -0.0019073943
-0.0022646673 0.0033752301 -0.00059948926 0.003363527 0.0014932334 -0.0016825275 0.0027782035 -0.0024311491
-0.0008552819 0.0012173636 -0.0004995206 0.0009979168 -0.0010477485 0.00012177098 0.0015688306 -0.00048797426
-0.00072114664 0.0009166208 -0.0007097564 -0.00027371227 0.00084748614 0.0008797055 0.00016736811 0.00086090545
0.0015608121 3.3436965e-05 0.00010842022 0.00064759323 0.0002317558 0.00025314087 0.00022791249 0.00034241893
0.00030359125 0.00026129416 8.055312e-05 0.00010774643 0.00011251487 -0.0024082419 -0.012243158 -0.0037096045
0.00094033004 -0.010880751 -0.017445303 0.0066691907 -0.011781237 0.008896754 -0.0016575042 0.009873494
0.003242283 0.016894532 0.013402142 0.0053681294 0.0011016128 0.0135907205 0.002680411 0.0020153618
-0.0018783519 0.0057368022 1.4603258e-05 -0.0031532592 0.00578022 0.002770243 0.0025108124 0.011562766
4.9554e-41 -4.9654e-41 -5.3597e-41 4.9589e-41 -4.945e-41 -4.9142e-41 4.9073e-41 4.9386e-41
4.9348e-41 0.0057552443 -0.005785094 0.008118946 0.00022607337 -0.015533056 -0.0011588546 0.011593642
-0.0044833 0.0051520253 -0.010131376 -0.01006504 -0.0099622 -0.010955953 -0.010647695 -0.010119143
-0.010366742 -0.009972845 -0.010387328 0.009491169 -0.0017575341 -0.0010624317 0.0034248123 -0.006386943
-0.0015562697 0.0049740835 -0.0014174214 0.0005608948 -0.00020419336 0.00045704644 -0.0019937088 -0.00047542946
0.0014590175 0.00068914 0.00027526947 0.0025047807 0.0015126911 -0.0025030854 -0.00019139025 -0.0030006666
-0.0022162397 -0.00043209593 -0.0021839552 -0.0031304806 -0.0011743751 -0.0030658953 -0.0069376808 -0.0054162676
0.0020907922 0.0040764124 0.0078384485 0.0037254554 0.0012274886 0.006282065 0.011085502 0.002837317
-0.004676811 0.0013236967 -0.0021262497 -0.00953881 -0.0013481041 0.009514257 -0.00060284964 0.00047736143
-0.006994981 0.008757191 -0.0023311551 -0.0069119823 0.0028762196 -0.0023480216 0.0024841786 0.008456711
0.0025854337 -0.0056652697 0.027161144 0.011762556 0.0027753892 -0.005183197 -0.032554083 -0.025205297
0.012108418 0.0037350873 0.006207104 0.0011410667 0.01228677 0.0023177539 -0.002891265 0.0059126546
0.0038712816 0.0011825643 0.009978088 0.0016288095 0.000922565 -0.0005670409 -0.0012958086 -0.0021211007
-0.002899789 -0.000885466 -0.0038118246 -0.004741439 0.0063678157 -0.005028627 -0.029069895 0.014358665

e_conv1_b.bias f4 [3]
00000000: 79fa a5bc fc40 dfbd e4e1 853d
-0.020261036 -0.10901067 0.06537226

e_conv2.weight f4 [32, 32, 3, 3]
00000000: 3ec3 2d3d dbe3 443d 907f ee3c dcc1 123d
00000010: e2c2 a6bb cf02 0e3d c3b7 803d 200d 8b3d
00000020: 24e9 b6bc 9d94 5cbb 3e23 0dbb fce7 c1ba
00000030: 3f40 51bb 3386 26bb 5c8c 36bb 24f5 37bb
00000040: e2d6 4abb e4cb 6cbb 4b30 263d ebeb fb3c
00000050: e874 203d e8ca 133d 027e d03c af52 093d
00000060: 2681 453d 0b15 173d f1c5 313d f4a9 e9bb
00000070: 90f8 13bc 5bac 29bc d5f0 c7bb e75a eabb
00000080: ed63 35bc 18da b1bb 40b6 c4bb 5848 43bc
00000090: a2b1 09be 61c7 51bd 5345 cbbb 8c15 cfbc
000000a0: 0800 10bd 29a2 16bc 4367 643b cf19 54bd
000000b0: 55bd 4bbc 2597 9a3c f3f3 613c d7c1 3f3c
000000c0: 1aee cb3b c232 163c 76f9 043c 6690 a3ba
000000d0: 1ae0 f8b9 6c4e 01bc b9c7 44bd ee03 423d
000000e0: 16dc 233d aaef a5bc ec24 9a3c 804a bebb
000000f0: 436f 853c fd3e b63b 571c 5bbb 825a 1e3c
00000100: d957 a63b f54b 84ba 4203 8c3c 8213 433c
00000110: 263a bd3b 1ea4 863c 042b 403c 1d5f 8f3b
00000120: 88aa 373c 7458 653c d0f2 1d3c 0c98 8bbb
00000130: 9fd3 903b 931e 373c 3329 edbb f0f8 f0bb
00000140: 821f 7f3a 2a57 323d 1fd2 163d 08ef 433d
00000150: 8838 e23c e806 b93c 3c3d f43c e59e d23c
00000160: dc9f 9f3c 704a c13c 61a2 1b3c c4b4 053c
00000170: fef0 023c 9d61 e23b ad36 cd3b 2076 f13b
00000180: 7bd5 d63b 374b d83b 97fb 0b3c 49b7 4ebc
00000190: fe92 2bbc cea1 f2bb 1f21 01bc ba3b 10bc
000001a0: 5667 d2bb 091f d53a 222e 0bbb 5f9a b9ba
000001b0: 1236 163a efbc ea39 2136 d039 e5d9 81b9
000001c0: d369 6cb9 bcb0 42b9 b1a3 2f39 b5a6 c739
000001d0: f709 033a f82c c0bc 51ec f7ba 49fa 183b
000001e0: cbc5 06bc f5ac a5bc 043b f1bc 79cf 823c
000001f0: dfe9 d0bc b6ef 04bc 100b 7bbc cdff babb
00000200: 3938 51bc 9ca0 5cbc 3540 89bc b8d2 36bb
00000210: 2d9b 943b 664f 5f3c f6f0 82bb 1f27 d13b
00000220: 801b 003c e8c8 413c 086e d93b ba8c f13b
00000230: cdc5 2f3c c575 e03b 58ee f53b 515e 193c
00000240: c289 0000 c189 0000 2489 0000 b889 0000
00000250: eb88 0000 7989 0000 e789 0000 8689 0000
00000260: b988 0000 7c25 563d 290b b53c c1a2 c03c
00000270: de2e 5fbc 50f2 173d 6560 53bc 7337 29bc
00000280: 2788 8bbb 8b91 71bc 5397 043d 96ef ad3c
00000290: 201a ab3c 49cb e73c 3827 8c3c 2a70 7e3c
000002a0: 1d86 f43c d361 9e3c 632f 943c 527b a83c
000002b0: f492 dd3b 3b06 083c a51e 7b3c 4f22 2e3c
000002c0: d758 383c 3e51 7b3c 3513 733c c692 553b
000002d0: 740e ac3b 47e4 863b d3e8 94ba 9b1c 7cbb
000002e0: b3c1 0abb d1fd e1ba 6a8b c8bb c4f0 b4ba
000002f0: 4f78 183b 6207 103d e60e 9a3c 77f6 5e3c
00000300: fc7c 0b3d 73c7 963c 3b56 433c 0c0e 193d
00000310: d0b3 bb3c 6dff 713c 5fd1 dc3b f84c 10bb
00000320: cb8b ffbb 082b 49bc 2a8f ddbc e14e 29bd
00000330: 0e10 32bd a094 f3bb 67a0 54bc fd13 df3a
00000340: d978 3c3b 4281 843b 1fec ee3b 9147 8f3b
00000350: dd87 da3a af4b c53b 29e5 543b 3465 013b
00000360: b8c7 d8bc d460 4a3b cec2 473c 57ed 74bc
00000370: 3d2f c2bc c0e7 7bbc f3e7 39bc b9c8 c03a
00000380: 820a d1bc 1952 12bc 3a37 10bd 0abb 96bc
00000390: 6941 5abd b3f2 893a 329a c8bc 453c b83c
000003a0: 2bfb e5bd 952d 163d 589d dc3b 2b7e 763c
000003b0: 42ed 8d3c ae21 423c cbe5 593c bd27 5b3c
000003c0: 8567 433c 5849 3d3c 7657 513c 2644 993d
000003d0: cea1 963d 9fe7 803d 0fe5 903d 651b 903d
000003e0: ec29 713d ec35 813d 1205 863d ff44 773d
000003f0: 4370 a1bc e1da eebb 98e7 86bb 3b47 9f3b
0.042422526 0.048068862 0.02911356 0.03582941 -0.00508915 0.034670647 0.0628505 0.06789613
-0.022327967 -0.0033657916 -0.0021535899 -0.0014793868 -0.0031929163 -0.0025409579 -0.0027854657 -0.00280697
-0.0030950834 -0.003613227 0.0405734 0.030752143 0.03917399 0.03608218 0.02545071 0.03352612
0.04821887 0.036885303 0.043401662 -0.0071308557 -0.00903143 -0.010356034 -0.0061017075 -0.0071519497
-0.011071187 -0.00542761 -0.006003171 -0.011919104 -0.13446668 -0.051215533 -0.0062033325 -0.025278829
-0.03515628 -0.009193935 0.0034851588 -0.051782425 -0.012435277 0.0188709 0.013791072 0.01170393
0.0062234523 0.009167375 0.008116117 -0.0012478947 -0.00047469215 -0.007892232 -0.048042033 0.04736703
0.040004812 -0.020255882 0.018816434 -0.005807221 0.016288405 0.005561708 -0.003343364 0.009665133
0.00507639 -0.0010093438 0.017091397 0.0119065065 0.005774754 0.016435679 0.011729006 0.004375352
0.011210091 0.01399814 0.009640411 -0.0042600688 0.0044197585 0.011176723 -0.0072375773 -0.0073538944
0.0009732173 0.043540157 0.03682148 0.04783538 0.027614847 0.022586301 0.029814355 0.025710532
0.019485407 0.023595065 0.009499163 0.008160774 0.007992027 0.006908609 0.0062626214 0.007368818
0.0065562106 0.006600763 0.00854387 -0.012616941 -0.010472057 -0.0074045425 -0.007881432 -0.008803302
-0.00642101 0.001625986 -0.0021237214 -0.0014160386 0.0005730103 0.00044772725 0.0003971318 -0.0002476714
-0.00022546136 -0.0001856712 0.0001675028 0.00038080444 0.00049987383 -0.023458943 -0.0018915032 0.002334254
-0.008225868 -0.020224074 -0.029447086 0.015968071 -0.025502143 -0.008113792 -0.015322462 -0.0057067634
-0.012769752 -0.013466027 -0.01675425 -0.0027896594 0.0045351 0.01362977 -0.00399601 0.0063828374
0.0078190565 0.011827685 0.006635431 0.0073715122 0.010728312 0.0068499767 0.0075052194 0.009360866
4.9418e-41 4.9417e-41 4.9197e-41 4.9404e-41 4.9117e-41 4.9316e-41 4.947e-41 4.9334e-41
4.9047e-41 0.05228184 0.022100048 0.023515107 -0.013622014 0.03709632 -0.0129014 -0.0103281615
-0.004258174 -0.014744173 0.032370877 0.021232408 0.02088648 0.028295176 0.017108545 0.015529672
0.029849106 0.019333756 0.018089002 0.020566616 0.006761903 0.008302267 0.01532713 0.010628297
0.01125165 0.015339194 0.014836122 0.0032588704 0.0052507464 0.0041165682 -0.0011360891 -0.0038469199
-0.0021172583 -0.0017241781 -0.006120135 -0.0013804664 0.002326507 0.03516329 0.018805932 0.0136085665
0.03405474 0.018405652 0.011922414 0.03736691 0.02291289 0.014770371 0.006738826 -0.0022018533
-0.007798647 -0.012278326 -0.027045805 -0.04133499 -0.043472342 -0.007433489 -0.012977696 0.0017019507
0.0028758554 0.004043729 0.0072913314 0.004372545 0.001667257 0.006020985 0.0032485223 0.001974416
-0.02646242 0.0030880468 0.012192441 -0.014949164 -0.023704166 -0.015375078 -0.011346805 0.0014708258
-0.025517706 -0.008930706 -0.03520892 -0.018399734 -0.053285036 0.00105246 -0.024487589 0.022489676
-0.11229547 0.036664564 0.006732624 0.015044729 0.017325047 0.01184885 0.013299416 0.013376174
0.011926536 0.011553131 0.0127772 0.074837014 0.073550805 0.06294178 0.070749395 0.07036475
0.05887787 0.06309113 0.06543936 0.060368534 -0.01970685 -0.007289276 -0.0041169636 0.0048607863

e_conv2.bias f4 [32]
00000000: 337f c0bc 80cb 5ebc 72a6 e73d a56a d23c
00000010: a610 9cbc 0016 ae3d ac09 a43b fabb 953d
00000020: 085e e83c 5289 0080 d965 8d3c 09af fe3d
00000030: 6466 ac3d 01f0 19bc f783 da3b 7e38 a03d
00000040: c48d bbb3 f4c6 85bc de1b 4d3d 087b 5b3d
00000050: f824 cb3a 738f 103b 46ae 5f3d 8cf5 e935
00000060: bdfc b1bc 91da fa39 8f81 ccbc 520b 763d
00000070: df2f 58bd 9502 053b 593a 2dbd 30f8 3dbd
-0.023498153 -0.013598323 0.11311044 0.025685618 -0.019050907 0.0850029 0.005006036 0.07311244
0.02836515 -4.9261e-41 0.017260479 0.12435729 0.08417967 -0.0093956 0.0066685635 0.07823275
-8.733653e-08 -0.01633022 0.050075404 0.05358413 0.0015498688 0.0022058159 0.05460956 1.7431316e-06
-0.02172696 0.0004784656 -0.024964122 0.06006939 -0.05278003 0.0020295728 -0.042291973 -0.04637927

e_conv2_a.weight f4 [3, 32, 3, 3]
00000000: 8c83 50bc dc9e c2bb 4fc4 4abc d95e 82bc
00000010: 7c41 fabb 018e 87bc 5986 83bc f2f4 3abc
00000020: 53b2 57bc b048 03bc a707 07ba d78e 6cbc
00000030: b232 3ebb 3d5c e23b 76b1 7dbb ba4c 2fbc
00000040: d7d5 21b9 9bfc 67bc fcbb aab7 4cf9 a13d
00000050: 5b07 26bb 0ec1 a63d caa9 133e 9b6a 883d
00000060: 84b3 4e3c 54e4 a43d a8d5 8c3a 7553 e83c
00000070: 4868 3f3d a015 833c 09bf e13c 255b 783d
00000080: 8f58 2d3d bb6a c23b dd9b 223d 75a8 0f3c
00000090: 747e b7bc 6700 a7bc 6e4d 97bb 5f52 efbc
000000a0: 72ea 04bd 5958 06bd 27f8 f33b 0cbf aebc
000000b0: 0738 0cbd a578 50bd 01c7 b43c 760e cc3d
000000c0: c2e6 8dbc 29c4 cebd 1075 5ebc c8cb 573d
000000d0: a16b 973d 3a9b 0abe f750 2abb fc5c 15bb
000000e0: f73b a8bc a809 803c 2c18 aa3c 6285 093c
000000f0: 7030 01bc e8dd 4cbb 05d0 aabc 4068 d73b
00000100: 76b8 b1bc 9cad 7bbb 8f04 3dba d84a 973d
00000110: d98e 943c ce4a aebc 67c1 3dbd 9f83 2b3d
00000120: 1726 8fbc ef60 b3bb 4df9 89bc 1eb3 483d
00000130: 402f 013d 8ac7 38bd cc8a 9c3c 0bc6 45bd
00000140: 1a8a 17bb 6e89 0000 ac89 0000 5d89 0000
00000150: d389 0080 b389 0000 7b89 0080 c989 0080
00000160: e489 0080 cc89 0000 10a3 75bb 6629 d33a
00000170: 1342 8b3b efa9 adba 68aa c03b c9ed ad3b
00000180: 9dce adbb 77c3 2cbc ce23 3fbc 52e1 3c3c
00000190: 2c6f b53d 67ce 463c bf7f 863d 1b51 0a3e
000001a0: 482d 863d f58b 3f3b b9c5 a93d fb19 a73b
000001b0: acf1 ae3b 96a5 713c 19ee 203b 6291 713d
000001c0: 503e 0e3d 37f7 303d ab96 8ebd 8531 83bd
000001d0: 1c4d 0a3d f06a 303b 0e1f 01bc 6d01 45ba
000001e0: d569 9abb 6f30 9cbc 1d8a 54bc bb69 533a
000001f0: c561 86bc 2464 13bc 2c2b 5f3c c7bb 123c
00000200: 5d32 4b3c e229 873c 8b5c 493b 7962 6dba
00000210: a1db 8ebb 3c24 80bc 9576 b9bc 23bb 163d
00000220: 51cb a9ba e36d bc3c 14d8 f93c c5c7 113d
00000230: 5847 053d 0830 8a3c 5af7 a73c 4619 1e3c
00000240: e289 0000 a589 0000 6289 0000 54a5 0080
00000250: ac94 0080 b689 0080 7f89 0080 2589 0080
00000260: ba89 0080 ca63 673c a84f f53c d6ac 543d
00000270: 19f2 963b 97a7 8ebd f3ef 85bd ec4c 1c3d
00000280: 3cf7 b83c 0b98 8e3d 8ab5 f43c f90e b6bc
00000290: 3ef7 053c dd97 213e a5eb acbc 6af6 bebd
000002a0: 0138 fdbc 4dd4 b83c df12 ea3d 44bc b53b
000002b0: 823c a63c 705d 4b3b ce13 983c 25f7 033d
000002c0: 0b89 9e3c b034 c23a a740 873c 41f9 ac3b
000002d0: 43bd b33a 5183 78bb 0c3a a6bb 727d 973b
000002e0: 9de7 943b a783 8f3b 51e3 f538 6f26 90bb
000002f0: d2ee 1ebb 0c02 6f3b 5214 723b f205 1db9
00000300: f775 923b eb27 b83a f9c8 e43a c673 063c
00000310: 5d4e 743b 79e6 1d3c 602d c9ba d781 a4bb
00000320: 6997 883c d18e 66bc 64c5 973c f87c 873c
00000330: 2baf 823c 64ea 043d 8f20 c93c 62fb eb3d
00000340: 8cfc 5bbd 86c0 1a3d 7822 1ebb 8aca 853d
00000350: 8af6 dfbb c8c2 cebc 52ce e1bc 0e98 bc3d
00000360: 52b5 37bc 89fc afbb 481e 54bc 5ad0 adbc
00000370: 5fdd 78bc dbd7 8dbc 1b23 b3bc 5036 99bc
00000380: 26ce d5bc 9db7 fc3b 75db 603c a61f 373b
00000390: f70a 613c eee3 683c 91b1 393c 08f6 cd3b
000003a0: aa06 0a3a 30b1 9dbb 3974 1ebc a26f e7ba
000003b0: 58ad d8bb 0dc6 a2bb 990a e53b 9e99 e93a
000003c0: ad0e 43bc 88d6 37bb a857 3dbc 8b4f 0e3c
000003d0: 28cc 4b3d e07e 6f3c cf34 3c3d 926d b23d
000003e0: 789c 523d 4cb4 253c a280 573d 6bc5 823c
000003f0: 0c41 143d 84db f13c 774a 25bb 4766 2c3d
-0.012726676 -0.0059393477 -0.012375905 -0.015914368 -0.007637201 -0.016547205 -0.016055273 -0.011410939
-0.013165074 -0.0080129355 -0.00051509816 -0.014438353 -0.0029021916 0.0069079683 -0.0038710511 -0.010699445
-0.00015433818 -0.014159347 -2.0353116e-05 0.07908878 -0.0025333974 0.08142291 0.14420238 0.066609584
0.012616042 0.08051363 0.0010744827 0.028360108 0.04673031 0.016001523 0.027556913 0.060633797
0.042320784 0.0059331334 0.039699424 0.008768191 -0.022399165 -0.020385934 -0.0046173846 -0.029214082
-0.032450147 -0.0327991 0.0074453535 -0.021331333 -0.03423312 -0.050896306 0.022067549 0.09963696
-0.017321948 -0.10096008 -0.013577715 0.052684575 0.073935755 -0.13535777 -0.00259882 -0.0022791019
-0.020536406 0.015629604 0.02076348 0.008393617 -0.007885084 -0.0031260196 -0.020851145 0.006573707
-0.021694403 -0.003840304 -0.0007210457 0.07387322 0.018134521 -0.021275904 -0.04632702 0.04187357
-0.017474217 -0.005474202 -0.016842509 0.048998944 0.0315392 -0.04511217 0.019109152 -0.04828457
-0.0023123086 4.93e-41 4.9387e-41 4.9277e-41 -4.9442e-41 4.9397e-41 -4.9319e-41 -4.9428e-41
-4.9466e-41 4.9432e-41 -0.0037481226 0.001611036 0.00424982 -0.0013249497 0.005879689 0.005307887
-0.0053041712 -0.010544649 -0.011666251 0.01152833 0.08859095 0.012134171 0.065673344 0.13507502
0.065516055 0.0029227708 0.08289666 0.0050995327 0.005338868 0.014748951 0.002455598 0.05897654
0.034727395 0.043204512 -0.069623314 -0.064059295 0.033764943 0.0026919208 -0.007880939 -0.0007515166
-0.004712323 -0.019066064 -0.012972382 0.00080647663 -0.016404042 -0.008996043 0.013621133 0.008955902
0.012402144 0.016499463 0.0030725326 -0.0009055506 -0.004359678 -0.015642278 -0.022639552 0.03679956
-0.001295427 0.023001617 0.030498542 0.035590906 0.03253874 0.016868606 0.020503689 0.00964958
4.9463e-41 4.9378e-41 4.9284e-41 -5.9309e-41 -5.3333e-41 -4.9401e-41 -4.9324e-41 -4.9198e-41
-4.9407e-41 0.014122913 0.02994521 0.05192264 0.004606497 -0.06965559 -0.06539907 0.038159296
0.022578828 0.06962594 0.02987172 -0.022223936 0.008176623 0.15780587 -0.021108458 -0.093243435
-0.030910494 0.02256217 0.114293806 0.0055461247 0.020292524 0.0031031035 0.018564131 0.032218117
0.019352457 0.0014816727 0.01651032 0.005278737 0.0013713021 -0.0037920068 -0.0050728377 0.0046231085
0.004544212 0.004379708 0.00011724851 -0.004399113 -0.0024251235 0.0036469726 0.0036938381 -0.00014974902
0.004469629 0.0014049982 0.0017454914 0.0082063135 0.0037278153 0.0096374685 -0.0015348606 -0.005020361
0.01667376 -0.014072136 0.01852674 0.016539082 0.015952667 0.032450095 0.024551658 0.11522557
-0.053707644 0.03778126 -0.0024129432 0.06532772 -0.0068348097 -0.025239363 -0.027564202 0.0920869
-0.011212664 -0.0053706807 -0.012946673 -0.021217514 -0.015189498 -0.017314842 -0.021867326 -0.018702656
-0.026099276 0.007712318 0.013724198 0.0027942448 0.013735524 0.014214499 0.011333839 0.0062854327
0.0005265275 -0.004812382 -0.009671264 -0.001765717 -0.006612461 -0.004967457 0.0069897887 0.0017822271
-0.011905354 -0.0028051455 -0.011556543 0.008685957 0.049755245 0.014617652 0.0459488 0.08712305
0.05141875 0.010113787 0.05261291 0.015963277 0.036194846 0.029523619 -0.0025221386 0.042089727

e_conv2_a.bias f4 [3]
00000000: a70b 013c 138d a03d 74d6 403e
0.007876313 0.07839408 0.18831807

e_conv2_b.weight f4 [3, 32, 3, 3]
00000000: 25c0 a0ba 5de4 c4ba d4b2 b3ba b102 80ba
00000010: 0f9e a5ba 2a4d 94ba e55d c8ba 05f1 05bb
00000020: 3ab0 dfba 7022 9dbb c026 60bb 76e9 9fbb
00000030: 18f7 6ebb b54a 0dbb 9a3b 81bb 4d3a 90bb
00000040: bf01 4abb b001 9cbb afe6 75ba 5e09 073b
00000050: 723a 52ba 26dc b63a 4b56 913b deb1 e83a
00000060: d81e a3b9 029a 343b edc0 5737 d0d0 bcb9
00000070: b60a 153a f58f b6b4 f23b 0e3a 48cf bd3a
00000080: 076d 643a 26bb f5b8 bf17 4a3a 5d71 6339
00000090: b91e 593b a2aa 193b 41c5 be3a d251 3b3b
000000a0: 049f fe3a 1370 a13a be06 633b 8988 2b3b
000000b0: 5eb8 f63a da17 4bbb a4d8 24bb fbaa 65bb
000000c0: 7237 1bbb 784f ccba 37ac 1fbb 95cf 2cbb
000000d0: 8caf 0dbb e163 4fbb 446d d3ba 2c41 90ba
000000e0: 9d24 25bb af00 1fba 1c07 c6b8 bec2 c1ba
000000f0: e22b 23bb beca 00bb ed63 56bb 1b1f 09bb
00000100: 035f 9dba bd48 d3ba 8324 64ba 3e25 433a
00000110: d270 2eba 31fe 0cba d174 563a eed7 183a
00000120: ed60 1139 2a4e ceb9 45c6 82ba 94e4 6bb9
00000130: 467c 1eba 5488 9dba 1238 95b9 4d7e 89ba
00000140: 1598 87ba 6f9b 0080 1089 0080 d988 0080
00000150: 8290 0080 348f 0000 2889 0080 4e8b 0000
00000160: 7989 0000 4a8b 0080 037b b3ba 6b64 90ba
00000170: 1123 00ba 7418 b8ba 7a1b 94ba f385 66ba
00000180: 45bc d2ba 6cce abba 7c77 5fba 3522 b339
00000190: a9cc 7e3b 7892 0c3b 8c2a 243b 79a7 c03b
000001a0: e8cd 873b b7dc 2838 c355 633b e97f d03a
000001b0: 66f0 80ba 90be 133a e5f7 31ba 33bc 4aba
000001c0: 09cb 213a 22f2 edb9 cc41 0abb d782 99ba
000001d0: ec7e 27bb 2029 ab39 1a84 d739 cdcf a139
000001e0: dc21 fa39 f083 be39 ca71 c839 6466 37b9
000001f0: bb39 2cb9 cf60 e238 37de 543a 8743 963a
00000200: c6f2 a939 e8ee 3d3a 665e a23a a578 1b3a
00000210: 074f 12b8 ce74 4f3a ce5c 57b8 6ec6 a33a
00000220: c829 ff3a 5d76 b13a ba35 333b 4574 5d3b
00000230: 9d64 3b3b 5c41 7bb9 c3be 0b3a 91e6 c9b8
00000240: fe8b 0000 6a8c 0000 038a 0000 e889 0000
00000250: 798a 0000 2a8b 0000 bd8a 0000 4c8c 0000
00000260: bc8b 0000 3795 213a 74f6 303a f445 373a
00000270: ee91 e339 682e 1f3a 6c43 503a b79b c73a
00000280: 2039 9b3a f11a ee3a 959a ae3b d433 9c3b
00000290: 14bb a83b 6ebd ae3b 48c2 9a3b 06c6 9d3b
000002a0: f5d1 af3b 5486 b33b 494c b03b 5917 9a39
000002b0: 1250 7f3a bb27 ae39 0f6f 833a 01f0 e23a
000002c0: a883 ab3a e211 2aba b602 a239 48e6 15b8
000002d0: 0289 b338 f4bb 333a 8ea4 bc39 90a0 8739
000002e0: 2a7f 443a 267b d639 4d28 6fb8 863e d939
000002f0: ff5c 64b8 fcec 9d39 10fb 903a 0794 e239
00000300: 9b3b 8c39 588e 933a 8301 453a bc7b 27b8
00000310: 9e78 5c3a e0aa 183a 91dd 8f39 da79 273a
00000320: 4aa6 efb8 42cc 5039 365f 0b3a 9ce8 3ab9
00000330: d615 e938 923a f939 e98b 73b9 9e94 673b
00000340: 23a8 853b 1d22 1c3b e26d 3e3b c849 483b
00000350: 491e 993a 187a 293b c15f 3a3b b87a 913a
00000360: d232 9aba ee92 9fba 7466 afba 53a1 1dbb
00000370: 7ddf 21bb d03b 2fbb 9ccc 34bb ce04 3ebb
00000380: bf98 4ebb 0ac5 543b acda 473b ae3e 1f3b
00000390: 29e1 703b 542f 5e3b a9ce 413b aa81 533b
000003a0: c513 513b 35c9 2d3b bc43 54ba 165f d539
000003b0: fc97 59ba d196 33b9 235b af3a 2b59 19b8
000003c0: c755 27bb f382 84ba 40ed 21bb 2097 a3b9
000003d0: e245 d139 3643 90ba 98a1 543a f67b c03a
000003e0: 628a 14b8 410c 93b8 0ce7 2e3a 1492 5cba
000003f0: 394d 773a e797 2b3a bdbb 853a f19e 123a
-0.0012264295 -0.0015021671 -0.0013709911 -0.0009766427 -0.0012635606 -0.0011314501 -0.0015286772 -0.0020437848
-0.0017066069 -0.004795365 -0.0034202784 -0.0048801256 -0.0036463197 -0.0021559421 -0.0039438726 -0.0044014812
-0.0030823795 -0.0047609434 -0.0009380383 0.0020604949 -0.0008019573 0.0013951107 0.0044353358 0.0017753204
-0.00031112763 0.0027557616 1.2859918e-05 -0.00036013732 0.0005685495 -3.4004884e-07 0.00054258027 0.001448133
0.0008713756 -0.000117173695 0.0007709227 0.00021690638 0.0033129884 0.0023447652 0.0014554636 0.0028582704
0.0019426052 0.0012316726 0.003464147 0.002617391 0.0018823256 -0.0030989558 -0.0025153542 -0.003504454
-0.002368417 -0.0015587648 -0.0024364123 -0.0026368846 -0.0021619527 -0.0031645226 -0.0016130586 -0.0011005751
-0.0025198825 -0.00060654705 -9.4427e-05 -0.0014782769 -0.0024897982 -0.0019652094 -0.003271337 -0.0020923081
-0.0012006465 -0.00161197 -0.00087029504 0.0007444209 -0.0006654385 -0.00053784536 0.0008180859 0.0005830516
0.00013864385 -0.0003934962 -0.0009977302 -0.00022496498 -0.000604574 -0.0012018778 -0.0002846127 -0.0010489911
-0.0010345007 -5.5759e-41 -4.9169e-41 -4.9092e-41 -5.184e-41 5.1372e-41 -4.9202e-41 4.9973e-41
4.9316e-41 -4.9968e-41 -0.0013693277 -0.0011016255 -0.0004888038 -0.0014045374 -0.0011299693 -0.00087937637
-0.0016077837 -0.0013107783 -0.00085245795 0.00034167027 0.0038879311 0.0021449607 0.0025049774 0.0058793393
0.004144419 4.0259878e-05 0.003468857 0.0015907261 -0.0009837269 0.0005636001 -0.00067889533 -0.00077337323
0.0006171917 -0.00045384566 -0.0021096347 -0.0011711967 -0.002555783 0.00032646302 0.0004110642 0.00030863137
0.00047708943 0.00036337925 0.00038231752 -0.00017490383 -0.00016424705 0.00010794552 0.0008120271 0.0011464217
0.00032415072 0.00072453776 0.0012387752 0.0005930758 -3.4882712e-05 0.00079138286 -5.1346426e-05 0.001249505
0.0019467408 0.0013539303 0.0027345256 0.0033791226 0.0028593906 -0.00023961574 0.0005330855 -9.627373e-05
5.022e-41 5.0371e-41 4.9509e-41 4.9471e-41 4.9675e-41 4.9923e-41 4.977e-41 5.0329e-41
5.0127e-41 0.00061638973 0.00067505916 0.000699132 0.0004340554 0.0006072284 0.0007944617 0.0015228902
0.0011842586 0.0018165988 0.005328486 0.0047669206 0.0051492546 0.0053326404 0.004722867 0.004814866
0.005365605 0.0054786596 0.0053801876 0.00029390564 0.00097394094 0.00033217468 0.0010027605 0.0017313958
0.0013085501 -0.000648765 0.00030901068 -3.5738834e-05 8.560905e-05 0.00068563153 0.00035980757 0.00025868835
0.00074957556 0.00040909013 -5.7019573e-05 0.0004143605 -5.4446045e-05 0.0003012194 0.001106115 0.00043216368
0.0002674729 0.0011257632 0.0007515179 -3.993114e-05 0.00084103073 0.0005823802 0.00027440165 0.0006388702
-0.00011427382 0.00019912518 0.0005316617 -0.00017824996 0.00011114373 0.0004753662 -0.00023226406 0.0035336385
0.0040788813 0.0023824044 0.0029057194 0.0030561555 0.0011681999 0.0025860127 0.0028438421 0.0011099195
-0.0011764413 -0.0012174526 -0.0013381974 -0.0024052456 -0.002469986 -0.0026738532 -0.0027587777 -0.0028994563
-0.003152415 0.0032466077 0.0030495329 0.0024298835 0.00367553 0.0033902721 0.0029572642 0.003227333
0.0031902653 0.0026517634 -0.00080972514 0.0004069737 -0.00083005405 -0.00017126954 0.0013378601 -3.6561087e-05
-0.0025533305 -0.0010109827 -0.0024708062 -0.0003120238 0.00039915653 -0.0011006359 0.00081112375 0.0014685381
-3.541483e-05 -7.011789e-05 0.0006672002 -0.00084141013 0.00094338093 0.00065457675 0.0010203045 0.0005593142

e_conv2_b.bias f4 [3]
00000000: 8951 523c 72dc 443c 2296 1dbe
0.012836822 0.012015449 -0.15389302

e_conv3.weight f4 [32, 32, 3, 3]
00000000: 228a 0080 318b 0080 b889 0000 f488 0080
00000010: ee88 0080 668a 0080 9689 0080 2489 0000
00000020: 7b8b 0000 2f8b 0000 228a 0080 888a 0080
00000030: 9589 0080 7e9c 0000 d088 0080 168a 0000
00000040: ac8b 0000 8a8a 0000 ed89 0080 d388 0000
00000050: fd8a 0080 8989 0080 f28a 0080 109f 0000
00000060: f188 0080 0d8b 0000 bb88 0000 4990 0000
00000070: a689 0000 7d8c 0080 228b 0080 008a 0000
00000080: 2f92 0000 328a 0080 e988 0000 b988 0000
00000090: a289 0000 1389 0000 f089 0000 7989 0080
000000a0: b089 0080 4489 0080 bc88 0000 d18a 0000
000000b0: 7489 0080 0689 0080 d389 0080 0789 0080
000000c0: 7589 0080 0f89 0080 c988 0080 1c89 0080
000000d0: cc89 0080 4589 0080 ed88 0000 868c 0000
000000e0: c789 0000 1f89 0080 7589 0080 7598 0000
000000f0: 7789 0000 7989 0080 868b 0000 2f89 0080
00000100: 0089 0080 e788 0080 ae89 0080 3a89 0080
00000110: dc89 0080 8389 0080 2989 0080 c889 0080
00000120: 4a89 0080 d489 0080 6d89 0000 058a 0080
00000130: 5389 0080 ce89 0000 9689 0080 6089 0080
00000140: c589 0000 0689 0080 0d89 0000 a4a2 0000
00000150: b689 0080 b389 0000 c489 0000 da88 0080
00000160: 3a89 0000 058b 0080 e08a 0000 c688 0080
00000170: 2f89 0080 518a 0080 1e89 0000 048b 0000
00000180: c788 0000 c088 0000 d68b 0000 bc89 0000
00000190: a889 0000 0b8b 0080 1489 0080 3c89 0080
000001a0: e088 0000 35a8 0080 f98a 0080 2891 0000
000001b0: 9189 0080 2b89 0080 0489 0080 d188 0080
000001c0: 9189 0080 5089 0080 4a89 0080 4f89 0080
000001d0: e689 0080 6c89 0000 6589 0000 cf88 0080
000001e0: 6d89 0000 de90 0000 458a 0000 dc90 0000
000001f0: 2c92 0080 868c 0080 0c8c 0000 6189 0000
00000200: 059e 0080 6089 0000 528a 0080 fc8f 0080
00000210: dc89 0000 f888 0000 3089 0000 ca89 0000
00000220: de89 0000 6889 0000 5b89 0080 2889 0000
00000230: e989 0000 e188 0000 7389 0000 d789 0000
00000240: 618a 0080 2f89 0000 9489 0080 7c89 0080
00000250: 4b89 0080 0b8a 0080 fc88 0000 4389 0080
00000260: 4989 0000 1189 0000 7f89 0000 9698 0080
00000270: 9a89 0000 b889 0080 0d89 0000 c588 0000
00000280: 5389 0000 de89 0000 3a89 0080 0c89 0080
00000290: a489 0080 7289 0080 f189 0080 be88 0080
000002a0: c388 0080 da89 0080 3689 0080 998b 0000
000002b0: 348a 0000 378a 0000 ed88 0000 df88 0080
000002c0: d588 0000 6589 0080 f58c 0000 928b 0000
000002d0: 2b8c 0080 cd8a 0080 e889 0000 7e89 0080
000002e0: 8589 0000 5589 0080 288a 0000 048a 0000
000002f0: 6589 0000 e089 0080 8f8b 0080 3e89 0000
00000300: ad89 0000 0e90 0000 f388 0000 7789 0000
00000310: a48f 0000 c589 0080 bb88 0000 9297 0080
00000320: b98e 0080 2889 0080 db88 0000 f288 0080
00000330: c58d 0000 008a 0000 838a 0000 f789 0000
00000340: c588 0000 0489 0000 fb89 0000 9889 0000
00000350: 5689 0000 be88 0000 a689 0000 df89 0080
00000360: ce89 0000 bb89 0080 f988 0000 f089 0000
00000370: 6589 0080 1789 0080 238a 0080 4689 0000
00000380: 5689 0080 cb88 0000 5889 0000 1889 0080
00000390: a189 0080 8e8a 0080 8989 0080 ec8a 0080
000003a0: ca89 0000 3389 0080 7f89 0000 9589 0000
000003b0: 1d89 0080 d494 0000 da88 0000 2d89 0080
000003c0: dc8a 0080 0589 0000 148a 0080 9f89 0000
000003d0: 6589 0080 8a8a 0080 a389 0080 2c8a 0000
000003e0: b589 0000 e489 0080 fd89 0080 3589 0080
000003f0: 2689 0000 e888 0000 6789 0000 c189 0000
-4.9553e-41 -4.9932e-41 4.9404e-41 -4.913e-41 -4.9121e-41 -4.9648e-41 -4.9357e-41 4.9197e-41
5.0036e-41 4.993e-41 -4.9553e-41 -4.9696e-41 -4.9355e-41 5.6139e-41 -4.9079e-41 4.9536e-41
5.0105e-41 4.9698e-41 -4.9478e-41 4.9083e-41 -4.986e-41 -4.9338e-41 -4.9844e-41 5.7061e-41
-4.9125e-41 4.9882e-41 4.905e-41 5.176e-41 4.9379e-41 -5.0398e-41 -4.9911e-41 4.9505e-41
5.2441e-41 -4.9575e-41 4.9114e-41 4.9047e-41 4.9373e-41 4.9173e-41 4.9483e-41 -4.9316e-41
-4.9393e-41 -4.9242e-41 4.9051e-41 4.9798e-41 -4.9309e-41 -4.9155e-41 -4.9442e-41 -4.9156e-41
-4.931e-41 -4.9167e-41 -4.9069e-41 -4.9186e-41 -4.9432e-41 -4.9243e-41 4.912e-41 5.041e-41
4.9425e-41 -4.919e-41 -4.931e-41 5.4691e-41 4.9313e-41 -4.9316e-41 5.0052e-41 -4.9212e-41
-4.9146e-41 -4.9111e-41 -4.939e-41 -4.9228e-41 -4.9455e-41 -4.933e-41 -4.9204e-41 -4.9427e-41
-4.925e-41 -4.9443e-41 4.9299e-41 -4.9512e-41 -4.9263e-41 4.9435e-41 -4.9357e-41 -4.9281e-41
4.9422e-41 -4.9155e-41 4.9165e-41 5.8344e-41 -4.9401e-41 4.9397e-41 4.9421e-41 -4.9093e-41
4.9228e-41 -4.9871e-41 4.9819e-41 -4.9065e-41 -4.9212e-41 -4.9619e-41 4.9188e-41 4.987e-41
4.9066e-41 4.9057e-41 5.0164e-41 4.941e-41 4.9382e-41 -4.9879e-41 -4.9174e-41 -4.923e-41
4.9101e-41 -6.0341e-41 -4.9854e-41 5.2072e-41 -4.935e-41 -4.9207e-41 -4.9152e-41 -4.908e-41
-4.935e-41 -4.9258e-41 -4.925e-41 -4.9257e-41 -4.9469e-41 4.9298e-41 4.9288e-41 -4.9078e-41
4.9299e-41 5.1969e-41 4.9602e-41 5.1966e-41 -5.2437e-41 -5.041e-41 5.024e-41 4.9282e-41
-5.6687e-41 4.9281e-41 -4.962e-41 -5.1652e-41 4.9455e-41 4.9135e-41 4.9214e-41 4.943e-41
4.9457e-41 4.9292e-41 -4.9274e-41 4.9202e-41 4.9473e-41 4.9103e-41 4.9307e-41 4.9448e-41
-4.9641e-41 4.9212e-41 -4.9354e-41 -4.932e-41 -4.9251e-41 -4.952e-41 4.9141e-41 -4.924e-41
4.9249e-41 4.917e-41 4.9324e-41 -5.4738e-41 4.9362e-41 -4.9404e-41 4.9165e-41 4.9064e-41
4.9263e-41 4.9457e-41 -4.9228e-41 -4.9163e-41 -4.9376e-41 -4.9306e-41 -4.9484e-41 -4.9054e-41
-4.9061e-41 -4.9452e-41 -4.9222e-41 5.0078e-41 4.9578e-41 4.9582e-41 4.912e-41 -4.91e-41
4.9086e-41 -4.9288e-41 5.0566e-41 5.0068e-41 -5.0283e-41 -4.9792e-41 4.9471e-41 -4.9323e-41
4.9333e-41 -4.9265e-41 4.9561e-41 4.951e-41 4.9288e-41 -4.946e-41 -5.0064e-41 4.9233e-41
4.9389e-41 5.1677e-41 4.9128e-41 4.9313e-41 5.1529e-41 -4.9422e-41 4.905e-41 -5.4373e-41
-5.1199e-41 -4.9202e-41 4.9094e-41 -4.9127e-41 5.0857e-41 4.9505e-41 4.9689e-41 4.9492e-41
4.9064e-41 4.9152e-41 4.9498e-41 4.936e-41 4.9267e-41 4.9054e-41 4.9379e-41 -4.9459e-41
4.9435e-41 -4.9408e-41 4.9137e-41 4.9483e-41 -4.9288e-41 -4.9179e-41 -4.9554e-41 4.9244e-41
-4.9267e-41 4.9072e-41 4.927e-41 -4.918e-41 -4.9372e-41 -4.9704e-41 -4.9338e-41 -4.9836e-41
4.943e-41 -4.9218e-41 4.9324e-41 4.9355e-41 -4.9187e-41 5.339e-41 4.9093e-41 -4.921e-41
-4.9813e-41 4.9153e-41 -4.9533e-41 4.9369e-41 -4.9288e-41 -4.9698e-41 -4.9375e-41 4.9567e-41
4.94e-41 -4.9466e-41 -4.9501e-41 -4.922e-41 4.92e-41 4.9113e-41 4.929e-41 4.9417e-41

e_conv3.bias f4 [32]
00000000: d389 0000 d052 e9bc 969f 6c3c 6c88 843c
00000010: c447 293d 0086 503d b889 0000 9c1b 613d
00000020: a879 a03d ce33 743d 9289 0080 3b7c f43b
00000030: 8111 a33d 15a5 063d 39bd 85bc 7c22 673d
00000040: 116c 343d ffca f03c 4a67 18bc b52e 163d
00000050: d4ca 41bd 65c8 813d c792 103d 84d4 973c
00000060: 3edc c73d c4a1 b03d 825d 013d 1297 853d
00000070: 9122 983c 604d 883d f48c 233d b9f9 893c
4.9442e-41 -0.02848187 0.014442345 0.016178332 0.041328207 0.050909042 4.9404e-41 0.05495797
0.07835704 0.059619717 -4.9351e-41 0.0074610985 0.07962323 0.03287228 -0.01632558 0.05642937
0.044048373 0.029393671 -0.00930197 0.036665637 -0.047312573 0.0633705 0.035296228 0.018533953
0.09758805 0.08624604 0.031583317 0.06522955 0.01857117 0.06655383 0.039929345 0.01684271
