epoch_10_model.pth (torch, 288090 bytes, 42 tensors)

e_conv1.weight f4 [32, 3, 3, 3]
000000 dc d8 46 bc fa 04 2e 3f 3a 48 ee 3c b8 19 af be
       -0.012136664 0.67976344 0.029087175 -0.3419931
000010 0e 42 e1 3e 99 29 bd 3d 5a 84 89 be f9 80 2c 3e
       0.43995708 0.0923645 -0.2685879 0.16846074
000020 f9 49 00 be 8c 96 88 be cb e6 35 3e c2 f7 db bd
       -0.12528218 -0.26677358 0.17763822 -0.107406154
000030 23 f3 ca be de 78 8e 3e 7a 89 18 3d 57 12 08 3d
       -0.39638624 0.2782659 0.037240483 0.033220615
000040 94 84 80 be 52 15 d3 be 76 3f 8e 3c 5d 52 b8 bd
       -0.2510115 -0.41227204 0.017364245 -0.090000845
000050 f2 4e 4d bd c0 92 82 bb f3 6e a7 be 85 64 1d be
       -0.050124116 -0.003984779 -0.32701835 -0.15370376
000060 69 03 a6 bd df 67 3d be a6 45 ac 3d d5 bd 3d be
       -0.08106119 -0.18496655 0.08411722 -0.18529446
000070 fe 8f 98 3d ed f5 23 3d 6f fd a2 3d e5 a6 03 3e
       0.07449339 0.040029455 0.07958495 0.12856634
000080 e8 46 19 3e b0 9e 81 be 85 38 df be 99 aa 2b be
       0.14968455 -0.2531638 -0.43597808 -0.16764297
000090 c9 f1 8d 3e ae 4a 5e 3e 0f 94 27 3e ec ce e6 bd
       0.2772353 0.21708176 0.16365074 -0.11269936
0000a0 92 78 37 3d 13 4c 11 3d 93 15 8c be 7f f9 cb 3e
       0.04479272 0.03547294 -0.2736021 0.39838788
0000b0 33 21 6e 3e 94 d4 ee be 50 fa 3a be 19 9c 7a 3e
       0.23254852 -0.4664656 -0.18259549 0.24473609
0000c0 ca f4 13 3f c3 99 8a bd a4 53 9b be e0 64 42 3e
       0.57795393 -0.06767609 -0.3033725 0.18983793
0000d0 bb 26 ff 3d b6 ca 73 3d dd 58 9b 3e c4 78 d3 be
       0.12458559 0.059519492 0.30341235 -0.41303074
0000e0 dc 6e 91 be f1 28 8f bc 0c 40 06 3f 20 44 ec bd
       -0.28404891 -0.017475577 0.5244148 -0.11536431
0000f0 47 f3 d3 bd e8 c1 34 3e d9 e7 2a 3e bd 5e a8 bd
       -0.10349136 0.17652094 0.16690005 -0.08221195
000100 d7 51 9d 3c 09 b1 88 3e 3c 32 bc 3e 77 3b f9 3b
       0.019204063 0.26697567 0.36757076 0.0076059657
000110 6c 4c 5f 3e 56 4a 14 ba be 8a f6 be b6 f9 ef 3e
       0.21806496 -0.0005656829 -0.48152727 0.46870202
000120 49 98 0e be 9e 13 49 3e 50 0a b6 3e 2a 7d 81 be
       -0.1392528 0.1963639 0.35554743 -0.25290805
000130 49 2d 54 be cd 5a 9e bd 4e 67 40 be 4b 75 c3 3d
       -0.207204 -0.077321626 -0.18789408 0.09543856
000140 d6 83 10 3f 14 b3 73 bd 7b 46 56 be 04 f1 d0 bc
       0.56451166 -0.059496954 -0.20925324 -0.02550555
000150 b4 e0 50 bb f0 d0 2b 3d c9 44 7e 3d 88 ae 37 bd
       -0.0031872215 0.041947305 0.062077317 -0.04484418
000160 d2 1a c4 bd 66 da 0e 3e 76 3a ea bc 57 5d 7a 3c
       -0.09575428 0.139505 -0.02859233 0.015281043
000170 b7 8d d3 3c 68 6d 59 3a 06 c1 2c be 95 2e 01 3d
       0.02582441 0.0008294196 -0.16870508 0.031538565
000180 8a 28 52 bb 48 6e 80 bb 9c b7 b1 bb e8 fe 47 3d
       -0.003206762 -0.0039193965 -0.0054234993 0.048827082
000190 5e 10 09 be be 26 c3 3c 00 a2 53 be 3d fa 0b be
       -0.1338515 0.023822185 -0.20667267 -0.13669677
0001a0 34 00 8b 3d 03 27 b2 3b 99 96 76 3c 12 5d 7d 3e
       0.06787148 0.0054367795 0.015050554 0.24742535
0001b0 06 7f 2b 3e 94 42 2b be 74 fd dc 3e 05 fb 77 bd
       0.16747674 -0.16724616 0.4316212 -0.060542125
0001c0 97 74 d1 3d 83 33 6d be e9 c2 83 be 25 75 6a 3d
       0.10227316 -0.23164181 -0.25734642 0.057240624
0001d0 f6 63 a1 3e 54 46 f0 3d 20 03 c0 be 6e ae b6 3b
       0.31521577 0.11732164 -0.37502384 0.005574993
0001e0 f5 5e 4c be 8b d5 c1 3e 8a f9 9b 3d 78 d2 da 3e
       -0.19958098 0.37858233 0.07615955 0.427387
0001f0 0d 79 02 3e 58 5c 30 bc 42 95 3d 3e 6d 60 83 3e
       0.1274149 -0.010764204 0.18513969 0.25659505
000200 f1 c8 b9 bb 5d dc e1 3e 84 9a ed bd 7a 99 6b be
       -0.005669706 0.44113436 -0.11601737 -0.23007765
000210 08 f5 70 be 04 c2 21 be 6f ce 62 be 66 d2 49 3e
       -0.23530972 -0.15796667 -0.2214906 0.19709167
000220 8a cf b3 3d a5 48 88 3e 72 43 ca 3e c2 5d d0 be
       0.08779819 0.26617923 0.39504582 -0.40696532
000230 e6 33 c4 3e fb b2 30 3e 03 24 97 be 47 39 57 3e
       0.38320845 0.17255776 -0.29519662 0.21017943
000240 a4 3b 7b bd 61 23 19 3e 1b 36 c9 3d 73 e8 31 3d
       -0.061336175 0.14954902 0.09824773 0.04343457
000250 9c 54 13 3d 42 36 8b be b3 d7 d8 bb 8c d2 ab bd
       0.03596936 -0.27189833 -0.00661751 -0.08389768
000260 b5 3a a6 3c a9 21 69 be 00 e5 ed 3e d3 dd c1 bc
       0.020291666 -0.22766747 0.46463776 -0.023665344
000270 16 fd c0 bd a9 c5 30 3e a1 e9 25 be 8d 32 41 bd
       -0.09423272 0.17262901 -0.16202404 -0.04716735
000280 67 62 3f be a2 ea 07 be fb be b0 be 5d f8 f3 bd
       -0.18689881 -0.13273099 -0.34520707 -0.11912606
000290 26 2b bb be cb ef 10 be 5d c2 1a bd 89 97 db 3e
       -0.36556357 -0.14153974 -0.037783016 0.4288905
0002a0 ad dd 11 bf 7a ce bc 3e 58 36 15 3e 4e b3 ca be
       -0.56978875 0.3687628 0.14571512 -0.39589924
0002b0 d6 d7 7c 3e 3e 1c 89 bd 08 58 c3 3e 6d 33 9b be
       0.2469171 -0.0669484 0.381531 -0.30312672
0002c0 48 88 a3 bc 68 4f a2 3e 8d 5b 2c be b5 cd 92 3d
       -0.019962445 0.31701207 -0.16831799 0.07168142
0002d0 9b 92 db 3e 15 58 b0 3c 64 2b c9 bb 2e 69 34 3e
       0.4288529 0.021526376 -0.006139206 0.17618248
0002e0 c4 86 60 be e2 83 8f 3b b7 8b a8 be c6 5a 97 bd
       -0.21926409 0.0043797353 -0.32919094 -0.073903605
0002f0 91 4e da bd 55 85 1d 3e 5b 6c ce 3e 75 c0 d1 3e
       -0.106595166 0.15382893 0.40317044 0.40967146
000300 2b e3 58 bd f4 e3 b3 3e 05 c9 0f be 9c be 03 3e
       -0.05295102 0.35134852 -0.14041527 0.1286568
000310 66 21 a8 3e 42 ca 98 bd 4c 08 a1 bd 05 01 53 3e
       0.3283798 -0.074604526 -0.07862911 0.20605858
000320 c7 7e 0b 3d 75 a9 92 3e 7e 17 4a bd 26 f6 8e 3e
       0.03405645 0.2864491 -0.04933881 0.2792217
000330 83 d0 35 be 79 53 75 3e 9a e7 98 be 70 e8 bd bd
       -0.17755322 0.23957624 -0.29864198 -0.092728496
000340 8d 37 9d 3e 42 94 5c be ca ec 48 bd f3 7f 89 3e
       0.30706444 -0.21540931 -0.049053945 0.2685543
000350 5f a8 58 3e 0a 08 bb bd 9e 82 bd 3e 1b 7a bd 3e
       0.21157978 -0.09132393 0.37013716 0.37007222
000360 17 89 39 be 15 a8 01 3d 66 a7 86 be 54 bc 9d 3d
       -0.18118702 0.031654436 -0.2629959 0.07701936
000370 16 39 22 3e 36 d1 67 bd 6e d4 3e 3e 56 1a 98 3c
       0.15842089 -0.056596003 0.18635723 0.018567245
000380 7a 37 c9 bd 89 c2 fb bd 46 f8 ae bd 19 65 db 3e
       -0.098250344 -0.12292964 -0.08543448 0.4285057
000390 bc f4 29 bb 64 02 24 be 99 85 11 bd 95 2b 2e be
       -0.0025933227 -0.16016537 -0.0355278 -0.17008813
0003a0 11 c2 87 3e 03 c2 30 be 3f e2 dc 3e 5a 69 55 3e
       0.26515248 -0.1726151 0.43141362 0.2084097
0003b0 9c e5 44 3e b1 8b bb be 8b 30 61 3b cc 35 f8 3e
       0.19228214 -0.36630014 0.003436121 0.48478544
0003c0 4f 09 1a 3f cd 1a 29 3e e2 01 cb bd 01 05 c9 3d
       0.60170454 0.1651413 -0.099124685 0.098154075
0003d0 23 b7 40 3e 4f 4d 33 bf 98 73 92 3e 1d 2e a4 3e
       0.18819861 -0.7003984 0.28603816 0.32066432
0003e0 31 a0 3c 3f 13 b8 cc be 17 b0 28 bd b4 79 1f 3e
       0.7368193 -0.39984187 -0.041183557 0.1557377
0003f0 d1 11 4e 3e 17 bb ca be c2 9b 8f 3e 72 03 50 3e
       0.20123984 -0.39595863 0.2804852 0.20313814

e_conv1.bias f4 [32]
000000 cd 23 17 be 70 ef 39 3e 93 5a 68 bd af 71 08 3d
       -0.1475975 0.18157744 -0.056727003 0.033311542
000010 75 49 9f bd dd ad db 3d d6 3f ef 3d 81 20 88 bd
       -0.07777683 0.10726521 0.116820976 -0.06646825
000020 f0 e3 1d 3d 12 d3 0b 3e 29 74 53 bc ce e3 78 3e
       0.038547456 0.13654736 -0.012906113 0.2430565
000030 13 26 2a 3e b7 6a a2 bc ab d7 4a 3d 99 5e 10 be
       0.16616087 -0.019826276 0.049522083 -0.14098586
000040 f1 4f 34 3e 65 3b eb 3b 76 3f b6 bd af 2c 5f bd
       0.1760862 0.0071787112 -0.08898823 -0.054485973
000050 52 5d 34 3d bb 78 83 3e 1e f0 8d 3d 0b 84 d8 3d
       0.04403431 0.25678048 0.06930564 0.1057206
000060 32 90 54 be ec 80 d9 bc 3d 2b b2 3b db 4a f2 bd
       -0.20758131 -0.026550733 0.0054372833 -0.11830684
000070 52 44 3e 3e 32 a3 84 3e e5 31 82 bd be 37 b1 b9
       0.1858075 0.25905758 -0.06357173 -0.00033801602

e_conv1_a.weight f4 [3, 32, 3, 3]
000000 29 ba 4d bd 98 8f c7 bc fc de 12 bd e1 af 4c 3c
       -0.050226364 -0.024360463 -0.035857186 0.012493105
000010 e4 9d 83 3d a6 2c 21 3d e8 c9 28 bd 64 77 07 3e
       0.064265996 0.03934922 -0.041208178 0.13229138
000020 7e 30 6b bc 8e b7 b5 3d bb ee 85 3e 25 d6 0b 3e
       -0.014354823 0.08872901 0.261587 0.13655908
000030 a9 c2 78 3d e4 12 2c 3e 53 89 5d 3e 8c b6 1e 3e
       0.060732517 0.16804081 0.21634416 0.15499324
000040 68 ff 1d 3e 02 c6 87 bb 0e cb 98 bd 7d 88 96 bb
       0.15429461 -0.0041434774 -0.074606046 -0.0045939074
000050 41 ce 1c 3d 05 4e 9a 3d 7c 23 0f be 66 09 fd 3c
       0.038282637 0.07534412 -0.1397838 0.03088827
000060 48 f3 8a 3d 4f b1 cf 3c 57 62 16 3d 85 15 78 3c
       0.067846835 0.025353102 0.036714878 0.015141849
000070 bc 4f d1 3c 29 5d 9c 3c b1 62 fa 3c c0 c3 38 3d
       0.025550716 0.019087391 0.030564638 0.045108557
000080 46 c6 13 3d 59 6a 9a 3c c1 a9 ee 3c e2 69 bb 3c
       0.03607776 0.018849539 0.02913368 0.022877637
000090 7b 9e c9 3b 1e 45 52 3d 0a b3 cc 3c 73 70 93 bc
       0.0061529255 0.051335447 0.024987716 -0.017997956
0000a0 16 12 11 bd 61 5a c9 3c f5 54 a8 3c ce 9a 3a 3c
       -0.03541764 0.024579229 0.020548323 0.011389447
0000b0 4c 39 04 be 48 03 e8 3d 56 0c 1a 3e 13 85 0b 3e
       -0.12912482 0.11328751 0.15043768 0.13624983
0000c0 e7 cc 82 bd 0d 8b 8f 3d cf e1 b6 3d 63 04 87 bd
       -0.06386738 0.07008944 0.08929788 -0.065926336
0000d0 c0 9d 2c 3d 1d df 4e bd 11 b4 58 bd e8 c0 68 3d
       0.04214263 -0.050505746 -0.0529061 0.056824595
0000e0 87 6a 08 3e e7 df 7f 3e 4e 91 39 3e f5 c9 af 3d
       0.13321887 0.24987756 0.18121836 0.08583442
0000f0 70 9d 3b 3e f1 45 b2 3d b8 f4 09 3e 1a 3c 8a 3d
       0.18321776 0.087047465 0.13472259 0.06749745
000100 05 a7 37 3d 08 cd a0 bc 92 17 1d 3e 3d 34 b4 3d
       0.044837017 -0.019629017 0.15341023 0.08799026
000110 c4 8f a8 bd 79 67 05 3e 5b 5c af bd 76 db 68 3d
       -0.08230546 0.13027753 -0.08562537 0.05684992
000120 b2 d3 1f be be 15 ff 3d 34 f3 eb 3c 32 59 1d 3e
       -0.15608099 0.12455319 0.028802492 0.15366057
000130 c0 0e b6 bd 62 ff 0a bd 77 06 15 bd 2e 4d 14 be
       -0.08889532 -0.03393496 -0.03638312 -0.14482567
000140 ee c0 ec 3d 30 39 22 bd 3c c0 42 3c b8 31 29 3e
       0.11560236 -0.03960532 0.011886653 0.16522872
000150 52 7a d5 3d 2b 7f 6c 3d cd 03 86 bb bf 96 c3 bd
       0.104237214 0.057738464 -0.0040898086 -0.09550237
000160 71 f1 03 3e 25 8f 71 3d b8 90 ab 3c e6 d0 e7 bc
       0.12885071 0.058974404 0.02094303 -0.028297853
000170 00 b5 22 bd 01 06 9c bd d1 a7 9e 3d e4 0f f3 3d
       -0.039723396 -0.07618333 0.07746852 0.11868265
000180 2f eb 27 3e a5 c9 9d bd 65 12 8a 3d db 9b 08 3e
       0.16398309 -0.07704476 0.0674179 0.13340704
000190 9b 2e 9b 3e ca c4 0c 3e 38 fb 35 3e 8e c0 69 3d
       0.30308995 0.13746944 0.17771614 0.0570684
0001a0 42 13 80 bd cc 11 8a 3d ed 3f 98 3d f6 f8 37 3d
       -0.06253673 0.06741676 0.07434068 0.044915162
0001b0 10 c4 53 3e dc 7f a1 3d 5d 4e 0b 3e 64 60 20 3e
       0.2068026 0.07885715 0.13604112 0.1566177
0001c0 6f 98 1d 3e 6a 78 6d 3e 76 82 d9 3d 05 7c a0 3d
       0.1539018 0.23190466 0.106205866 0.07836155
0001d0 f6 12 64 3e d3 7c ea bc eb 87 c4 3b 23 e3 46 3d
       0.22272858 -0.028623974 0.005997648 0.04855646
0001e0 ff 8e cb 3d 05 dc a9 3c 9e b1 fe 3d bc eb 9e 3c
       0.09939384 0.020734796 0.124362215 0.019399516
0001f0 7e 58 11 be 98 83 36 bd 8f 3b d2 3d c0 2e 76 3c
       -0.14193913 -0.04455909 0.10265266 0.0150257945
000200 1f da 98 bd 19 23 b5 bc 8f 87 01 bc 93 a5 05 3d
       -0.07463478 -0.022111462 -0.007905855 0.032628607
000210 33 a3 3a 3d 61 21 0c 3e 4d 28 db 3c dc 7b 09 bc
       0.045565795 0.13684608 0.026752615 -0.008391347
000220 01 a1 d2 3b 08 bf e1 3c 39 e9 85 bc 23 07 83 3d
       0.0064278846 0.027556911 -0.01634656 0.063978456
000230 9c ea 81 bc 5c ca 12 3e 79 7b f4 bd 98 9b b1 3d
       -0.01585894 0.14335006 -0.11937613 0.08672255
000240 89 54 da 3d 2c 6c d8 bd 96 fa 17 b9 fe 2e 0a 3e
       0.10660655 -0.10567507 -0.00014493833 0.13494489
000250 f4 b8 9a 3d 06 9a 36 bd 55 0f f5 3d c7 0c 7d 3d
       0.07554808 -0.044580482 0.11965815 0.061779764
000260 58 32 57 3d 5a 7f 78 bd 3c 13 52 3d 1f 0a a6 bd
       0.052538246 -0.060668327 0.051287875 -0.08107399
000270 e8 48 c6 bd 80 71 fe 3b 25 be 37 3d c5 54 ac bc
       -0.096818745 0.007764995 0.04485907 -0.021036515
000280 30 0a 5a 3d c6 f0 f4 3c f5 69 78 3d 0c e3 64 bc
       0.05323237 0.029899966 0.060647923 -0.013970148
000290 ab 2a 4b 3d fa bd 42 bd cd 40 91 bd 34 94 be bc
       0.04960124 -0.047544457 -0.07092438 -0.023264028
0002a0 44 40 6c bd c5 5a c8 3d b3 07 c4 3d 9b f3 ef 3b
       -0.057678476 0.09782938 0.09571781 0.007322741
0002b0 5b ed f1 bc 97 92 e7 3c 99 15 29 3d b4 25 00 bd
       -0.029532125 0.028268142 0.041280363 -0.031285957
0002c0 ef 86 67 3d ed bd cb bc e3 8d 9d bd fa 91 12 bd
       0.056525167 -0.024870837 -0.07693078 -0.035783745
0002d0 20 82 39 bc 28 60 92 3d 76 65 8e 3d 9f 09 ad bd
       -0.011322528 0.071472466 0.06952946 -0.08449101
0002e0 5f 95 83 3d 27 da 96 bc 6c 2f c5 3c d4 ba 0e bd
       0.06424975 -0.01841457 0.024070464 -0.034846142
0002f0 d1 32 e9 bc cf ce 10 3d 00 ad 43 3e 10 6d 0a 3d
       -0.028466614 0.035353478 0.19108963 0.033795416
000300 31 58 90 3d ab 56 d0 3d 71 ee 1d 3e 65 ff 22 3d
       0.07048071 0.101727806 0.1542299 0.039794344
000310 ea 94 ae 3e aa 4d 17 3e af f5 13 3d bc 31 54 bc
       0.34097987 0.1477572 0.036122974 -0.012951311
000320 6f 64 03 3e 2b 1e 28 3e bc c4 84 3d 5a 91 41 3d
       0.12831281 0.16417758 0.064828366 0.04725776
000330 fc 03 0c 3e 15 03 7c 3d 79 d5 8e bd 6b d9 35 bd
       0.13673395 0.061526377 -0.069743104 -0.0443968
000340 5e a8 f3 3d bf cc ff 3d da 5f 61 bc b5 04 0c 3e
       0.11897348 0.12490224 -0.013755763 0.1367367
000350 dc e5 5d 3d e0 38 90 bb 7d 10 64 3e df 3b ef 3c
       0.05417429 -0.0044013113 0.22271915 0.029203353
000360 9e 6d 89 3d b7 6b 1b 3e 9c a3 2a bb ce 73 01 be
       0.06710361 0.15177809 -0.002603746 -0.12641832
000370 e5 e6 06 bd 56 71 ad bd c9 0b d1 bc 32 af 7f 3d
       -0.032935042 -0.08468883 -0.025518315 0.06242294
000380 56 8b 9a bc f6 f9 b2 bd cf 71 8c 3d 16 4d 83 3d
       -0.018865269 -0.087390825 0.06857645 0.06411187
000390 04 43 41 bd 31 11 1c 3d bf f7 a1 bc 36 42 b3 3d
       -0.04718305 0.038102333 -0.019771455 0.08752863
0003a0 0b f0 5b 3e 98 cc a4 3d 2b 81 93 38 7c ad bd 39
       0.21478288 0.08046836 7.0335656e-05 0.00036178145
0003b0 f6 77 b8 38 d8 8a 40 bc 1a f8 56 ba e7 ab 40 3a
       8.796148e-05 -0.011751853 -0.0008200422 0.0007349834
0003c0 48 55 27 bb dd c3 ed 39 77 6c 4c 3a 87 cc 4d bc
       -0.002553301 0.00045350092 0.0007798145 -0.01256097
0003d0 80 cb b3 bc 2e 28 a3 bc 8e 45 fe 3b 34 d4 24 be
       -0.021947622 -0.01991662 0.0077597564 -0.16096574
0003e0 33 d4 66 bd 9a 0e cb bd ac 46 30 bd 81 2c bd bc
       -0.056354713 -0.099148944 -0.043036148 -0.02309251
0003f0 08 91 76 3c 91 cc f5 3c 24 1f 94 3c c1 f3 ac 3d
       0.015049227 0.030004771 0.018081255 0.0844493

e_conv1_a.bias f4 [3]
000000 c6 60 75 3d ca c3 e6 3d a7 75 b5 3d
       0.059906743 0.112678126 0.08860331

e_conv1_b.weight f4 [3, 32, 3, 3]
000000 9c ed fa 3c 0b fd 25 bb c7 4f 8b 3a 8a eb a4 3c
       0.03063088 -0.0025327827 0.0010628634 0.020131845
000010 84 9d a3 3d 92 98 fd 3a e3 6e 4b 3b 70 59 13 bc
       0.07989028 0.0019347838 0.0031041435 -0.0089934915
000020 ef 01 02 bc 0f c4 2e 3c f2 c3 f8 bd 88 c8 0b 3d
       -0.007935031 0.010666861 -0.121467486 0.03412679
000030 a3 c7 6c 3c 19 54 6f 3c 05 38 a2 bd b0 1c 66 3d
       0.014451894 0.014607453 -0.07920841 0.056179702
000040 c8 4b ad bc 85 04 09 bc 34 a2 28 bc fe a7 4e bd
       -0.0211543 -0.008362894 -0.0102925785 -0.05045318
000050 fc fb 0f bd 54 73 38 3d b9 cf 6a 3c dc a2 67 3c
       -0.03515242 0.04503186 0.0143317515 0.01413795
000060 7e 16 cb bd 3f 77 5c bb ca be 36 bd ef b8 86 bc
       -0.099163994 -0.0033640412 -0.044615544 -0.016445605
000070 86 86 59 bc ee f7 bd bb f0 f6 1d 3c 13 58 e4 bb
       -0.013276702 -0.005797378 0.009641394 -0.006968507
000080 97 4e 5f 3a 1c 55 0d bc c5 60 d7 3b 47 ac 76 bc
       0.00085184857 -0.008626249 0.006572815 -0.015055723
000090 a5 63 9e bc 8b a7 82 3d 0b 59 22 bc 1c ee 1a be
       -0.019334624 0.063796125 -0.009908925 -0.15129894
0000a0 0a 9e be bc 42 62 b0 bb 9d 7c 62 3d 8f 09 3a bd
       -0.023268718 -0.005382807 0.05529462 -0.045419272
0000b0 d7 40 70 bd f3 67 c7 bc 53 00 54 bc 6f 4a ff 3c
       -0.058655586 -0.024341559 -0.01293953 0.031163422
0000c0 4a 3a 5d 3d 13 c3 12 3e 1a aa 31 3c e8 9d 60 3d
       0.054010667 0.14332227 0.010843778 0.05483809
0000d0 77 c1 c5 bd 58 23 dd 3b 9c 75 3c bd b9 3f 3f bc
       -0.09656041 0.006748598 -0.0460106 -0.0116729075
0000e0 11 88 f1 bc ec 23 da 3c 65 d4 d1 3c 18 c6 75 3c
       -0.029483827 0.026628457 0.025613973 0.0150008425
0000f0 5b 3e 8b 3c 1d 72 29 bd e4 5d 6d bc 0e c6 cf 3c
       0.016997507 -0.041368593 -0.014487717 0.025362995
000100 90 9a 42 bd 5a 10 a0 bb be 7b aa 3c 97 6a 92 3c
       -0.047510684 -0.0048847618 0.020810958 0.017873092
000110 45 87 09 3d cb a6 90 bd 60 75 a5 3c 3d be a9 3d
       0.03357627 -0.07063063 0.02019757 0.08288238
000120 12 6f 3c bd 43 34 2d 3e 22 30 99 3c 73 ae 4b 3d
       -0.046004362 0.16914468 0.01869971 0.049726915
000130 87 d0 79 3c 46 10 dc 3c bf 24 09 bd d2 c0 6a bd
       0.015247471 0.026863229 -0.03348231 -0.057312794
000140 f5 bf ec bc ad c8 d7 3d 64 db 52 bd d9 e9 a5 3d
       -0.028900126 0.10536323 -0.05147876 0.081012435
000150 24 50 4e bd d1 4a 3b 3e 6d d7 44 3d e5 85 94 3d
       -0.050369397 0.18290259 0.04805701 0.07252101
000160 33 f7 bf bd f6 72 de bc 87 a8 1d bd 2e 0b 97 bb
       -0.093733214 -0.027154427 -0.0384908 -0.004609487
000170 fb 44 06 bc 8e 21 8a 3c 6f 36 d4 3a 24 f0 66 bc
       -0.008195157 0.016861703 0.0016190539 -0.01409534
000180 8e 47 92 3c 10 5b 9d 3c 14 25 d2 3c 44 f6 89 bc
       0.017856386 0.019208461 0.025652446 -0.016841061
000190 cd d8 08 3c f3 5d 13 bc 42 9c 6a bc 59 0c 59 3c
       0.008352471 -0.008994567 -0.014319481 0.013247573
0001a0 ef 5d ee bb cf c5 86 bb fc 34 8f 3c 60 7f 36 bc
       -0.0072743814 -0.004112936 0.01748132 -0.011138767
0001b0 03 37 60 bb f4 07 19 3d a8 84 09 bd dd df a5 3b
       -0.0034212477 0.0373611 -0.033573776 0.005062087
0001c0 50 31 07 3d 45 bc 31 3d 3f 38 af 3c 66 04 84 3d
       0.033006012 0.04339244 0.021389125 0.064461514
0001d0 c8 39 d2 bc 36 44 0d be 4f 60 84 3d ce 85 d4 bc
       -0.025662318 -0.13795552 0.06463682 -0.02594271
0001e0 ad d3 aa 3d 5e 71 5f bd fb c2 0e bc ee 05 85 3d
       0.08341155 -0.054551475 -0.008713479 0.064952716
0001f0 41 22 01 3e fc e6 a0 bd bc 33 8e 3d 91 f3 7f 3d
       0.12610723 -0.07856557 0.06943461 0.062488142
000200 de 8e 53 3a 45 2f 79 bd 80 aa a0 3a 02 4d 7f 3c
       0.00080703 -0.060836095 0.0012257844 0.015582325
000210 38 a6 2c 3c f4 f9 ee bb c0 be 5b 3d 5b 62 8a 3d
       0.0105376765 -0.0072929803 0.05364871 0.06757041
000220 31 52 15 3d 8b 09 9a bd 2a 9b 04 bd b2 80 35 3d
       0.036455337 -0.075213514 -0.03237454 0.044312187
000230 35 e8 b7 3d f7 2e bc 3b 42 8b 7d 3d 23 b7 ff 3b
       0.08979837 0.0057429033 0.061900385 0.007803814
000240 68 0a 39 3b 93 e0 ac bd c4 25 84 3d 93 dc a3 3d
       0.0028234962 -0.08441272 0.06452516 0.080010556
000250 b6 d3 2a 3e 08 3b 9c bd ef 84 ee bc 56 ce c4 bc
       0.16682324 -0.07628447 -0.029116122 -0.02402417
000260 b1 4d 95 3d 10 18 d0 3d 00 7f 6c bc fb 9c 34 bd
       0.07290209 0.101608396 -0.014434576 -0.04409502
000270 ff 35 0d bd 7c c4 10 3d fe e4 5c 3d 36 71 9e bb
       -0.034475323 0.035343632 0.05392932 -0.004835273
000280 d3 3c bd 3d 4d 52 b4 3c 49 4c df 3d 76 db 97 bc
       0.09240117 0.0220119 0.10903222 -0.018537264
000290 00 3a a2 3c dc fd f2 3b d6 d8 85 bc d5 de 9e bc
       0.019803047 0.0074155163 -0.016338747 -0.019393364
0002a0 94 db 09 3d f8 46 2f bb 56 f8 db 3c bb a8 0f 3d
       0.03365667 -0.0026745182 0.026851814 0.035073023
0002b0 5a 1f 2c 3c 31 cf 38 ba 2d 18 b3 bc d0 3e 82 bc
       0.010505522 -0.0007049917 -0.021862114 -0.015899092
0002c0 ab f4 b0 ba 6e fe 00 3c e4 8e 57 bd 21 96 b2 ba
       -0.0013500651 0.007873161 -0.052626505 -0.0013625064
0002d0 cc ba 8f bb 75 7a 81 ba 55 ac 14 bc ed 17 b2 bb
       -0.0043862816 -0.0009878414 -0.00907429 -0.005434981
0002e0 f5 48 10 3c 0d cf fe ba 05 9e f7 bb 09 79 fa 3a
       0.008806457 -0.0019440368 -0.007556679 0.0019109558
0002f0 d7 c4 2e bc 46 99 1a 3d 0f 81 90 3d a2 e2 1f 3d
       -0.010667047 0.03774383 0.07055866 0.039034493
000300 46 ed 25 3d 07 a0 9a 3d 6a da f0 3c f7 1d 04 3d
       0.040509485 0.07550054 0.029401023 0.03225514
000310 82 d9 80 3d e7 be 08 3d 9f af a3 3d c1 99 dc 3b
       0.06291486 0.033385184 0.079924814 0.006732196
000320 89 9b 43 bd a8 f7 fb bc a3 c2 d8 bc d7 26 7d bc
       -0.04775575 -0.03075774 -0.026459998 -0.015451155
000330 5d 47 7f 3c e1 74 23 bd a4 01 e9 bc 14 ab 59 3d
       0.015580979 -0.039906386 -0.028443165 0.05314167
000340 a0 fc 7e bc 5c a6 9c 3d 49 87 c7 ba 4c 7b f9 bc
       -0.01556316 0.07648918 -0.0015222813 -0.0304543
000350 99 c6 c7 bb 11 d7 a1 3c 31 40 06 be b9 91 d6 3d
       -0.0060966727 0.019755872 -0.13110425 0.10477013
000360 44 1e 45 bd 5f f9 55 3d 7e aa 6e 3c 99 0c ed 3b
       -0.048124567 0.052239772 0.014567016 0.007234168
000370 36 45 85 bd 8c 13 fe 3c fc 79 a5 bc 78 64 80 3c
       -0.065073416 0.03101518 -0.020199768 0.015672907
000380 79 f0 17 3d 53 0c d8 ba 4a cc bc bd 92 5c 10 3c
       0.037094567 -0.0016483165 -0.092186525 0.008811133
000390 32 12 52 be 2e 08 2d bd d6 fc 91 bc fc f4 da bc
       -0.20514753 -0.04224413 -0.017820757 -0.026728146
0003a0 20 ec 05 bd 5c ad fa bc 86 55 44 b8 21 35 07 b8
       -0.03269589 -0.030600242 -4.680969e-05 -3.223599e-05
0003b0 21 84 c8 b7 73 1e 50 b7 01 05 dc 38 da c7 84 ba
       -2.3903385e-05 -1.2404856e-05 0.000104913495 -0.0010130361
0003c0 b5 8e b0 b8 f9 44 e7 37 12 3a 7f 3a f4 c4 d3 3c
       -8.418915e-05 2.7569464e-05 0.0009736131 0.02585075
0003d0 fa fb ab bd 09 59 40 3c af 37 9e bb eb 48 0e bc
       -0.0839767 0.011739978 -0.0048284153 -0.008684377
0003e0 55 e3 d7 3a 16 08 3c bd 4b 13 bb bc d0 3c 88 3c
       0.0016470948 -0.04590615 -0.022836348 0.01663056
0003f0 d1 cf bb 3d 87 e2 bf bd 18 7e 33 3b e0 86 59 bd
       0.09170497 -0.093693785 0.002738839 -0.053107142

e_conv1_b.bias f4 [3]
000000 d2 9e 31 3d be fc 5d 3d 03 19 29 bb
       0.043364353 0.05419611 -0.0025802262

e_conv2.weight f4 [32, 32, 3, 3]
000000 be 1c a6 3b ba bd 2d 3b 7b 6a f3 ba 0e 90 a9 bb
       0.0050693443 0.002651079 -0.0018571162 -0.0051746434
000010 2d 93 8e 38 89 76 a6 ba 18 2c a1 ba bd f1 98 39
       6.798501e-05 -0.0012700121 -0.0012296466 0.00029171808
000020 d0 aa 3c bd 63 66 ce bb 2d bf e5 3c ee 7c 5b 3c
       -0.046061337 -0.0062988265 0.028045261 0.013396485
000030 6a 40 98 3c 67 b3 02 be e6 1a 08 3c e4 f5 3e bc
       0.018585403 -0.12763749 0.008307194 -0.011655305
000040 5f 23 54 bc 2e 32 08 bd 83 32 28 3d bf f4 a1 bc
       -0.012947886 -0.03325098 0.041063797 -0.019770024
000050 68 a7 c0 3d c3 df 0e bd 7b 0e 7c 3d b5 f7 f1 3d
       0.0940693 -0.034881365 0.061537247 0.118148245
000060 0a 92 a0 3c 36 40 65 bc 9d b7 1c 3d 36 08 c1 bb
       0.019600887 -0.01399236 0.038261045 -0.0058908714
000070 c3 23 4e 3c 43 c1 8a bc ab 16 9d ba e1 03 f3 bb
       0.012581768 -0.016937857 -0.0011984905 -0.007416234
000080 47 00 a0 bc 46 17 25 bc 19 95 32 bc c7 73 a9 bc
       -0.019531382 -0.01007635 -0.010899805 -0.02068509
000090 c4 04 75 bd c3 ec b4 bc 60 91 76 bd 53 99 65 bd
       -0.059818998 -0.022085553 -0.060197234 -0.056054424
0000a0 5a 1b 66 3c b7 50 f9 bc 66 a8 8c bd 85 f3 c8 bb
       0.014044607 -0.030433996 -0.06868057 -0.0061325454
0000b0 63 04 04 bd f3 bd d7 3d ec d8 ec 3d 4e 38 fa bd
       -0.032230746 0.10534277 0.11564812 -0.122177705
0000c0 38 7b 75 3d 38 55 89 3d 1a 30 0e 3e 52 36 6e 3d
       0.059931964 0.06705707 0.13885537 0.058157273
0000d0 7a 6a 1d 3e 2e 62 01 be 43 09 32 bc 5b df bc 3c
       0.15372649 -0.12635109 -0.010866466 0.023055723
0000e0 dc 43 7e ba a0 82 32 bc ea ab 73 bc c4 87 d5 3d
       -0.0009699443 -0.010895401 -0.0148725305 0.10426286
0000f0 30 42 3f bc 49 4f 2a bd 1e 73 07 bd 32 6b 8a bc
       -0.011673495 -0.04157952 -0.03306877 -0.016896818
000100 74 6b 3c bd bf fc 17 bd fe 7a 69 3b 13 62 e9 bc
       -0.046000913 -0.03710627 0.0035626288 -0.028489148
000110 bd c5 14 be 46 d6 14 bd a9 2a 12 3c 41 ca 65 3d
       -0.14528556 -0.03633716 0.008921304 0.056101087
000120 53 e8 e1 bd 79 57 58 bd 92 41 91 3b fc b7 cc 3d
       -0.110306405 -0.052817795 0.0044328654 0.0999603
000130 5c 68 e6 3b a3 c0 b4 bd 27 88 22 bd 50 07 97 3d
       0.0070314836 -0.08825805 -0.039680626 0.073744416
000140 79 c0 9f bd 39 d8 cc 3d 1a b6 a3 bd e5 0b 00 3e
       -0.07800383 0.10002179 -0.079937175 0.12504537
000150 5b ff 42 bd 08 12 80 bd 4b 5f a8 bd 1a 46 88 bd
       -0.047606807 -0.06253439 -0.08221301 -0.06653996
000160 fd ab 79 bd da 39 0d 3c 17 6d 97 3c 09 fa e7 bb
       -0.060955036 0.00861975 0.018484635 -0.007079367
000170 5d 21 65 bc 3d 0c 8f bc 68 f4 e0 bc 11 80 5a bc
       -0.013985005 -0.01746189 -0.027460292 -0.0133361975
000180 90 91 82 bc bd 7f 56 3c e8 bd 8f bc 0f 22 3c 3c
       -0.01593855 0.013091979 -0.017546609 0.01148273
000190 a2 fb a5 bc 9a 4b 63 3c 6f 02 29 bd 9b c7 a6 3d
       -0.02026159 0.013873005 -0.041262086 0.081435405
0001a0 dd f2 9e 3d 1a a8 72 bc a8 c8 27 bb 55 cb 8a 3c
       0.07761166 -0.014810586 -0.0025601778 0.01694266
0001b0 6e 74 75 3c 00 aa e0 bb c8 32 0e 3d f1 23 28 bc
       0.014981372 -0.006856203 0.034716398 -0.010262475
0001c0 92 05 da 3a e4 2d ed 3b 5d 31 fb 3c 51 c2 82 bc
       0.001663374 0.0072381366 0.030663187 -0.015961798
0001d0 4b 54 e4 3c 73 0d 6c bd 73 80 34 bd 0b 22 3b bc
       0.027872225 -0.057630014 -0.04406781 -0.011421691
0001e0 7c 6f 2d bc b5 cf 26 3d aa 2b e3 bc 97 4a 90 bd
       -0.010585662 0.04072543 -0.027730782 -0.07045477
0001f0 a6 0a ef bb 07 01 cf ba 1a a0 ba 3c 42 52 d0 3c
       -0.0072949706 -0.0015793153 0.02278142 0.025429849
000200 b1 7d 52 bc f6 a5 85 3c b8 ef d5 bb b2 27 40 3e
       -0.01284735 0.016314488 -0.006528821 0.18765143
000210 00 c9 80 3d 95 66 62 3d 99 88 af 3d 37 10 8e 3a
       0.06288338 0.05527361 0.08570976 0.0010838573
000220 b3 d6 99 3d 76 f3 1b bd cc b4 01 bc 5e 25 4f bc
       0.07511654 -0.03807398 -0.0079166405 -0.012643186
000230 0f f1 9a 3b 6a 9e a0 bc 5c 18 03 3c 23 a2 bf bb
       0.0047284435 -0.019606788 0.008001413 -0.0058481856
000240 78 78 8c bd d6 86 0b 3c 1d d9 19 3d 8e 8a af 3d
       -0.06858915 0.008516034 0.03756057 0.08571349
000250 d8 fa 14 bd c9 e5 5a 3b 3c 32 98 bc b4 56 27 bd
       -0.036372036 0.0033401123 -0.018578641 -0.04085417
000260 61 e1 af 3c 31 b8 46 3b 3b da 01 bd 8a b3 41 3c
       0.021469774 0.003032219 -0.03170226 0.011822591
000270 a2 5c c8 bb c4 a4 78 bc 79 f5 ca 3c 35 b4 86 bb
       -0.0061145583 -0.015176002 0.024775254 -0.004110838
000280 5e 7a 6c 38 34 e0 43 bd b6 81 9c bd 8f 65 6d 3d
       5.6380748e-05 -0.04782124 -0.07641928 0.057958182
000290 45 b1 fe 3c ae 3c c9 3d b1 d1 92 3d 22 4d d5 3c
       0.031090388 0.09826027 0.07168902 0.026037756
0002a0 e6 ff b5 3d 03 0b 87 bd 33 ff 83 3d 26 66 0d b9
       0.088866994 -0.06593897 0.0644516 -0.00013484861
0002b0 8a 93 38 ba 18 13 5d 3a 6c 08 e7 ba 18 b6 3b ba
       -0.0007041028 0.0008433326 -0.0017626411 -0.0007160618
0002c0 5c e3 3c 3a 36 40 c8 38 ca 70 d3 bb 07 a7 57 39
       0.000720551 9.5487034e-05 -0.0064526545 0.0002056622
0002d0 fc 01 9d bd 22 34 5b 3d 71 0a 31 bc 15 52 76 3d
       -0.07666394 0.053516515 -0.010805712 0.060136873
0002e0 b4 c3 47 bc 1d b6 0f 3c 6e 22 91 bd 12 71 59 3c
       -0.012192655 0.0087714465 -0.07086645 0.013271587
0002f0 10 bb 19 bd dc 83 e2 3d ac 03 69 3d dd e4 ab bc
       -0.037531912 0.110603064 0.056888267 -0.020983154
000300 02 04 45 3d 0a 85 95 bc cd d0 d6 3c 15 89 35 3d
       0.048099525 -0.018251915 0.02622261 0.044320185
000310 16 d4 78 3d d8 00 43 3d 10 95 13 3d 17 26 40 3c
       0.060749136 0.047608227 0.03603083 0.011727831
000320 21 71 8d 3d a7 c1 aa bc 78 3c 90 3d 90 d5 ea bc
       0.06906343 -0.020844294 0.070427835 -0.028666288
000330 7e 35 9f 3c 46 5e b0 bd df 4b 51 bc 59 20 cc bc
       0.019434687 -0.08611731 -0.012774437 -0.024917768
000340 cd 94 9b bd 19 3f a8 bd 20 40 b2 bc 75 41 79 3d
       -0.07596741 -0.0821516 -0.021759093 0.06085344
000350 08 c5 17 3e 8d 63 90 3d c5 eb da 3d cd 15 2f be
       0.14821255 0.07050238 0.10689501 -0.1709816
000360 09 16 a6 3a a6 a7 56 3c 9d 56 d0 3a a8 5f 09 3b
       0.0012671362 0.013101494 0.0015894953 0.0020961557
000370 0a 5c 9c bb 5d 2d ec bb 59 1f e8 3b cc 4f a9 bb
       -0.004771714 -0.007207556 0.007083815 -0.005166983
000380 80 7d 93 bb 1e c1 5f ba cc ef 63 3d cb c7 92 bd
       -0.0045010448 -0.00085355516 0.05564861 -0.07167014
000390 b2 70 cc bc d7 de 8e bd 3d cf 8e 3b 9c 87 58 3d
       -0.024956081 -0.06976097 0.004358201 0.052863702
0003a0 1a 0e ae bc 40 e6 12 bd 46 0c 8b 38 28 fa 13 bb
       -0.021246959 -0.035864115 6.6303226e-05 -0.0022579525
0003b0 8a 82 09 3a 37 59 ca 38 9c 02 a8 bb 9c 5a 6e 39
       0.0005245587 9.648728e-05 -0.005127264 0.00022731203
0003c0 25 4f 6c 38 ac 6b fc 38 60 5f 77 39 e9 c2 0f bc
       5.6340494e-05 0.00012036352 0.00023591286 -0.008774498
0003d0 33 de bf b9 a2 10 8e ba 3f 68 08 3b 50 0d fb bc
       -0.0003659591 -0.0010838697 0.0020814089 -0.030645996
0003e0 6d 88 53 3b 4c 0f 9b 3a 98 44 6a 3a b4 bf a7 3a
       0.003227736 0.001183012 0.0008936613 0.0012798221
0003f0 10 52 c0 3d fc 2f 1a 3b 87 ef 05 bd 3f 8d a6 3d
       0.09390652 0.0023527136 -0.032699134 0.08132409

e_conv2.bias f4 [32]
000000 0d 8c ea 3c 4d c4 91 bc 99 aa bb 3d 32 e3 aa 3c
       0.028631235 -0.017793799 0.09163398 0.020860288
000010 a7 ab ae 3d 77 ef 0e bc 6b 4d 14 b6 be 16 ef 3c
       0.08528834 -0.008724085 -2.2098782e-06 0.029185649
000020 74 22 6b bd 48 0b 76 bd 1e d3 6f 3c b7 fb c5 bb
       -0.057405904 -0.060069352 0.014637737 -0.0060419696
000030 6a 3b 29 3c b5 12 22 3d 82 55 63 3d 43 96 bf 3c
       0.010329107 0.03956862 0.05550147 0.02338708
000040 91 93 39 bc 85 41 a1 3c b6 a0 8e 3c cb 6f cd bc
       -0.0113266865 0.019684562 0.017410617 -0.025077721
000050 8e 0c 1d bd bf 57 71 3d f1 63 f3 bb 31 bf 97 bc
       -0.03834205 0.05892157 -0.0074276854 -0.018523784
000060 5f c0 2c 3c b4 d2 cb 3a be 19 2e bd 4b 8f a8 ba
       0.010543912 0.0015550465 -0.04250502 -0.0012860087
000070 9f 99 56 3d 18 4c 6a 3d e2 92 66 3d 98 2a 09 3d
       0.0523926 0.057201475 0.056292422 0.033487886

e_conv2_a.weight f4 [3, 32, 3, 3]
000000 b3 84 23 3d 79 41 72 bc 8a d5 e8 b8 6c f7 0a 3d
       0.039921474 -0.014786118 -0.00011102397 0.033927366
000010 5c 63 a0 3c 99 79 08 be 5d a0 df 3b d4 d7 21 3d
       0.019578628 -0.13327636 0.0068245367 0.03951247
000020 78 83 c8 3c bd 81 59 3d b2 6d cd bc 92 7f f9 bc
       0.024476752 0.053102244 -0.02507672 -0.030456338
000030 46 62 4f 3c 9c 44 63 bc 36 24 4f 3d 5b 30 47 ba
       0.012657708 -0.013871338 0.050571643 -0.0007598453
000040 24 78 6d 3d 67 e9 bd 3c 3f 91 ab 3d 1e 94 01 3d
       0.057975903 0.023182584 0.08377313 0.031635396
000050 7b 2b fa 3d 8f 79 c3 3d 0f 41 f5 3d f1 1c 25 bd
       0.122153245 0.0954467 0.119752996 -0.040310804
000060 48 72 13 be e8 e9 83 3b 21 f3 0e 3e 40 68 86 bc
       -0.14399064 0.0040256865 0.13959934 -0.016407132
000070 a4 6f 63 bd c1 d0 44 bd 69 8f 85 3b 91 88 cd bc
       -0.05552639 -0.048050646 0.0040759337 -0.025089534
000080 b4 c9 c4 bc d3 e0 da 3c 83 0c 0e 3e f0 76 89 3c
       -0.02402196 0.026718533 0.1387196 0.016780347
000090 f8 71 0a 3e 3c 7c bd 3d eb e3 1c 3d 90 ee 92 3d
       0.13520038 0.092522115 0.038303297 0.071744084
0000a0 ef ff 04 3e eb 0c f4 3d 32 cd 5f 3d d9 52 bd 3d
       0.12988256 0.119165264 0.05463905 0.092443176
0000b0 7c b3 8e bc 18 80 3b bd cf e2 7c bd 23 56 e8 bc
       -0.01741957 -0.045776457 -0.06173974 -0.028361386
0000c0 61 a4 c0 3c d7 c2 6d 3d 55 4b e9 3d 22 93 8a 3d
       0.023515882 0.058047142 0.113913216 0.067663446
0000d0 db c7 1d bd d6 4f 95 3d 7d 7d 1f b6 11 28 e5 10
       -0.038520675 0.07290618 -2.376589e-06 9.0386306e-29
0000e0 b6 d8 71 2f d9 af eb b2 f9 e8 58 3c 8d 53 5c b9
       2.1995814e-10 -2.7437567e-08 0.013239139 -0.0002101196
0000f0 0e 23 ef 34 16 67 48 36 88 83 dd b1 bc b8 c4 3b
       4.4542725e-07 2.9862326e-06 -6.4469e-09 0.0060034674
000100 42 35 0e 39 45 cf a7 3d 4a 52 28 3e 9c 45 ce bb
       0.00013562015 0.081938304 0.16437641 -0.006294919
000110 2f 8e ba 3d ad f3 f9 3d 74 67 f6 3c 89 4d 40 3e
       0.091091506 0.122046806 0.030078627 0.18779577
000120 17 eb 22 be 68 fc 4f 3d 6e 66 fe bd 74 26 86 bd
       -0.15909992 0.050777823 -0.12421881 -0.06550303
000130 ce 16 a2 3d c7 ec 24 3c 66 d2 27 3d ed f6 da 3c
       0.07914506 0.010066218 0.040972136 0.026729072
000140 73 69 6a 3d b4 87 cc bc 22 9c 0b be 62 1a 05 3d
       0.05722947 -0.024967052 -0.13633779 0.032495864
000150 9e bb 84 3d ae 71 28 be 99 4d b8 3d ac ff 8f bc
       0.06481098 -0.16449615 0.089991756 -0.017577969
000160 21 80 28 3d c4 82 c2 b6 b9 c7 91 ba 3a cd 03 3d
       0.04113782 -5.7968737e-06 -0.0011122144 0.03217814
000170 79 61 1f 3d ff a2 55 bb 40 78 2f 3e b3 e7 a9 3d
       0.038911317 -0.0032598374 0.17135715 0.08296146
000180 53 6f cd bc 85 0b 15 3d a5 67 fa 3c 62 33 4d bd
       -0.025077498 0.03638794 0.030567 -0.05009783
000190 8b 3f f8 bd f8 e2 ad bc bd c8 00 bd 66 2d b9 3d
       -0.12121495 -0.021226391 -0.03144144 0.09041862
0001a0 37 a6 3e 3c 0f ea ec bd fa db 7a 3d 3d e7 56 3d
       0.011636308 -0.11568081 0.061244942 0.05246662
0001b0 00 95 9c 3d 87 e0 49 39 4d 89 a1 3d b2 1b ab bd
       0.07645607 0.00019252497 0.07887516 -0.08354892
0001c0 99 61 cf 3a 4b e9 91 bd 11 7d 22 3e a3 bc 5f 3c
       0.0015821933 -0.07124575 0.15868022 0.013655814
0001d0 0e cc 30 bd 04 40 98 3d 1b 59 23 3d 93 15 f5 3c
       -0.04316335 0.07434085 0.0398799 0.029917514
0001e0 61 a0 79 bd 59 c2 29 3e 60 f4 3b bd 15 9d a8 3c
       -0.060943965 0.16578044 -0.04588735 0.020582715
0001f0 30 b8 92 bd cc 44 97 3d 5f 01 27 3c 5e 45 96 3c
       -0.07164037 0.07386169 0.010193198 0.018343624
000200 af 22 bd 3c 99 52 97 3c 89 40 f4 3c 65 c0 91 3c
       0.023087827 0.018472003 0.029815929 0.017791936
000210 29 b8 35 3c 16 47 c8 bb 59 e0 c9 3b 0a 19 9f 3b
       0.0110912705 -0.0061119897 0.0061607775 0.00485528
000220 6e 20 df bc 71 75 0e bd 83 73 cf 3c a7 53 38 3e
       -0.027237143 -0.03477997 0.025323635 0.18000661
000230 3d a6 79 bc 2b d0 17 3e 7c f2 24 3d 86 88 bf 3d
       -0.015237388 0.14825504 0.040270314 0.09352212
000240 f1 3b 2b 3d eb d5 0b bd 63 44 20 bc d1 35 32 bc
       0.04180521 -0.034139555 -0.00978193 -0.010877089
000250 eb 24 81 ba 65 90 4c 3c 1c 58 3a 3d bd a4 d0 3b
       -0.0009852921 0.012485598 0.045494184 0.0063672946
000260 34 02 99 3c 35 c7 86 3b c5 6e 4b b9 63 ec 3f 3c
       0.018677808 0.004113103 -0.00019400853 0.011714074
000270 6e 9a db 3c c2 ae ca 3b df 72 23 3d 05 67 7d 3c
       0.026807036 0.0061853835 0.03990447 0.015466456
000280 7c fa 1b 3d 9a 5c 94 3c 2a 7d 03 bd 99 e5 d3 3d
       0.038080677 0.018110562 -0.032101788 0.10346527
000290 aa 5c ac 3c db 5f 31 3e 45 db c5 b8 a3 ad 22 bd
       0.02104028 0.17321722 -9.434534e-05 -0.039716374
0002a0 50 78 16 bd 2c b3 01 3e 37 5e 6e 3d b4 e9 cb bd
       -0.036735833 0.12666005 0.05819532 -0.09956685
0002b0 c5 2a 0c bd 53 79 be bc a7 68 16 3d 29 ee 69 3b
       -0.034220476 -0.023251211 0.036720898 0.0035694933
0002c0 38 5e 12 bc 2d ed 0d bd 78 4e 0e bd a8 34 70 3d
       -0.008933596 -0.034650017 -0.034742802 0.058643967
0002d0 40 1d e4 bd d2 3b 6f 3d 10 a6 d4 3c 95 af 4a 3d
       -0.111383915 0.05840666 0.025958091 0.049483854
0002e0 ba 19 f6 bc 07 25 31 bd 31 91 fc bc 63 57 08 bd
       -0.030041564 -0.043248203 -0.030830951 -0.033286463
0002f0 a3 f8 93 3d cd dd 8c bd 71 86 7e bb 30 c7 c7 bc
       0.07225158 -0.06878243 -0.0038837458 -0.024386972
000300 d0 8e 38 3d f9 ab e6 3d 66 2b 45 bd 29 fa e7 ba
       0.04505807 0.1126327 -0.04813709 -0.0017698455
000310 b3 94 0d be f1 01 06 3e a9 05 58 3c a6 3a bd 3d
       -0.13826256 0.13086678 0.013184943 0.09239702
000320 9f 24 c5 3c 8d d7 32 3d 61 f5 10 3e a3 35 d3 bd
       0.024065314 0.043662596 0.14156105 -0.10312965
000330 fd be e0 bc 99 bb 2b bd df ad 04 be d1 68 8c 3b
       -0.02743482 -0.041926954 -0.12956952 0.004284956
000340 34 07 e5 bc f1 18 9a bb cd 51 b4 bc 29 17 05 be
       -0.027957536 -0.0047026803 -0.022011662 -0.12997116
000350 38 97 63 3b 96 62 b9 3b 9f 5d c9 bd 04 ea 51 3c
       0.0034727585 0.0056575043 -0.0983231 0.012812141
000360 80 41 0b 3e cb 50 29 3e 0f 1d 11 3d dd 23 2d bd
       0.13599205 0.16534726 0.035428103 -0.04227053
000370 bd 76 3a bb 99 3c fa 3c 9f cf bb 3d c4 d2 ae 3c
       -0.0028452121 0.030546473 0.0917046 0.021340735
000380 03 95 e7 bd 4b 9b d5 3d 81 36 01 3e 31 10 91 3d
       -0.113077186 0.104300104 0.12618448 0.070831664
000390 b1 66 a6 3d 49 ba b8 3d f5 0d 35 3d 5e b1 40 3e
       0.081250556 0.09019906 0.044202764 0.1881766
0003a0 b4 36 7b 3d 65 cd 87 3d ec 84 58 3d 75 d9 65 3d
       0.061331466 0.06630973 0.05286114 0.056115586
0003b0 24 5b a0 3d e3 c3 dd 3b f4 f9 6f 3d 5f d9 a5 3d
       0.07829884 0.0067677363 0.058587983 0.08098101
0003c0 7b 08 72 bc b0 90 1a be d1 ce b3 bc 4f ca 57 3d
       -0.01477253 -0.15094256 -0.021949204 0.05268317
0003d0 99 05 0f bd 0f a2 19 bc b5 20 64 bd a3 73 b6 bc
       -0.034917448 -0.009377017 -0.055695254 -0.022271937
0003e0 fb 88 61 bc 08 38 ea bb 96 e5 8b 3b 33 44 12 3d
       -0.013765569 -0.0071477927 0.004269312 0.03570957
0003f0 b0 eb c5 3c 01 b0 64 3d c1 6c dc 3d 51 7b 9e 3b
       0.024160236 0.055831913 0.10762931 0.004836478

e_conv2_a.bias f4 [3]
000000 5b b4 a9 3c 34 f4 9c 3d 3e c9 b7 bb
       0.020715883 0.076637655 -0.0056087067

e_conv2_b.weight f4 [3, 32, 3, 3]
000000 58 1b 11 3c 0d e5 99 bc c2 e9 6e bd 97 d2 c5 3d
       0.008856617 -0.018785978 -0.058328398 0.096593075
000010 48 a2 84 bb 70 da a1 bc a3 f3 6e 3d 08 60 19 3c
       -0.0040476657 -0.01975748 0.05833782 0.009361275
000020 15 b2 fe bc 71 b8 a0 3c 2a 60 14 38 e7 00 3f bc
       -0.031090776 0.019619199 3.537551e-05 -0.01165793
000030 03 43 2c 39 be cd 33 ba 92 8f ea 3b d5 b0 ed 39
       0.00016428162 -0.0006858966 0.007158228 0.00045335913
000040 d3 58 53 39 6e 8f 2d b9 eb 83 f2 3d 3d d4 72 bb
       0.00020155618 -0.00016551997 0.118415676 -0.0037052773
000050 b4 cb d1 bd 2e 6c a5 3c 86 b1 8b 3c a4 fb b5 3d
       -0.102439314 0.020193186 0.017052423 0.08885887
000060 51 cc 4f 3c 34 a2 ac 3b b8 f5 10 3c 7f 25 bf 3b
       0.01268299 0.0052683596 0.008847646 0.0058333273
000070 17 57 3b 3d 1c d4 e8 bc 22 cd 3c bd 91 82 27 3e
       0.045737352 -0.028421454 -0.046094067 0.16358401
000080 15 f2 b6 3d fc c8 86 3b 6c 57 fa 3d 02 d1 94 3d
       0.08932892 0.0041133147 0.12223706 0.072664276
000090 25 40 d7 bc 87 19 d0 3c 88 8c f0 3a f7 03 ce 3a
       -0.026275704 0.025402797 0.0018352428 0.0015717734
0000a0 80 31 c0 3c 0c 87 42 3d ce a3 6c bc 37 63 f8 3b
       0.023461103 0.047492072 -0.014443351 0.0075801867
0000b0 f8 52 26 bc c4 cd 82 3d ec 65 6b 3c 68 54 49 bb
       -0.010151617 0.06386903 0.014367562 -0.0030720476
0000c0 56 f0 01 3e 9c d6 4a 3d 29 a1 42 3d ea 81 e0 3d
       0.12689337 0.049521074 0.047516976 0.10962279
0000d0 6f 9c ea bc a6 51 c0 3b be d1 51 27 0a d4 4a 16
       -0.028639046 0.0058691083 2.9118278e-15 1.6384338e-25
0000e0 c5 f5 8d bb 7f 7b 1a 35 79 b6 5f b4 54 00 0b 3c
       -0.0043322765 5.754918e-07 -2.0834877e-07 0.008483965
0000f0 3e 57 6d ba e3 c6 02 36 0a 3c a1 36 ff 45 bd 3c
       -0.00090538326 1.9487277e-06 4.8051634e-06 0.023104666
000100 ea ba e7 3d 1b 0a 03 3e 5d fd 12 bd 30 21 d8 bc
       0.11314948 0.12796824 -0.035886157 -0.026383013
000110 5d ed c9 bd 54 ce 2f bd f0 77 1d 3d dc 6c 1c 3e
       -0.098597266 -0.04292138 0.03844446 0.15275902
000120 06 78 da bb b6 02 a0 3d c8 9b 0c bd fc df 47 bd
       -0.00666714 0.07813017 -0.034328252 -0.048797593
000130 ac 76 51 bd eb 81 8e bd d0 54 97 3c c3 40 af 3d
       -0.051138565 -0.06958374 0.018473059 0.08557274
000140 1b 03 c6 bc 8e 73 dd 3d ab 67 bb bd fd 37 a5 bd
       -0.024171403 0.10813056 -0.091506325 -0.080673195
000150 25 3a f4 bc 88 c6 3a be a2 b4 e7 bd a4 4c da bc
       -0.029812882 -0.18239796 -0.1131375 -0.026647873
000160 98 0d 1c bd 73 af 07 bd b1 35 f3 3c ca 41 e0 3d
       -0.0380989 -0.033126306 0.029688688 0.10950048
000170 55 fa e1 bb 08 66 c1 3d 6f 19 9c bc 00 77 e7 3d
       -0.006896297 0.09443289 -0.019055096 0.11301994
000180 73 4c 4f 3c 34 ee 40 3c e3 d5 5c 3c 23 30 b7 3d
       0.012652504 0.011775542 0.013478729 0.08944728
000190 b2 11 20 3d 4c 1a d6 bb 6b 9f 0f be 02 ae 0b 3a
       0.039079376 -0.0065338966 -0.14025657 0.00053283584
0001a0 fb d2 d7 bd 03 f3 88 bd ba 34 5f bc 4a fb 4c bd
       -0.10538288 -0.06686976 -0.013623411 -0.050044335
0001b0 c8 c7 2f bd e4 48 12 3d b4 66 c3 bd cf 88 fd bd
       -0.042915136 0.035714045 -0.095410734 -0.1237961
0001c0 89 d5 87 3c fb fe fc bd d4 57 80 bd 79 a1 96 bd
       0.016581314 -0.12353321 -0.06266752 -0.07355017
0001d0 c7 08 93 bc 3a fd 08 bd 31 dd e9 bc 72 6d ee 3a
       -0.017948521 -0.03344462 -0.028547855 0.0018190576
0001e0 5f c1 9e bd 0f 89 75 3c b2 0e d1 bb 37 c7 88 bb
       -0.07751726 0.014986291 -0.0063799256 -0.004174139
0001f0 9e c3 90 3d eb 96 9a 3b 60 a7 4f bd dd b5 c1 bb
       0.07068561 0.004717698 -0.05069673 -0.0059115724
000200 bf 30 a0 bd 7b ba 63 3d 69 f4 b7 3d 4d 2c 7f 3c
       -0.078217976 0.055597764 0.089821644 0.015574527
000210 e8 c6 ac bc 6e 71 14 3d c4 9c 40 bd 8d 63 7b bd
       -0.02109094 0.036240987 -0.047024503 -0.061374236
000220 1b 93 a1 3b 08 f1 1a bd 0c fa 58 3d 46 56 b0 3c
       0.0049308664 -0.03782752 0.05297284 0.021525513
000230 b1 b2 3f 3d 5c 0e bd 3c 6a 81 d2 3d 4a 96 ba bd
       0.046801273 0.023078136 0.1027859 -0.091106966
000240 8e 36 0e bc 51 81 bd bb 68 e0 7a bb 7f 0c 7e 3c
       -0.008679999 -0.005783238 -0.003828073 0.015505909
000250 87 57 15 bd af 3d 13 3c 91 c4 25 bb f3 01 e7 ba
       -0.036460426 0.0089868745 -0.0025294165 -0.0017624482
000260 8b 1a 36 3b fc 6b 44 3a c9 62 09 3d c4 69 90 bd
       0.0027786817 0.00074928976 0.033541474 -0.07051423
000270 f1 58 50 3d bc a5 20 3d 05 7c 0b bd 0b bb f3 3b
       0.05086607 0.039220557 -0.03405382 0.0074380687
000280 9f 20 b3 bb a2 c5 ce bc 9f 90 00 3d 3b ee 0e 39
       -0.005466535 -0.025240723 0.03138792 0.00013630923
000290 59 4e 22 3d eb 96 ef 3c 0a ee 90 bc eb a0 b0 bd
       0.0396255 0.029246768 -0.01769163 -0.08624443
0002a0 5a cc 3a 3c 3a 9b c5 bc 3b 87 ea 3d 0e 92 b4 3c
       0.01140126 -0.02412187 0.114515744 0.0220423
0002b0 56 a3 91 bd 4f ac b7 3c 59 11 17 3d 31 98 0a bd
       -0.07111232 0.02242103 0.03688178 -0.033836547
0002c0 54 53 33 3b 5c b2 1d 3b ea 3d 1e bd 5f 58 15 bb
       0.00273629 0.002406261 -0.038633265 -0.002278827
0002d0 36 78 9e 3d ac 28 09 3c e5 85 80 3a 59 da 43 3c
       0.07737772 0.008371513 0.0009805529 0.011953914
0002e0 61 ee 1f bc de 32 80 3c 0c 96 2f b8 d5 8a a7 bb
       -0.009761424 0.015649255 -4.1862993e-05 -0.0051129856
0002f0 f1 eb b2 bc e3 a0 b2 bd 55 6c a0 3c 69 d9 e6 bd
       -0.021841021 -0.08722093 0.019582907 -0.112719364
000300 e0 79 b1 bc 6b 26 a2 bd 1a 21 15 3e 65 4a 4d bd
       -0.02166456 -0.07917484 0.14563408 -0.050119776
000310 0c 80 a2 bc 20 bd e3 bc 52 de d8 bc 89 1f ec 3d
       -0.019836448 -0.027800143 -0.026473198 0.11529452
000320 f3 4f 24 3c 56 c7 08 bd 16 89 24 bd a4 4c 1c 3d
       0.010028827 -0.033393227 -0.040169798 0.038159028
000330 b6 6e 96 3c 07 8c ef 3c 90 f8 26 bc e1 60 cf bb
       0.018363338 0.029241575 -0.010191098 -0.0063286875
000340 5e 48 7d 3b f1 00 38 bc b1 2a 17 bb 92 6a 76 3a
       0.003864787 -0.011230693 -0.0023066218 0.00094000355
000350 40 37 37 3c a6 29 1e ba a8 4f 8b 3a 94 22 26 bb
       0.011182606 -0.0006033428 0.0010628598 -0.00253502
000360 74 c0 fc 3d 26 6b a1 3c c6 97 57 bb 01 d1 8b 3d
       0.12341395 0.019704413 -0.003289686 0.06826974
000370 a1 8a 01 bd e4 70 0d 3d 61 b0 a6 bd 48 27 54 bd
       -0.031626347 0.03453149 -0.0813911 -0.051795274
000380 de 50 a3 3d eb 0e da bd 83 0b 3f 3d c1 ac 14 bd
       0.079744086 -0.106473766 0.046641838 -0.036297563
000390 e1 52 5e bd 2f b2 9f bb 27 5e ab bc d9 57 de 3b
       -0.05427826 -0.004873536 -0.020918919 0.0067853746
0003a0 c2 5e e2 3c 30 08 4f bd 43 b4 fe 3c 41 c5 2d 3c
       0.027633075 -0.050544918 0.031091815 0.010606111
0003b0 f3 ff 13 3d 2f b9 18 bd 0a 9b 9f 3d 7d 44 c5 3d
       0.036132764 -0.03728598 0.07793243 0.09632204
0003c0 15 21 af 3d 44 14 ff bc ed 85 93 3d b3 40 8a bc
       0.08551232 -0.031137593 0.07203279 -0.016876554
0003d0 cc 43 ec bb 50 4f 3a bb e7 0d e6 3b 24 af 14 3d
       -0.0072102305 -0.0028428622 0.0070207003 0.03629984
0003e0 77 5a d5 3c bd cb bf bc 99 ff 06 3a ad 12 1a 3b
       0.026044114 -0.02341258 0.00051497814 0.0023509667
0003f0 ad bb a9 bd 35 4d 99 bd 06 0f 83 bc 48 7f e3 3c
       -0.082877494 -0.07485429 -0.015998375 0.027770653

e_conv2_b.bias f4 [3]
000000 34 5d 68 3d 5a db 83 3d 8a 51 d7 3d
       0.05672951 0.06438322 0.10513599
