no_ilum_epoch_61_model.pth (torch, 288090 bytes, 42 tensors)

e_conv1.weight f4 [32, 3, 3, 3]
0	0xbb84a9d8	-0.0040485673
1	0xbbdd2a0d	-0.0067493976
2	0x39efa2ec	0.0004570702
3	0x3d97d3fe	0.07413481
4	0x3b88ad49	0.004171048
5	0xbd0c3e59	-0.034239147
6	0xbca1ff88	-0.019775167
7	0xbc27939d	-0.010228065
8	0xbc2ff350	-0.010739163
9	0xbc38ca18	-0.011278652
10	0xb915e8e6	-0.00014296509
11	0x3cde5ae2	0.027142946
12	0xbc245338	-0.0100296065
13	0x3bfd999b	0.0077392585
14	0xbbe611ba	-0.007021156
15	0x3bdf67d8	0.006817799
16	0xbc9877c5	-0.018611798
17	0xbcd33803	-0.025783544
18	0x3d87026f	0.06592261
19	0xbce1a34d	-0.027543688
20	0x3c76d189	0.0150646055
21	0x3d72afbe	0.059249632
22	0x3d08233e	0.033236735
23	0x3d84f78a	0.06492527
24	0x3b598411	0.003319029
25	0x3ba2eb80	0.0049719214
26	0xbd35871f	-0.044318315
27	0x3e9059b5	0.2819344
28	0x3f03f509	0.5154577
29	0xbe29d322	-0.16584447
30	0xbe0fa205	-0.1402665
31	0x3da4d079	0.080475755
32	0xbdae570b	-0.08512696
33	0xbd58a50e	-0.052891783
34	0xbe037e19	-0.12841071
35	0x3df9edc9	0.12203557
36	0x3df9b213	0.12192168
37	0x3cd164f7	0.02556084
38	0x3ea2d4c0	0.3180294
39	0x3dcf8f78	0.10134786
40	0xbdb93f32	-0.09045257
41	0xbee3f02a	-0.44519168
42	0x3f036556	0.513265
43	0x3e5da8c8	0.21646416
44	0xbce3a9f8	-0.027791008
45	0xbe271c20	-0.16319323
46	0xbde52790	-0.111891866
47	0xbd303830	-0.043022335
48	0x3eeacd64	0.45859826
49	0x3d6de365	0.05807819
50	0xbbbaf434	-0.005705381
51	0xbd9d91b4	-0.07693806
52	0xbdb9c10f	-0.09070026
53	0x3e5be2c2	0.2147322
54	0x3e805341	0.25063518
55	0x3e28e089	0.16491903
56	0x3e1a959a	0.15096131
57	0x3e117000	0.14202881
58	0x3ed6284d	0.41827622
59	0xbed34cfe	-0.41269678
60	0x3da32fef	0.07968127
61	0xbd5e66c6	-0.05429723
62	0xbd960da3	-0.0732682
63	0xbc1686ff	-0.009187459
64	0xbe48c9e7	-0.1960827
65	0x3e2cf7e6	0.16891441
66	0xbdfcf1ac	-0.12350783
67	0xbd31ed3a	-0.043439128
68	0x3d67cb95	0.056590635
69	0xbe4a168c	-0.19735163
70	0xbe77f819	-0.24215735
71	0x3e9ce85f	0.30646035
72	0xbe2eca7b	-0.17069428
73	0xbe9fc073	-0.31201515
74	0x3d44fc5f	0.048092242
75	0x3e4bab3d	0.19889541
76	0x3da7b484	0.081887275
77	0xbe578367	-0.2104622
78	0x3e99a0f8	0.30005622
79	0x3d7c398f	0.06157833
80	0x3dc20b1b	0.094747745
81	0xbe7da819	-0.24771155
82	0xbe19ecad	-0.15031691
83	0x3cbfa502	0.023394112
84	0x3d8ef079	0.0697946
85	0xbd981d9c	-0.074275225
86	0xbe8602eb	-0.261741
87	0xbe20b7d8	-0.15695131
88	0x3f09514b	0.5363967
89	0x3e0c7657	0.13717018
90	0x3d906b01	0.070516594
91	0xbc7bb6d5	-0.015363415
92	0x3f15c123	0.5849783
93	0x3bc80bd2	0.0061049247
94	0x3c37d679	0.011220568
95	0xbdb23ca9	-0.08702976
96	0xbe0052ca	-0.12531582
97	0x3d9baa24	0.07600811
98	0x3dd8c835	0.105850615
99	0x3de623dd	0.11237309
100	0xbe23cb74	-0.1599558
101	0xbeaacc56	-0.3335902
102	0xbafb7841	-0.0019185619
103	0x3ed5ed64	0.41782677
104	0x3d1002e5	0.03515901
105	0xbe563bfb	-0.20921318
106	0xbcfbdd23	-0.030745095
107	0xbe369cbd	-0.17833228
108	0x3dc3182f	0.09526097
109	0x3e339a08	0.17539227
110	0x3cebbadc	0.028775625
111	0xbca0a311	-0.019609006
112	0x3c45eb9b	0.0120800985
113	0xb9b29b01	-0.00034066293
114	0x3d8b7c6a	0.068108395
115	0x3c991bda	0.018690038
116	0x3b504d90	0.0031784512
117	0x3df54909	0.11976821
118	0x3c0ac48a	0.00846971
119	0xbd915312	-0.070959225
120	0xbdacf610	-0.0844537
121	0x3d60b9fa	0.05486486
122	0x3d7e3403	0.06206132
123	0x3c2c8711	0.010530249
124	0xbc94ac15	-0.018148461
125	0xbe3e9f12	-0.18615368
126	0xbcdf6c5d	-0.027273351
127	0xbcb5e222	-0.022202555
128	0xbd4ea59c	-0.050450906
129	0xbd152781	-0.036414627
130	0xbd819ea1	-0.06329084
131	0x3d2d70da	0.04234395
132	0x3ae4563a	0.0017420717
133	0xbd38ee3b	-0.04514907
134	0xbd7a34f0	-0.06108564
135	0xbdad314e	-0.0845667
136	0xbf17e360	-0.5933132
137	0xbec9ba10	-0.39399767
138	0x3d8c399b	0.06846925
139	0x3e576d81	0.21037866
140	0xbcf4f40a	-0.029901523
141	0xbe503dfc	-0.20336145
142	0xbe428723	-0.18996863
143	0x3eb322aa	0.34987384
144	0x3e77bea6	0.2419382
145	0xbe447ffc	-0.19189447
146	0x3ebe30af	0.37146518
147	0x3e279426	0.16365108
148	0x3e846bf4	0.25863612
149	0x3eacfe17	0.33787605
150	0xbde5e870	-0.112259746
151	0xbcf40cf5	-0.029791335
152	0x3b8a3487	0.0042176875
153	0x3d255a60	0.04036939
154	0x3cca5125	0.024696896
155	0xbe36513a	-0.17804423
156	0x3dae0b59	0.08498258
157	0xbed37fa6	-0.41308326
158	0x3e3554b9	0.177081
159	0x3e37b767	0.17941056
160	0x3e9f97eb	0.31170592
161	0x3eb16567	0.34647676
162	0x3cc125ff	0.023577688
163	0xbb9be5e2	-0.004757629
164	0xbd7516dd	-0.059836257
165	0x3e95f91a	0.29291612
166	0xbeaa5c74	-0.3327366
167	0x3d423593	0.047414374
168	0xbe17f877	-0.14840876
169	0x3e68d937	0.22739111
170	0xbe925d69	-0.2858689
171	0xbe2e3871	-0.17013718
172	0x3e5329d6	0.20621428
173	0x3ec3d975	0.38251844
174	0x3a1e115d	0.0006029809
175	0x3d11fc2d	0.035640884
176	0x3e2e239f	0.17005776
177	0x3d8487ab	0.06471189
178	0xbda008f3	-0.07814207
179	0xbd8f922a	-0.070103005
180	0x3da91667	0.08256226
181	0x3d0117a5	0.03151669
182	0x3e350fc0	0.1768179
183	0x3d867626	0.06565504
184	0xbe80cdab	-0.25156912
185	0x3e067b21	0.13132907
186	0xbd48c274	-0.04901357
187	0x3c5e3d2d	0.01356439
188	0x3d46da46	0.048548006
189	0x3aec9979	0.001805111
190	0xbd28986e	-0.041160993
191	0x3d9d763d	0.07688568
192	0x3d3421bf	0.043977495
193	0x3e4a4d60	0.19756079
194	0xbd5cdd94	-0.05392225
195	0xbe3700bb	-0.17871372
196	0xbeb4dff2	-0.35327107
197	0xbe5bd18f	-0.21466659
198	0x3e318493	0.1733573
199	0xbd34f745	-0.044181127
200	0x3f0f38da	0.55946124
201	0x3de1f6d5	0.110334076
202	0x3d3a1fea	0.045440592
203	0x3e706c64	0.23478848
204	0x3d3d643c	0.04623817
205	0xbd300741	-0.042975668
206	0x3e9a241a	0.30105668
207	0x3e2354d9	0.15950336
208	0x3d856a98	0.06514472
209	0xbe4bdb00	-0.1990776
210	0xbe123de0	-0.14281416
211	0x3e6409d3	0.22269373
212	0x3d155f5a	0.036467887
213	0x3d9525f2	0.07282628
214	0x3eaeabf7	0.34115574
215	0xbdc9328b	-0.098240934
216	0xbe179e0b	-0.14806382
217	0xbb72decf	-0.0037059074
218	0xbd3d831d	-0.046267617
219	0xbcb43f1a	-0.022002745
220	0xbdf8a210	-0.12140286
221	0xbc262177	-0.010139815
222	0x3cd9e64c	0.026599072
223	0xbc3ea1c1	-0.011635245
224	0xbd4f0b85	-0.050548095
225	0x3c66b6bb	0.014081652
226	0x3d96770f	0.073469274
227	0xbca6c91b	-0.020359566
228	0xbcd04d6e	-0.025427546
229	0x3bdbe96c	0.0067111757
230	0x3cb14b3f	0.021642325
231	0x3b9d0edb	0.0047930307
232	0x3c0f8d96	0.008761784
233	0x3c2eabde	0.0106610935
234	0x3e382664	0.17983395
235	0x3da29792	0.07939066
236	0x3c87c68b	0.016574165
237	0x3e59d87e	0.21273991
238	0xbd70a92d	-0.05875509
239	0x3d598adf	0.053110953
240	0x3ce73679	0.028224217
241	0xbe05df7b	-0.13073532
242	0x3d22c777	0.039741006
243	0xbc10e723	-0.00884417
244	0x3bbe4e19	0.00580765
245	0x3ad0fce4	0.0015944508
246	0xbb0d4091	-0.0021553377
247	0x3c505eab	0.012717883
248	0x3c14fab4	0.009092975
249	0xbb2d38df	-0.0026431603
250	0x3c506bf5	0.012721051
251	0x3c5386f3	0.012910592
252	0xbc113634	-0.008863021
253	0x3b05ab7c	0.0020396402
254	0xbaed4b8a	-0.0018104177
255	0xbb712de3	-0.0036801032

e_conv1.bias f4 [32]
0	0xbd9402db	-0.07227107
1	0x3d6079e9	0.054803763
2	0x3ca8613f	0.020554183
3	0x3ddb6477	0.107125215
4	0xbdd3d4ac	-0.10343298
5	0x3ea27bce	0.3173508
6	0x3de64e20	0.1124537
7	0xbd2a088d	-0.04151206
8	0xbaf1b34b	-0.0018440274
9	0xb9ec0d0a	-0.00045023143
10	0x3d0153b0	0.03157395
11	0xbd845257	-0.064610176
12	0x3e1edc65	0.15513761
13	0x3b957eea	0.0045622485
14	0x3e746dda	0.2387003
15	0xbe16252f	-0.14662622
16	0x3e94d777	0.29070637
17	0x3deb2c2e	0.11483036
18	0x3d93110a	0.07180984
19	0xbddc21b2	-0.10748614
20	0x3e5d37ca	0.21603313
21	0xbda13ea4	-0.07873276
22	0x3e4aa8b5	0.19790919
23	0xbd2a488d	-0.041573096
24	0xbd3d626b	-0.046236437
25	0x3e460946	0.19339475
26	0xbd73e2c1	-0.05954242
27	0xbd6a8b62	-0.057261832
28	0x3e3d0f11	0.18462779
29	0xbd36c1e1	-0.04461849
30	0x3e64db1b	0.22349207
31	0x3e48f01e	0.19622847

e_conv1_a.weight f4 [3, 32, 3, 3]
0	0xbb8d2241	-0.004307062
1	0xbbcc8f93	-0.0062427013
2	0xbb78bec5	-0.0037955504
3	0xb9e22513	-0.00043133702
4	0xbb1d3332	-0.0023986814
5	0xba5a7154	-0.0008332927
6	0xbbe77ba0	-0.007064298
7	0xbbfd0a9b	-0.0077222115
8	0xbc11809c	-0.0088807605
9	0xbcf15d6d	-0.029463494
10	0x3db0fe68	0.08642274
11	0x3c7cdb2a	0.015433112
12	0xbc65490c	-0.0139944665
13	0xbe198546	-0.14992246
14	0x3dc19b5b	0.0945346
15	0xbd100b8c	-0.035167262
16	0xbdae1898	-0.08500785
17	0x3dc24bdc	0.09487125
18	0xbcc1ea0c	-0.023671173
19	0xbc0dcbeb	-0.008654575
20	0xbdf09472	-0.11747064
21	0xbd46a830	-0.04850024
22	0x3c297397	0.0103425
23	0x3cf35023	0.029701298
24	0xbbf190f4	-0.007372016
25	0x3d0d99dc	0.03457056
26	0xbd54e56f	-0.051976617
27	0xbc6d8e4b	-0.014499257
28	0xbd6275ff	-0.05528831
29	0xbbf4ea31	-0.007474207
30	0xbc3b3b62	-0.011427732
31	0xbe044f7c	-0.12920946
32	0xbd9513dd	-0.07279179
33	0xbd3ebad7	-0.046564903
34	0xbd8fe11d	-0.07025359
35	0xbc40ad1f	-0.011760025
36	0x3a6de9ff	0.00090757007
37	0x38e2e435	0.00010819027
38	0xbbee51d2	-0.0072729373
39	0x3b92d0bd	0.00448045
40	0x3bb02544	0.005375536
41	0xba85d9ac	-0.0010211966
42	0xbbb7f0ec	-0.005613437
43	0xbbd476ae	-0.0064838743
44	0xbc562d89	-0.01307238
45	0xbd76d08b	-0.060257476
46	0xbb8b1284	-0.0042441506
47	0x3d67929e	0.05653631
48	0xbd204223	-0.039125573
49	0xbe0d8446	-0.1381999
50	0xbd93552c	-0.071939796
51	0x3d49517c	0.049149975
52	0xbd66c710	-0.056342185
53	0x3b140f44	0.0022592107
54	0xbca828d3	-0.020527279
55	0x3bdc030b	0.00671423
56	0xbdcdce4a	-0.10049112
57	0x3b71c57b	0.003689139
58	0x3dca958b	0.09891804
59	0xbd73a36c	-0.059482023
60	0x3d70255a	0.05862937
61	0x3d304b27	0.04304042
62	0x3e0c9560	0.13728857
63	0x3d7060b3	0.05868597
64	0xbcd90367	-0.02649088
65	0x3c165f88	0.00917805
66	0x3de7776a	0.11302073
67	0xbd43a2ce	-0.047762685
68	0xbba80981	-0.005128086
69	0x3d4221b2	0.047395416
70	0xbc09f8c2	-0.008421125
71	0x3ce9379f	0.028468905
72	0xbcdb0b88	-0.026738897
73	0xbd14896c	-0.03626387
74	0xbc79446f	-0.01521407
75	0xbce95d69	-0.028486924
76	0xbd2342e4	-0.039858714
77	0xbcb355ae	-0.021891441
78	0xbc5ea734	-0.013589669
79	0xbce553fd	-0.02799415
80	0xbbd4790e	-0.0064841574
81	0x36a72e0a	4.9823475e-06
82	0xbbab9073	-0.0052357255
83	0x3a830bdf	0.0009998045
84	0x3a10b79d	0.00055205246
85	0xbbc1e287	-0.0059168967
86	0x3a0a02c1	0.00052646926
87	0x3a5feb76	0.00085418613
88	0xbb8a1ae3	-0.004214631
89	0x39aa65b1	0.00032500693
90	0xbcd6a230	-0.026200384
91	0xbd09cd16	-0.03364285
92	0xbc0ffb1f	-0.008787899
93	0xbcc7ed0d	-0.024405027
94	0xbd1a4afa	-0.03766916
95	0xbc393e42	-0.011306347
96	0xbc930ae6	-0.017949533
97	0xbcfd381e	-0.030910548
98	0xbc34ea94	-0.011042256
99	0xbda56f0c	-0.08077821
100	0x3c3e6783	0.011621359
101	0x3d8cd0ec	0.06875786
102	0x3cb455f1	0.022013636
103	0x3d066df1	0.032819692
104	0xbced79ae	-0.028988685
105	0xbc91656d	-0.017748559
106	0x3db44f2d	0.08804164
107	0xbdc5775b	-0.09641906
108	0x3d3f7cfd	0.046750057
109	0xbdc8b0a6	-0.09799318
110	0x3d3e25df	0.046422835
111	0xbd22906c	-0.039688513
112	0x3ba3b744	0.004996212
113	0xbcbfbfcb	-0.023406884
114	0x3d80e454	0.0629355
115	0xbd2652fe	-0.04060649
116	0xbbe4f1a1	-0.006986812
117	0x3d84b52b	0.064798675
118	0x3d104451	0.0352214
119	0xbcc51765	-0.024059007
120	0x3d0e2393	0.034701895
121	0x3d45599c	0.04818116
122	0x3c726c04	0.014796261
123	0xbb2c94d6	-0.002633383
124	0x3c5a3334	0.013317872
125	0x3d8538a5	0.06504945
126	0xbbcc2acf	-0.006230689
127	0xbe7eeea6	-0.24895725
128	0xbca3b586	-0.019984018
129	0xbe729b78	-0.23692119
130	0xbe775872	-0.24154833
131	0xbe3241ba	-0.17407885
132	0x3ceac35b	0.028657606
133	0xbd2db979	-0.04241321
134	0x3d2149fc	0.039377198
135	0xbceaaeb0	-0.02864775
136	0xbc34fc9d	-0.011046556
137	0xbc1d949a	-0.009617949
138	0xbcd5104c	-0.026008748
139	0xbc767f77	-0.015045038
140	0xbc1c7ec9	-0.009551712
141	0xbcaa4f15	-0.020789662
142	0xbbdc5158	-0.006723564
143	0xbbc5ca3b	-0.0060360706
144	0xbd949554	-0.072550446
145	0x3d781024	0.060562268
146	0x3cad258e	0.021136072
147	0x3cc65d69	0.024214463
148	0xbdd56651	-0.10419906
149	0x3c3869a4	0.011255655
150	0xbcca066b	-0.024661263
151	0xbdd11830	-0.102096915
152	0xbddc8f61	-0.10769535
153	0xbd535db9	-0.051603053
154	0xbd84e9ab	-0.06489881
155	0x3ba9072c	0.0051583257
156	0xbd8dcb17	-0.06923502
157	0x3be9188c	0.007113522
158	0x3d36fe26	0.04467597
159	0xbdc4483a	-0.095840886
160	0xbe448921	-0.19192936
161	0xbc226f5d	-0.009914246
162	0x3bfccaf4	0.0077146236
163	0xbce11470	-0.027475566
164	0x3d4ad24f	0.049516972
165	0xbd0eeb97	-0.034892645
166	0x3c6ce3a6	0.0144585725
167	0x3d0ffd1c	0.035153493
168	0x3b6621e5	0.0035115418
169	0x3c345a08	0.011007793
170	0x3d62162e	0.055196933
171	0xbbde3e15	-0.006782303
172	0x3ba876a2	0.0051410953
173	0x3bddef4d	0.0067729116
174	0xbcaa9586	-0.020823251
175	0xbc02f439	-0.0079927975
176	0xbbd97428	-0.0066361614
177	0xbbfb2d23	-0.007665293
178	0x3b318ffe	0.0027093883
179	0x3b8bceff	0.004266619
180	0x37fbbfd1	3.0010853e-05
181	0xbdb0491e	-0.08607696
182	0xbd6ec979	-0.058297608
183	0xbdac10f9	-0.08401675
184	0xbdd7b231	-0.10532034
185	0x3d2312be	0.039812796
186	0x3d94b869	0.07261736
187	0xbcbb5b9b	-0.02287083
188	0x3e14ac30	0.1451881
189	0x3da6d6b8	0.08146423
190	0xbc0f9110	-0.008762613
191	0x3d965a51	0.07341445
192	0x3d2d6b56	0.04233869
193	0x3da36b50	0.079794526
194	0x3dd2ac8b	0.10286816
195	0x3dbf21ad	0.09332595
196	0x3d6eceec	0.058302805
197	0x3d6f35a1	0.058400754
198	0x3d81d932	0.06340255
199	0xbdba34a9	-0.090920754
200	0x3d796887	0.0608907
201	0xbd5cb99d	-0.053887952
202	0x3d3b56c5	0.045737047
203	0xbda90364	-0.082526
204	0xbd333e57	-0.043760624
205	0xbd60c1d2	-0.05487234
206	0xbe46f477	-0.19429193
207	0xbb13527b	-0.0022479582
208	0xbb2318ce	-0.002488661
209	0xbb99d39c	-0.0046944153
210	0xbc072a5c	-0.008249845
211	0xbc1e3d3c	-0.009658154
212	0xbc32dd49	-0.010917016
213	0xbab676e7	-0.0013920934
214	0xba3418fb	-0.00068701775
215	0xbb881191	-0.0041524847
216	0x3dadfe4e	0.084957704
217	0xbc0c60cd	-0.008568001
218	0x3d202c6f	0.039104875
219	0xbc8f2ddb	-0.01747792
220	0xbd51d190	-0.051225245
221	0x3de4d0e8	0.11172658
222	0xbd6106c8	-0.054938108
223	0x3bfef2b2	0.0077803964
224	0x3d374cef	0.044751104
225	0x3d508aeb	0.050913732
226	0xbdff5336	-0.12467043
227	0xbd81c0f8	-0.06335634
228	0xbd9b921a	-0.07596226
229	0x3d9011c0	0.070346355
230	0xbe367666	-0.17818603
231	0xbcec2ae9	-0.028829055
232	0xbe528580	-0.20558739
233	0xbd10a2c2	-0.035311468
234	0x3d642ba9	0.0557057
235	0xbdb5cd02	-0.08876993
236	0x3d7a6d68	0.061139494
237	0x3d867a31	0.06566275
238	0x3d91a099	0.0711071
239	0x3d0f7239	0.03502104
240	0xbc4d9b8b	-0.012549291
241	0x3d3f1160	0.04664743
242	0x3da5e0e3	0.08099534
243	0x3d41706c	0.047226354
244	0x3ca79136	0.020454984
245	0x3bff4e69	0.0077913296
246	0xbbe71a3f	-0.0070526893
247	0x3c47dd34	0.012198735
248	0xbb8b7954	-0.004256407
249	0x3c9a574c	0.018840455
250	0x3c04379f	0.008069902
251	0x3c8a4c18	0.016881987
252	0xbddc757b	-0.10764595
253	0xbdb5af67	-0.08871346
254	0x3d9c2e1c	0.07625982
255	0x3bc59ada	0.0060304226

e_conv1_a.bias f4 [3]
0	0xbe19d791	-0.15023638
1	0xbe0e299b	-0.13883059
2	0xbdc2d29c	-0.09512827

e_conv1_b.weight f4 [3, 32, 3, 3]
0	0x3b677049	0.003531473
1	0x3ba2a68e	0.0049637025
2	0x3b398c62	0.0028312434
3	0x3bd4f554	0.006498972
4	0x3bf6e64f	0.007534779
5	0x3be9ffc7	0.0071410867
6	0x3bb23475	0.0054383823
7	0x3bc80085	0.0061035776
8	0x3ba7d0c0	0.0051213205
9	0x3d8a8510	0.06763661
10	0xbdac6620	-0.08417916
11	0xbc3be6f9	-0.011468642
12	0xbd655f60	-0.05599916
13	0xbd064306	-0.032778762
14	0xbc510dd7	-0.012759647
15	0x3d14f1dc	0.036363468
16	0x3ca32862	0.019916717
17	0xbd0f68a0	-0.035011888
18	0x3c841625	0.01612384
19	0xbc3a4f61	-0.0113714645
20	0x3d94b923	0.072618745
21	0x3d20f0bb	0.03929208
22	0x3cb60811	0.022220643
23	0x3d3a269b	0.045446973
24	0xbabd6cf1	-0.0014452023
25	0x3d069590	0.032857478
26	0x3d443f61	0.047912005
27	0xbc33c0ee	-0.010971291
28	0x3c076dee	0.008265955
29	0x3c4a07d4	0.012330968
30	0x3c1dbb45	0.009627168
31	0x3d0604b1	0.032719318
32	0x3cb695c6	0.022288214
33	0x3b90eddf	0.0044228877
34	0x3cea0566	0.028567027
35	0x3ca58dce	0.02020922
36	0x3c485511	0.012227313
37	0x3c8409cd	0.016117955
38	0x3c50e19d	0.012749103
39	0x3c82973a	0.015941251
40	0x3ca10b65	0.019658754
41	0x3c84c6cf	0.01620808
42	0x3c460fa6	0.012088692
43	0x3c8b62e7	0.017014934
44	0x3c5f7e24	0.013640914
45	0x3cf475d0	0.029841334
46	0xbcf3a266	-0.029740524
47	0xb805247e	-3.1743657e-05
48	0xbd1d1ae5	-0.038355727
49	0x3d622d16	0.05521878
50	0x3c057e9b	0.008147861
51	0x3d083ff2	0.033264108
52	0xbbb945b1	-0.00565406
53	0xbcf9bc71	-0.030485364
54	0xbd226b67	-0.039653208
55	0xbd18beb3	-0.03729124
56	0x3a61f247	0.0008619171
57	0x3c27cb78	0.010241382
58	0x3ce64d1e	0.028112944
59	0xbce1254d	-0.027483607
60	0x3d87e5ed	0.06635652
61	0x3ab065c7	0.0013458066
62	0xbd8e7ff4	-0.06957999
63	0xbd9ec5fb	-0.077526055
64	0xbd3edaac	-0.04659526
65	0xbd0ab643	-0.033865225
66	0xbd23e3e2	-0.040012248
67	0xbd9940a0	-0.07483029
68	0xbcf38012	-0.029724155
69	0xbd9944db	-0.07483836
70	0xbd04d091	-0.032425467
71	0xbcf24cd8	-0.029577658
72	0xbc0f43d0	-0.008744195
73	0x3b6d5ba4	0.0036217952
74	0xb98f3457	-0.00027314082
75	0xbb26abb3	-0.002543193
76	0x3c3a202b	0.0113602085
77	0x3bc3f374	0.0059799496
78	0x3aee74fc	0.0018192823
79	0x3c5039de	0.012709109
80	0x3c22aa6f	0.00992833
81	0xbb359469	-0.0027706868
82	0x3ba68638	0.005081918
83	0x3ab3dfa3	0.0013723265
84	0xbb2c18ba	-0.0026259855
85	0x3bb1fca7	0.00543173
86	0x3ae1b6d4	0.0017220625
87	0xbb6a10e9	-0.0035715646
88	0x3b8259eb	0.003978004
89	0x3a8f6d03	0.0010942522
90	0x3cdef6e9	0.027217345
91	0x3cec0100	0.02880907
92	0x3ccead2a	0.025229055
93	0x3cbb4890	0.022861749
94	0x3ccfad08	0.025351062
95	0x3ca047b4	0.01956544
96	0x3ca9dcb2	0.020735119
97	0x3c9f505c	0.019447498
98	0x3c78b83b	0.015180643
99	0x3d360e2d	0.044447113
100	0xbdc35350	-0.09537375
101	0xbdce0492	-0.100594655
102	0x3c7de667	0.015496827
103	0x3bb43183	0.0054990663
104	0xbbaa9db3	-0.0052067875
105	0xbcdcc3ce	-0.026948836
106	0xbd1e2d55	-0.03861745
107	0xbd572826	-0.052528523
108	0xbc80c78e	-0.015720155
109	0x3d3336e2	0.043753512
110	0x3c927a94	0.017880715
111	0x3cf4f061	0.029899778
112	0xbb94a05e	-0.004535719
113	0xbc66e33b	-0.014092262
114	0x3c744452	0.014908867
115	0x3c31a03f	0.010841428
116	0x3c0bf518	0.008542322
117	0x3c483f61	0.012222142
118	0x3c85167e	0.016246077
119	0x3c8da495	0.017290393
120	0x3c282e44	0.010264937
121	0x3b038ece	0.0020074132
122	0x3d22caf2	0.039744325
123	0xbb7be502	-0.003843606
124	0x3c2e94ae	0.010655565
125	0xba3ca255	-0.000719582
126	0x3d08c764	0.03339328
127	0x3cb489a8	0.022038296
128	0x3d1d4d0a	0.03840355
129	0x3c53a7a0	0.012918383
130	0x3d501d9b	0.050809484
131	0x3ca7bc80	0.020475626
132	0x3d0d2afa	0.034464814
133	0x3cfa88e5	0.030582855
134	0x3d12ab7c	0.03580807
135	0x3c0284a8	0.007966198
136	0x3c8a75f5	0.01690195
137	0x3c175cf6	0.009238472
138	0x3c28a0e4	0.010292266
139	0x3c93192c	0.017956339
140	0x3c385ef9	0.011253112
141	0x3c08e5ea	0.008355597
142	0x3c8f749f	0.017511664
143	0x3c26a6b7	0.010171584
144	0xbb68e227	-0.0035535188
145	0xbd54e526	-0.051976345
146	0xbd9f31e4	-0.07773188
147	0xbcd9951e	-0.026560362
148	0x3d81c2ea	0.06336005
149	0xbd30a5ef	-0.043126997
150	0xbd2faa33	-0.042886924
151	0xbd6e758d	-0.058217574
152	0xbd65e6dd	-0.05612837
153	0x3cc8ca94	0.02451066
154	0x3d1bb8b1	0.038017932
155	0x3cdc50f9	0.02689408
156	0x3cc4ce7a	0.024024237
157	0x3ad19d46	0.0015992306
158	0x3cf4162b	0.029795727
159	0x3d565f8b	0.05233721
160	0x3d345575	0.04402681
161	0xbccd69a1	-0.025074782
162	0x3ab6520b	0.0013909949
163	0x3bb98d05	0.005662563
164	0xb9a336eb	-0.000311307
165	0x3bd2b6f9	0.0064305034
166	0x3c340129	0.010986605
167	0x3bd3c595	0.0064627626
168	0x3a5ebeb5	0.00084970455
169	0x3be574c6	0.007002446
170	0x3ad45d1a	0.0016202063
171	0xbb2b08e4	-0.0026097829
172	0xbb42aecb	-0.0029706236
173	0xbb92de1a	-0.004482043
174	0xba921841	-0.0011146144
175	0x3b450917	0.0030065232
176	0xb927e8a0	-0.0001601302
177	0xbb70f67e	-0.0036768015
178	0xbbbeb6e3	-0.0058201416
179	0xbbacf9b0	-0.0052787885
180	0x3c653b11	0.013991133
181	0x3cdf69e7	0.027272178
182	0xbafba4b5	-0.0019198867
183	0x3cfe722c	0.0310603
184	0x3d3e14ea	0.046406664
185	0x3c921705	0.017833242
186	0x3c3f4fd3	0.011676746
187	0x3cef53fb	0.02921485
188	0x3b036c4e	0.0020053568
189	0xbc442605	-0.011971955
190	0x3beff5db	0.0073230094
191	0xbadecfcc	-0.0016999184
192	0x3cd5cd18	0.026098773
193	0xbcfebd33	-0.031096077
194	0xbccfaa47	-0.02534975
195	0xbcbdec0f	-0.02318385
196	0x3a02c386	0.00049882417
197	0xbd049133	-0.032365035
198	0x3d0db30a	0.034594573
199	0xbb42121b	-0.0029612842
200	0xbcc75f34	-0.024337389
201	0xbaf5a927	-0.0018742428
202	0x3c594c32	0.013262795
203	0x3dc3b2b2	0.09555568
204	0xbd4ac7e2	-0.04950703
205	0x3db6adc1	0.0891986
206	0xbd300250	-0.042970955
207	0x3b668366	0.0035173534
208	0x3b814df9	0.0039460626
209	0x3a8e3576	0.0010849673
210	0x3c02730f	0.007962002
211	0x3c06a842	0.008218827
212	0x3b941da4	0.004520135
213	0x3b55be1d	0.0032614537
214	0x3ab5a88f	0.0013859438
215	0x38e3d032	0.00010862983
216	0x3be5eef0	0.007017009
217	0x3db706c6	0.08936839
218	0x3d1eac16	0.038738333
219	0xbd0377ae	-0.032096557
220	0xbcce6bac	-0.025197826
221	0xbd745d7c	-0.059659466
222	0xbcd23196	-0.02565841
223	0xbafd0cd5	-0.0019306192
224	0x3cc25e76	0.023726683
225	0x3dfe2ed1	0.12411273
226	0x3cb4b76d	0.02206012
227	0x3d8f96fa	0.07011218
228	0xbc1674ba	-0.009183103
229	0x3d3b5323	0.045733582
230	0xbc18da3f	-0.009329378
231	0x3cff13a2	0.031137291
232	0x3d5afff9	0.05346677
233	0x3d5d4861	0.054024104
234	0x3d9e80f0	0.077394366
235	0x3a6fc2bf	0.0009146146
236	0x3b494034	0.0030708434
237	0xbd0af5da	-0.03392587
238	0x3dd203af	0.10254609
239	0x3bde7125	0.00678839
240	0x3da09ed0	0.07842791
241	0x3deb18a1	0.11479307
242	0xbb95a72e	-0.0045670485
243	0xbc6d43cd	-0.014481497
244	0x3bac596a	0.0052596824
245	0x3c068f4c	0.008212876
246	0xbb4862b1	-0.0030576403
247	0xba18fe9b	-0.0005836279
248	0x3c24b43e	0.010052739
249	0x3c0a2090	0.008430615
250	0x3c649a3b	0.013952787
251	0x3c3e3539	0.011609369
252	0x3d527890	0.05138451
253	0xbdb33527	-0.087503724
254	0x3d01385e	0.031547897
255	0xbc366eee	-0.011134846

e_conv1_b.bias f4 [3]
0	0xbc540309	-0.012940177
1	0x3d5a518d	0.05330043
2	0x3c88b7ca	0.0166892

e_conv2.weight f4 [32, 32, 3, 3]
0	0x3a804ca1	0.0009788462
1	0x3a44d090	0.0007507885
2	0x399bf64b	0.00029747406
3	0x3a82db5d	0.0009983588
4	0x3a751c33	0.00093502103
5	0x3a274bd1	0.0006381842
6	0x3abccfe5	0.0014405219
7	0x3aca3770	0.0015427899
8	0x3a7b6843	0.00095904263
9	0xbb2e81bd	-0.0026627623
10	0xba8e8728	-0.001087402
11	0xbc8a1d69	-0.016859727
12	0x3bb075bd	0.0053851292
13	0x3bfcf8c2	0.007720084
14	0xbbf9de68	-0.00762539
15	0x3c499dbb	0.012305672
16	0x3c87a386	0.016557466
17	0x3b0cbd1c	0.0021475023
18	0xbb3f86d2	-0.0029224646
19	0xbb4ce227	-0.0031262727
20	0xbc08fb18	-0.008360647
21	0x3a9960d1	0.0011701827
22	0xb9a914ba	-0.00032249634
23	0xbb56a6e7	-0.003275329
24	0x3b48002d	0.0030517683
25	0x3b1681ef	0.002296563
26	0xbad04b99	-0.001589167
27	0xba1b8b0e	-0.00059335015
28	0xbab3a778	-0.0013706526
29	0xbb9deef5	-0.0048197457
30	0x3bde02c6	0.006775233
31	0x3b38b3d9	0.002818337
32	0xba0a3abd	-0.0005273035
33	0x3bf9137f	0.007601201
34	0x3b8725da	0.0041243853
35	0xb9bb72d3	-0.0003575297
36	0x37cc87e7	2.438198e-05
37	0x3aac3981	0.0013139696
38	0x3a10a5a4	0.00055178464
39	0x387a9853	5.9746508e-05
40	0x3acd7a9c	0.0015676799
41	0x3a454387	0.0007525016
42	0x394ce266	0.00019539296
43	0x3aedaa46	0.001813241
44	0x3a71bb20	0.0009221304
45	0xbb7ea927	-0.0038858147
46	0xbc3a8630	-0.011384532
47	0xbc8fe2a0	-0.017564118
48	0x3c7fd854	0.0156155415
49	0x3be8d009	0.007104878
50	0x3adff641	0.0017086939
51	0x3c0edd78	0.008719794
52	0xba7ffeeb	-0.0009765464
53	0xbb96aae3	-0.004598008
54	0xbae6c649	-0.0017606701
55	0xbba55129	-0.0050450754
56	0xbb84fb4e	-0.004058278
57	0xbab926a4	-0.0014125896
58	0xbbc2f79d	-0.005949928
59	0xbc057014	-0.008144397
60	0x3baae1f3	0.0052149235
61	0x3ab40f09	0.0013737391
62	0xbb50b112	-0.0031843823
63	0xba86ddcc	-0.0010289489
64	0xbbd601c9	-0.0065309745
65	0xbc325def	-0.010886653
66	0x3b619522	0.0034421165
67	0xbb2cc4ea	-0.0026362487
68	0xbc0a56d6	-0.008443555
69	0x3c4e702b	0.012599985
70	0x3bbfa014	0.00584794
71	0xbafe4cac	-0.0019401512
72	0xba1f739b	-0.0006082595
73	0x38a2f38b	7.7701254e-05
74	0x3926ec2c	0.00015918975
75	0xbab8868c	-0.0014078184
76	0xb940d856	-0.00018391138
77	0xb91eadbb	-0.00015132774
78	0xba8c85f9	-0.0010721079
79	0x3a3b2342	0.0007138738
80	0x3a89c1de	0.0010510047
81	0x3a2fcf9b	0.0006706656
82	0x39656954	0.0002187838
83	0x39610c34	0.00021462218
84	0x3a7624e7	0.0009389654
85	0x39c03fe3	0.00036668693
86	0x399b21f1	0.00029589192
87	0x3a5c773b	0.00084101007
88	0x39880082	0.0002594032
89	0x394252b9	0.00018532098
90	0x3acd4116	0.0015659656
91	0x3ab5a316	0.0013857807
92	0xbac965a4	-0.0015365374
93	0x3b3b8d2b	0.0028618078
94	0x3b212558	0.002458891
95	0x39f0812b	0.00045872605
96	0x3b22c656	0.0024837456
97	0x3b48a8ca	0.0030618184
98	0x3b01f7d6	0.001983156
99	0xb9ede589	-0.0004537518
100	0xbb1f68b9	-0.0024323894
101	0xbc69b69f	-0.014264732
102	0x3c780801	0.015138627
103	0x3c5bab3e	0.013407527
104	0x3aa2a18f	0.0012407767
105	0x3c820cc7	0.015875233
106	0x3c5eba0a	0.01359416
107	0x3ad69e22	0.0016374032
108	0xb9aa3d33	-0.00032470524
109	0xbb897909	-0.0041953367
110	0xbbb0bbf5	-0.0053935
111	0xba534117	-0.00080587104
112	0xbbbcadac	-0.005758008
113	0xbbf46b26	-0.007459062
114	0x3b7df34c	0.0038749753
115	0xbadbf6c4	-0.0016781916
116	0xbb9e3aa2	-0.004828767
117	0xbb084c9e	-0.002079762
118	0xba363545	-0.0006950687
119	0xbba02a45	-0.0048878514
120	0xba42cd56	-0.000743111
121	0x3b1f7c6a	0.0024335631
122	0xbaf1dfe2	-0.0018453563
123	0x3b4ed958	0.0031562652
124	0x3bb97210	0.0056593493
125	0xbaa5e101	-0.0012655557
126	0xba15f063	-0.00057197193
127	0xb9bdfad1	-0.00036235762
128	0xbbf7eb06	-0.007565859
129	0x3985643e	0.00025442423
130	0x3a932a66	0.0011227846
131	0xbbc13b69	-0.005896975
132	0x3bafe29d	0.0053675906
133	0x3beb9395	0.007189224
134	0xba9f780d	-0.0012166515
135	0x3a5c57b6	0.0008405404
136	0x3a5178b1	0.00079907017
137	0x3a55753c	0.00081427745
138	0x3b155c90	0.0022790767
139	0x3b07d8d8	0.0020728614
140	0x3aecf45e	0.0018078198
141	0x3b26b957	0.002544006
142	0x3b174531	0.0023082013
143	0x3b0ed2f0	0.002179321
144	0xbb6ea388	-0.003641339
145	0x3b045922	0.002019473
146	0xbb4136c8	-0.0029482115
147	0xba9da89f	-0.0012028402
148	0x3baae85c	0.0052156877
149	0xbb29c95f	-0.002590738
150	0x3b7bebf2	0.0038440195
151	0x3c29fe56	0.01037558
152	0xb984dae3	-0.00025340085
153	0xba3eccee	-0.00072784617
154	0x3ad0ff6b	0.0015945261
155	0xbc03f3b6	-0.008053711
156	0x3b8c596f	0.0042831223
157	0x3bc4925e	0.0059988936
158	0xbb25d0ab	-0.0025301378
159	0x3be8bee7	0.0071028355
160	0x3c2d5373	0.010578978
161	0x3aa9c060	0.0012951009
162	0x394e77b0	0.00019690278
163	0x3a2bd8d9	0.0006555445
164	0x39f9d08f	0.0004764837
165	0xb908497f	-0.0001299735
166	0x39da0e09	0.00041590657
167	0x39b04406	0.00033620017
168	0xb9d6a7fd	-0.00040942422
169	0x389a2050	7.349311e-05
170	0xb464023e	-2.123497e-07
171	0x3b097418	0.0020973738
172	0x3a034c4a	0.00050086214
173	0xb9a91cd0	-0.0003225566
174	0x3b2cc6b8	0.0026363563
175	0x3a48319e	0.0007636788
176	0xba401ba8	-0.000732834
177	0x3b4c99d6	0.0031219623
178	0x3abebd36	0.0014552239
179	0x3a7d941c	0.0009673254
180	0x38a1256f	7.684051e-05
181	0x3a8bac34	0.0010656179
182	0xbad2889a	-0.0016062439
183	0x3a31a1c9	0.0006776122
184	0x3ae284e8	0.0017282041
185	0xba19260d	-0.0005842157
186	0x36aa56aa	5.076484e-06
187	0x3aa3060f	0.0012437719
188	0xba65319c	-0.0008743049
189	0x39f83050	0.00047338242
190	0xbb68b44f	-0.0035507863
191	0xbc6a2350	-0.014290646
192	0x3b73096f	0.003708448
193	0x360ef87b	2.1304284e-06
194	0xbc434b17	-0.011919758
195	0x3c6eb166	0.014568662
196	0x3c31b245	0.010845725
197	0x38cfc5ea	9.9073935e-05
198	0xbb0defc9	-0.0021657816
199	0xbbbff97b	-0.005858598
200	0xbc0500de	-0.008117883
201	0x3c668e2a	0.0140719805
202	0x3c0fdba7	0.008780397
203	0x3b9bfd2c	0.004760405
204	0x3c17d46c	0.009266954
205	0x3b6ed4e6	0.0036442815
206	0xbaeaa13e	-0.0017900837
207	0x3b0345a2	0.0020030518
208	0x3afcd663	0.0019289966
209	0x3a3466a3	0.0006881749
210	0x3b1c5bee	0.0023858505
211	0x3b168513	0.0022967502
212	0x3aba28a7	0.0014202789
213	0x3b0ffcdb	0.0021970782
214	0x3b26402d	0.0025367842
215	0x3b178515	0.0023120095
216	0xbabd98d7	-0.0014465105
217	0xbbea4cd4	-0.007150272
218	0xbc432c96	-0.011912486
219	0x3c28cf69	0.010303357
220	0x3baa993e	0.005206256
221	0xbb67cca7	-0.0035369785
222	0x3c6b5465	0.014363383
223	0x3c0a2e64	0.008433912
224	0xba351035	-0.0006907017
225	0x39a713a7	0.00031867364
226	0xbb986961	-0.004651234
227	0xbbfb3201	-0.007665873
228	0x3b8ee8ea	0.0043612616
229	0xb9b11a8f	-0.00033779858
230	0xbb9105a0	-0.0044257194
231	0x3b8f58b9	0.0043745902
232	0xb96b0ed9	-0.00022416878
233	0xbb552ef9	-0.0032529219
234	0xbadca0e7	-0.0016832621
235	0xbc2693ab	-0.010167043
236	0xbc9d26cf	-0.019183544
237	0x3b827aac	0.003981909
238	0xbbb00a97	-0.005372356
239	0xbc83a2e4	-0.016068883
240	0x3c8f77ff	0.017513273
241	0x3c0566b6	0.008142164
242	0xbb1a1366	-0.0023510098
243	0x39d533c1	0.00040665086
244	0x39620411	0.00021554554
245	0xbb6f9433	-0.003655684
246	0x3b012ff3	0.0019712418
247	0x3b545683	0.0032400198
248	0xb9902b36	-0.00027498015
249	0x3b95748e	0.0045610135
250	0x3bb62e11	0.0055596908
251	0x3b0d45b5	0.0021556441
252	0xbb45b98c	-0.003017041
253	0xbc41221c	-0.011787917
254	0xbc3ed626	-0.011647737
255	0xba6433fe	-0.0008705257

e_conv2.bias f4 [32]
0	0x3a422ad3	0.0007406894
1	0x3d7f3678	0.062307805
2	0x3c891706	0.016734611
3	0x3d0096e5	0.031393904
4	0xbcaf3528	-0.021387652
5	0x9644cbec	-1.58971e-25
6	0x3dc47b8b	0.095938765
7	0x3d70f98b	0.058831733
8	0x3d2a52b7	0.04158279
9	0x3dfcd501	0.12345315
10	0xbd000d7b	-0.031262856
11	0x3d3d7d6b	0.046262186
12	0x3dbbde79	0.09173293
13	0x3d800136	0.06250231
14	0x3d7ce7e1	0.061744574
15	0xbcaf6cd5	-0.0214142
16	0x3d649a5c	0.05581127
17	0x3d9470ad	0.07248054
18	0x3d083e51	0.033262555
19	0xbc10cc8d	-0.008837831
20	0x3bcb9325	0.0062126094
21	0x3c6a41f7	0.014297954
22	0x3c11ce44	0.008899275
23	0xa4d41018	-9.196761e-17
24	0xbcf176fb	-0.02947568
25	0xbc387107	-0.011257417
26	0x3d12cc80	0.035839558
27	0x3df01c0f	0.11724102
28	0x3c3625d9	0.011117422
29	0x3db6baf5	0.08922378
30	0x3d1bcf0f	0.038039263
31	0xbd65da70	-0.05611652

e_conv2_a.weight f4 [3, 32, 3, 3]
0	0xba9036be	-0.0011002643
1	0x3ad37632	0.0016133247
2	0x3b35c78d	0.002773735
3	0xbb1dc353	-0.002407272
4	0x3b1ff221	0.0024405795
5	0x3c3d8b2c	0.011568826
6	0xbc17da46	-0.009268349
7	0xbbf3ddb0	-0.0074421987
8	0x3b9ff85a	0.0048819007
9	0x3ded228c	0.11578855
10	0xbd84e873	-0.06489649
11	0x3e065513	0.1311839
12	0x3cf934cc	0.030420683
13	0xbdb81fc8	-0.08990437
14	0xbd6e508b	-0.05818228
15	0xbd5f6829	-0.054542694
16	0x3d9a884c	0.07545528
17	0x3c97cdbc	0.018530719
18	0x3b0d73a8	0.002158383
19	0xbc6d1c0e	-0.014472021
20	0x3bb2a2ec	0.0054515507
21	0xbbd36683	-0.0064514293
22	0xbcc204c7	-0.023683919
23	0xbb3c088f	-0.0028691625
24	0x3b81a799	0.003956747
25	0xbc509437	-0.01273065
26	0x3befcc77	0.0073180753
27	0x3d71cfb8	0.059035987
28	0xbda83d27	-0.08214789
29	0xbc7c7b41	-0.015410245
30	0x3c8dbd9c	0.017302327
31	0x3e12e557	0.14345299
32	0xbda56cea	-0.08077414
33	0xbc9b9092	-0.018989835
34	0xbd711fdb	-0.05886827
35	0xbd473a6d	-0.048639704
36	0xbb659fd7	-0.00350379
37	0x3a40d333	0.000735569
38	0xbbe0ba9a	-0.006858182
39	0x3b3be296	0.0028668991
40	0x3b8bc7b5	0.0042657503
41	0xb9d232f8	-0.00040092296
42	0x3ad7350c	0.0016419007
43	0x3ba15e15	0.0049245455
44	0x3aa10a10	0.0012286324
45	0x000088c9	4.9069e-41
46	0x0000893a	4.9228e-41
47	0x000089af	4.9392e-41
48	0x8000896a	-4.9295e-41
49	0x0000896b	4.9296e-41
50	0x800089d5	-4.9445e-41
51	0x80008914	-4.9174e-41
52	0x800089b5	-4.94e-41
53	0x800088d5	-4.9086e-41
54	0x3b65ae1e	0.003504641
55	0xbd701d47	-0.05862167
56	0xbc0e7d01	-0.008696795
57	0xbd8e8a83	-0.06960013
58	0xbddba765	-0.10725287
59	0xbdb1cdd8	-0.0868184
60	0xbc5adf2d	-0.013358873
61	0xbcf9a477	-0.03047393
62	0xbc92345f	-0.017847238
63	0x3c790549	0.015199014
64	0xbc13cadc	-0.009020533
65	0x3ce6277f	0.028095005
66	0xbbc6ce5b	-0.00606708
67	0x3cbcd05f	0.023048578
68	0xbced1dd3	-0.028944885
69	0xbc822ba6	-0.015889954
70	0x3c2760a8	0.010215916
71	0x3b1f3703	0.0024294264
72	0xbdba4df7	-0.09096902
73	0xbc131de8	-0.008979298
74	0x3d3052ee	0.043047838
75	0xbce5b09b	-0.028038314
76	0xbdd90bdd	-0.10597966
77	0xbca0fdc1	-0.01965225
78	0xbd914cdf	-0.0709474
79	0xbc0dbfd8	-0.008651696
80	0xbba538c0	-0.0050421655
81	0xbbac8f03	-0.0052660718
82	0xbd91c232	-0.07117118
83	0x3cbcd303	0.023049837
84	0xbe0f0f8c	-0.13970774
85	0xbe295417	-0.16535984
86	0xbde65cc5	-0.11248163
87	0xbbd10478	-0.0063787065
88	0xbdcf49d8	-0.101215065
89	0xbc49deff	-0.012321233
90	0xbc8a85ae	-0.016909447
91	0xbc01be3c	-0.007918891
92	0xbc9ec487	-0.01938082
93	0xbad38375	-0.00161372
94	0x3bf12316	0.007358919
95	0x3bc12c77	0.005895193
96	0xbc1cfff4	-0.009582508
97	0x3c20ab90	0.009806529
98	0xbc15b2b0	-0.009136841
99	0xba385ff3	-0.00070333405
100	0xbdc8d54d	-0.09806309
101	0x3c9e24cf	0.019304661
102	0xbd528f55	-0.051406223
103	0xbe19b467	-0.15010224
104	0xbcfe69c0	-0.031056285
105	0x3c193a8f	0.00935234
106	0xbdb4fcda	-0.0883729
107	0x3cf02f46	0.029319417
108	0x3d17460a	0.03693203
109	0xbd203e19	-0.03912172
110	0x3d64ae8b	0.05583052
111	0xbcd9ded5	-0.026595512
112	0xbdd38c42	-0.103294864
113	0xbd0fe029	-0.035125885
114	0xbbaa1341	-0.0051902835
115	0xbcf6e5dd	-0.030138904
116	0x3d9a29ad	0.0752748
117	0xbc13efc6	-0.009029334
118	0xbd1ad89d	-0.037804235
119	0x3b3be3bc	0.0028669676
120	0xbd91ed6b	-0.07125362
121	0xbd824f33	-0.06362762
122	0xbd47bd68	-0.048764616
123	0xbc8dc6fe	-0.017306801
124	0xbce52386	-0.02797104
125	0x3d489f12	0.048979826
126	0xbbbae2d7	-0.005703311
127	0x3ca966f4	0.020678975
128	0x3cd3df9c	0.025863461
129	0x3aff6d9e	0.0019487625
130	0xbcea5521	-0.028605046
131	0xbcc62848	-0.02418913
132	0xbcabfafd	-0.020993704
133	0x3c9396e3	0.018016284
134	0xbc9680a3	-0.018371886
135	0xbcbe2281	-0.023209812
136	0xbabf3e67	-0.0014590741
137	0xbbaa099f	-0.005189135
138	0x3c84f114	0.016228236
139	0x3b9dd28e	0.00481636
140	0xba00b1b2	-0.0004909291
141	0x3c0c5d80	0.008567214
142	0x3c926b88	0.01787354
143	0x3b99bf0d	0.0046919645
144	0x3cb6afec	0.022300683
145	0x3b81c130	0.0039597973
146	0x3c62db59	0.013846242
147	0xbd225058	-0.039627403
148	0x3c053eec	0.0081326775
149	0xbd803f70	-0.062621
150	0xbc4f4567	-0.012650824
151	0xbccdc2ed	-0.025117362
152	0xbbf86526	-0.007580417
153	0xbd988741	-0.07447673
154	0xbd0e63a9	-0.034763012
155	0x3b8a244f	0.004215754
156	0x3e19933a	0.14997569
157	0xbc8bb34b	-0.017053267
158	0xbd982663	-0.07429197
159	0x3cb89a5b	0.02253454
160	0xbdb4a485	-0.08820442
161	0xbd7dfde6	-0.062009715
162	0x3b14a1af	0.0022679379
163	0xbcd99b19	-0.026563214
164	0x3c56e454	0.013115961
165	0xbcb895fe	-0.02253246
166	0xbd579bc5	-0.052638788
167	0xbc46bb01	-0.012129546
168	0xbb496dfe	-0.0030735726
169	0xbd12f4b1	-0.035877887
170	0x3b9c8541	0.0047766273
171	0x3dce66be	0.1007819
172	0x3da680ad	0.08130012
173	0x3d4be4fa	0.049778916
174	0xbd4edc48	-0.050503045
175	0xbded15f1	-0.115764506
176	0x3d328ab9	0.043589327
177	0xbd78169f	-0.06056845
178	0x3c41ab20	0.011820585
179	0x3b0438f2	0.0020175544
180	0x3be087ea	0.0068521397
181	0x3b473211	0.0030394832
182	0xbbd69bb9	-0.0065493253
183	0x3c021139	0.0079386765
184	0x3b9f51fe	0.004862069
185	0xbc0d2ed3	-0.008617121
186	0x3c1e8da9	0.009677329
187	0x3c0f0ff2	0.008731829
188	0xbc089793	-0.008336919
189	0x3c75c50a	0.015000591
190	0x3a4982af	0.0007687015
191	0xbd04fe0c	-0.03246884
192	0x3dab36a6	0.08360033
193	0x3e59f226	0.21283779
194	0xbd1f17a9	-0.038840923
195	0x3c9e0871	0.019291135
196	0xbd3a06d5	-0.04541667
197	0x3d3ea72f	0.046546157
198	0xbc0ddfda	-0.008659327
199	0xbcfa597c	-0.030560248
200	0x3cfe7690	0.031062394
201	0xbca14231	-0.019684883
202	0xbc591f8e	-0.013252152
203	0xbbb70204	-0.005584957
204	0x3cc6f182	0.024285082
205	0xbd4e0492	-0.050297327
206	0x3ce14a21	0.027501168
207	0x092d9e6e	2.089861e-33
208	0x093df9b3	2.2867455e-33
209	0x094f48fd	2.4951038e-33
210	0x0907fd85	1.6369238e-33
211	0x0a5d2e8d	1.0649518e-32
212	0x0930d2a0	2.1284265e-33
213	0x08d496fe	1.2794784e-33
214	0x093e3220	2.2893987e-33
215	0x090bf19e	1.6845124e-33
216	0xbde68a4b	-0.11256846
217	0x3d8a21e2	0.06744744
218	0x3d3e4245	0.04644992
219	0x3d1f8b3b	0.03895114
220	0x3db7a3f1	0.08966816
221	0x3d88c60a	0.06678398
222	0xbcb92b36	-0.022603612
223	0xbda4af8e	-0.08041297
224	0x3d9f03be	0.07764386
225	0x3c56882d	0.01309399
226	0x3bb2d818	0.0054578893
227	0xbbaf2c96	-0.005345891
228	0x3c120a8e	0.008913649
229	0x3c248794	0.01004209
230	0xbbc179f0	-0.0059044287
231	0x3be239cc	0.0069038626
232	0x3b667c51	0.0035169313
233	0xbbbc4230	-0.005745195
234	0xbdbf8db2	-0.09353198
235	0xbd4d3662	-0.05010069
236	0xbd64cfb6	-0.05586215
237	0xbe1bb766	-0.1520668
238	0xbdcc188e	-0.09965621
239	0x3b72adda	0.0037029893
240	0x3d360861	0.044441584
241	0x3d014e4b	0.031568807
242	0xbe0e06e0	-0.1386981
243	0x3c081dfe	0.008307932
244	0xbd95f563	-0.073221944
245	0xbdae27b1	-0.08503664
246	0x3d1df1ae	0.03856056
247	0xbe10adfc	-0.1412887
248	0xbd59811e	-0.05310165
249	0x3d84af42	0.0647874
250	0xbcaacd2a	-0.020849783
251	0xbd280b32	-0.0410263
252	0x3d16899c	0.03675233
253	0x3d2c1547	0.04201248
254	0xbd4fdcc2	-0.05074764
255	0xbcfde80f	-0.030994443

e_conv2_a.bias f4 [3]
0	0x3b1c9940	0.0023895055
1	0x3e269199	0.16266479
2	0x3e2005b9	0.15627183

e_conv2_b.weight f4 [3, 32, 3, 3]
0	0x38bc61a1	8.9827234e-05
1	0x3bcc3fad	0.0062331767
2	0xbba02e37	-0.0048883217
3	0x3c80d146	0.01572479
4	0x3ca6278c	0.02028253
5	0x3c1a4210	0.009415165
6	0x3c661a6b	0.0140443845
7	0x3ca2e63e	0.019885179
8	0x3b9f666f	0.004864506
9	0xbc8d5263	-0.0172512
10	0x3bd9f588	0.006651584
11	0xbd09fcbe	-0.0336883
12	0x3c937475	0.017999867
13	0xba2afbd4	-0.00065225107
14	0xbce1f253	-0.02758137
15	0x3c35ec02	0.011103632
16	0x3ce7792b	0.02825602
17	0xbba5fce5	-0.005065548
18	0x39ab70e6	0.00032699778
19	0x3bcbcea9	0.006219704
20	0xbb0f5784	-0.0021872232
21	0x3bacbcfb	0.0052715517
22	0x3c2bc25d	0.010483352
23	0x3b3d5fcf	0.0028896218
24	0xbb0935b3	-0.0020936548
25	0x3b806f27	0.0039195004
26	0xbb90ae6e	-0.004415325
27	0x3aa6fb7d	0.0012739744
28	0x3be421c2	0.006962032
29	0x3cb753b3	0.022378778
30	0x3caeceda	0.021338869
31	0x3cb6e838	0.022327527
32	0x3d289912	0.041161604
33	0xbb125999	-0.0022331236
34	0x3ae6e51f	0.0017615891
35	0x3c6ba301	0.014382125
36	0xbc8351f7	-0.016030295
37	0xbc86b817	-0.016445203
38	0xbc7cadec	-0.015422326
39	0xbbf4162a	-0.007448931
40	0xbc24c4a1	-0.010056646
41	0xbc4d8cd9	-0.012545788
42	0xbb52c806	-0.003216268
43	0xbc0b331c	-0.008496072
44	0xbc5f9896	-0.013647219
45	0x80008920	-4.9191e-41
46	0x80008a5e	-4.9637e-41
47	0x80008a8e	-4.9704e-41
48	0x80008998	-4.936e-41
49	0x00008eb0	5.1187e-41
50	0x00008af6	4.985e-41
51	0x00008a86	4.9693e-41
52	0x0000894a	4.925e-41
53	0x00008919	4.9181e-41
54	0xbbee0002	-0.0072631845
55	0x3d424d75	0.04743715
56	0x3c0908f0	0.008363947
57	0x3d3c877c	0.046027645
58	0x3dca4e19	0.09878177
59	0x3d794e9c	0.060865983
60	0xbc8724fd	-0.01649713
61	0x3d1af7eb	0.03783409
62	0xbab589e4	-0.0013850299
63	0x3c286dd8	0.010280095
64	0x3c8f3fd9	0.0174865
65	0x3cc0e640	0.023547292
66	0x3c773263	0.015087697
67	0x3d0dfdef	0.034665998
68	0x3cba56e9	0.02274652
69	0x3bfcf8bf	0.0077200825
70	0x3d14de81	0.03634501
71	0x3d062ced	0.03275769
72	0xbbc717e1	-0.0060758446
73	0x3bd23074	0.0064144675
74	0x3d859379	0.06522269
75	0x3cf359ec	0.029705964
76	0x3cfec7d5	0.031101147
77	0x3c9bcca1	0.019018473
78	0xbc5ef72c	-0.013608735
79	0x3d7b3b9a	0.061336137
80	0xbd08b007	-0.033370998
81	0xbb9fbdb5	-0.0048749098
82	0x3d2fcb4a	0.04291848
83	0xbcd6ee31	-0.026236625
84	0x3d6b7469	0.057484064
85	0x3dd550a1	0.10415769
86	0x3d13848d	0.036015082
87	0x3c41a339	0.0118187005
88	0x3d769335	0.06019898
89	0xbc1ae850	-0.009454802
90	0x3b65276d	0.0034966127
91	0xba5c7791	-0.0008410151
92	0xbc043e1b	-0.008071448
93	0x3b6b8e93	0.0035943135
94	0x3a6b1398	0.0008967458
95	0xbb62e853	-0.003462334
96	0xbb04fbbc	-0.0020291647
97	0xbbb3a0d3	-0.005481818
98	0xbbbe92ba	-0.005815831
99	0x3ac2a24d	0.0014849395
100	0x3d02d9ef	0.03194612
101	0xbc469079	-0.012119406
102	0x3cfad51c	0.030619197
103	0x3d71f90e	0.059075408
104	0x3c959276	0.018258315
105	0xbc0481a6	-0.008087551
106	0x3cbcc9f0	0.02304551
107	0xbca7d88c	-0.020489
108	0xbc13759b	-0.009000207
109	0x3cf85f89	0.030318992
110	0xbc9fa592	-0.01948813
111	0x3c8ff69d	0.017573649
112	0x3d5a09b6	0.053231917
113	0x3bb99acb	0.0056642047
114	0xbbcb9568	-0.006212879
115	0x3d038b31	0.032115165
116	0xbc937f0a	-0.018004913
117	0xbb19dba6	-0.0023476868
118	0x3d0bc2d1	0.03412134
119	0x3c0a5d12	0.008445041
120	0x3d484324	0.048892155
121	0x3da0c7a0	0.078505754
122	0x3d583219	0.05278215
123	0x3ac17ef8	0.0014762571
124	0x3cf4024e	0.029786255
125	0x3af074be	0.0018345339
126	0x3d29beb9	0.041441653
127	0x3d4958cd	0.049156953
128	0x3ca68d82	0.020331148
129	0x3d5d6de9	0.054059897
130	0x3d7de9c1	0.061990503
131	0x3d24198c	0.040063426
132	0x3ca03596	0.019556802
133	0x3d1271f5	0.03575321
134	0x3c8401a5	0.016114065
135	0x3ce1ce51	0.0275642
136	0x3c5e4223	0.013565573
137	0x3c55ddb3	0.0130533455
138	0x3c4c22cb	0.012459467
139	0x3c52d64d	0.012868476
140	0x3c1755ee	0.009236796
141	0x3ca9698a	0.020680208
142	0x3c196cc7	0.009364313
143	0x3c245318	0.010029577
144	0xbc5af0f2	-0.01336311
145	0x3a1815c0	0.0005801581
146	0xbc03048e	-0.007996691
147	0x3c8b6c81	0.017019512
148	0x3cf95e77	0.030440552
149	0x3cb8cf0c	0.022559665
150	0xbb7ff5af	-0.003905635
151	0x3c2d86c7	0.010591215
152	0x3b30bb30	0.0026967041
153	0xbd0ed8ea	-0.034874834
154	0xbd53509c	-0.051590547
155	0xbc0f74a4	-0.008755837
156	0x3bfb0d7c	0.0076615196
157	0x3d81fa81	0.06346608
158	0x3cb204cb	0.021730801
159	0x3c64e54d	0.013970685
160	0x3cef0016	0.029174846
161	0xb9cf37c1	-0.00039523657
162	0xbbd91661	-0.006624982
163	0x3bb9e257	0.0056727338
164	0xbc31e060	-0.010856718
165	0x3cd1160e	0.025523212
166	0x3d132cfe	0.03593158
167	0x3cae037f	0.021241901
168	0x3a83bf8f	0.0010051596
169	0x3c594583	0.013261202
170	0xbb98841d	-0.004654421
171	0x3adbd504	0.0016771858
172	0xbc42dcb8	-0.011893444
173	0x3c0aa19b	0.008461381
174	0x3c2a1e8d	0.01038326
175	0xbc9fc684	-0.01950384
176	0xbaea8be9	-0.001789448
177	0xbb29eb89	-0.0025927743
178	0xbca01e6d	-0.019545758
179	0xbaf26e64	-0.0018496034
180	0xbb18dc19	-0.0023324548
181	0x3c6d033c	0.014466103
182	0x3c124e57	0.0089298105
183	0x3ba73caa	0.0051036673
184	0x3ca43c94	0.020048417
185	0x3c7e4bc0	0.01552099
186	0xbbe260e1	-0.0069085215
187	0x3bf501e3	0.0074770316
188	0x3a95b8e5	0.0011422901
189	0xbbf92d37	-0.007604267
190	0xbd0945f8	-0.033513993
191	0xbd041f08	-0.032256156
192	0xbc830df8	-0.015997872
193	0xbc480a2d	-0.012209457
194	0xbcd6993b	-0.026196113
195	0xbcd8fd08	-0.026487842
196	0xbcf3a417	-0.02974133
197	0xbcbdf6bb	-0.02318894
198	0x3b2a0342	0.0025941883
199	0x3c7a821e	0.015289811
200	0xbb956063	-0.0045586093
201	0x3b8c174d	0.0042752386
202	0x3c95941f	0.018259106
203	0xb9241e25	-0.00015651489
204	0x3b9dddae	0.004817686
205	0x3c948c26	0.018133234
206	0xb91fe5fa	-0.00015249095
207	0x00008a3a	4.9586e-41
208	0x000089cd	4.9434e-41
209	0x00008a84	4.969e-41
210	0x80008976	-4.9312e-41
211	0x8000890b	-4.9162e-41
212	0x00008b4f	4.9975e-41
213	0x80008939	-4.9226e-41
214	0x00008a41	4.9596e-41
215	0x000088e3	4.9106e-41
216	0x3b2cdbaa	0.0026376047
217	0x3c897e20	0.016783774
218	0x3d430059	0.047607753
219	0xbc1b65fc	-0.009484764
220	0xbb6656cc	-0.003514695
221	0x3d19e180	0.03756857
222	0x3ba27d6e	0.0049588
223	0x3c4822db	0.012215341
224	0xbc3ac4e4	-0.011399481
225	0x3c4eca4c	0.0126214735
226	0x3c3eeb4c	0.011652779
227	0x3c0b5ae5	0.008505558
228	0x3c343ff7	0.0110015785
229	0x3c2b7cfc	0.01046681
230	0x3c03641a	0.008019472
231	0x3c37a581	0.011208893
232	0x3c2f6ef9	0.01070761
233	0x3c1b8293	0.009491581
234	0x3cec19c0	0.028820872
235	0x3d120746	0.035651468
236	0x3c9aad6a	0.018881518
237	0x3d2fecc9	0.042950425
238	0x3d9e435e	0.07727693
239	0x3ce4fc36	0.027952295
240	0xbc464f8d	-0.012103927
241	0x3c8d154b	0.017222067
242	0x3c933734	0.017970659
243	0x3d069821	0.032859925
244	0x3ce05d45	0.027388224
245	0xbc0e48cb	-0.008684347
246	0xbd3af839	-0.04564688
247	0x3d454149	0.048157964
248	0x3c81e894	0.015857972
249	0x3cac09df	0.0210008
250	0x3cb04da1	0.021521391
251	0x3cae1b1b	0.02125316
252	0x3ccd85e5	0.02508826
253	0x3ce063b8	0.0273913
254	0x3bd2c013	0.0064315884
255	0x3d24b68f	0.040213164

e_conv2_b.bias f4 [3]
0	0x3dd7c0ad	0.10534797
1	0xbc9dea58	-0.019276783
2	0x3d585148	0.05281189
