trained_model.pth (torch, 288044 bytes, 42 tensors)

e_conv1.weight f4 [32, 3, 3, 3]
0	0x3dada73a	0.084791616
1	0xbdd4a18d	-0.10382376
2	0xbdf60ca8	-0.12014133
3	0x3e00b0aa	0.12567392
4	0x3ede0a82	0.43367392
5	0x3e800e1e	0.2501077
6	0xbf010e3c	-0.50412345
7	0x3e6aa078	0.22912776
8	0xbf02a7c0	-0.51037216
9	0xbe3e5694	-0.18587714
10	0xbdec8acd	-0.11549912
11	0x3d028159	0.031861637
12	0xbe0893f3	-0.13337688
13	0xbe2f5de7	-0.17125665
14	0xbea7dc92	-0.3278547
15	0x3dcb5c96	0.09929769
16	0xbe2f7e4f	-0.17138027
17	0x3d7651c8	0.060136586
18	0x3a8fe220	0.0010977425
19	0x3e353542	0.17696097
20	0x3e0029bc	0.1251592
21	0x3d4c9133	0.04994316
22	0x3d2871bb	0.041124087
23	0xbe1d382e	-0.15353462
24	0x3e17b414	0.14814788
25	0x3e681c1a	0.2266697
26	0x3efd51b1	0.49476388
27	0x3d6117ee	0.05495446
28	0x3eae53a4	0.34048188
29	0x3da3bf51	0.07995475
30	0x3eaa3585	0.33243957
31	0xbd38908c	-0.045059726
32	0x3f1a1020	0.60180855
33	0x3e506f6f	0.20355009
34	0x3e7f973d	0.24960037
35	0x3ea2cd9c	0.31797493
36	0x3e5f9332	0.21833494
37	0xbe163420	-0.14668322
38	0x3dff30bf	0.124604695
39	0x3bce7fcc	0.0063018557
40	0x3e43f99f	0.19138192
41	0xbe2b98a8	-0.16757452
42	0x3eae628f	0.3405957
43	0xbea135c6	-0.31486338
44	0xbc80049e	-0.015627202
45	0x3ead073b	0.3379458
46	0x3dce83f7	0.10083764
47	0x3e62cf1d	0.2214932
48	0x3e0572cc	0.13032073
49	0xbe80edea	-0.25181514
50	0x3bafc275	0.0053637573
51	0xbeacb255	-0.33729807
52	0xbe610611	-0.2197497
53	0x3e0ba53f	0.13637255
54	0xbd9efa5d	-0.07762597
55	0xbeeec04a	-0.4663108
56	0xba5ce00b	-0.0008425719
57	0xbf17c326	-0.5928215
58	0x3e382687	0.17983447
59	0xbbe9baa4	-0.007132845
60	0xbe2a7c85	-0.16649063
61	0xbd81a669	-0.06330568
62	0x3ecdd6bc	0.40202892
63	0xbc863552	-0.016382847
64	0xbf05714f	-0.5212602
65	0x3dff27e2	0.12458779
66	0xbd4d4bab	-0.05012099
67	0x3e931675	0.2872807
68	0x3f049d78	0.5180278
69	0x3decb780	0.11558437
70	0x3e66981e	0.22518966
71	0xbd7af557	-0.06126913
72	0xbf0ef053	-0.55835456
73	0x3e6ceebe	0.23137948
74	0x3e2686e9	0.16262402
75	0x3f25fe74	0.6484139
76	0x3d09ee34	0.033674434
77	0xbdab80ef	-0.083742015
78	0x3e404c9c	0.18779224
79	0x3e912017	0.28344795
80	0x3e5f1c7d	0.21788211
81	0xbd9ec001	-0.077514656
82	0xbeb4653b	-0.35233483
83	0x3e08bb15	0.13352616
84	0xbeaad1a6	-0.33363074
85	0xbdd7911b	-0.105257235
86	0x3e83fafd	0.25777426
87	0x3d8f4781	0.0699606
88	0x3e817244	0.2528249
89	0x3ce4e0e8	0.027939275
90	0xbc517915	-0.012785216
91	0x3e8fefc2	0.28112608
92	0xbdb71426	-0.0893939
93	0x3f04c681	0.5186539
94	0xbe33a243	-0.17542367
95	0xbd9bec42	-0.07613422
96	0x3d85aeee	0.06527506
97	0xbd865523	-0.06559207
98	0x3d0abf4e	0.03387385
99	0x3dd10c6b	0.10207447
100	0x3ed9c581	0.42533496
101	0xbd07f53a	-0.03319285
102	0x3d96e7db	0.07368442
103	0xbaaf339d	-0.0013366822
104	0x3e6ceafe	0.23136517
105	0x3e46cc46	0.19413862
106	0xbe40b2ac	-0.18818158
107	0x3bea8a96	0.007157634
108	0xbded7b88	-0.11595827
109	0x3e529760	0.20565557
110	0x3d83acad	0.0642942
111	0x3dd8d004	0.10586551
112	0xbdd72c6d	-0.105065204
113	0xbea80024	-0.32812607
114	0x3d91117f	0.07083415
115	0x3ddd32ef	0.108007304
116	0xbdf20323	-0.118170045
117	0xbb9e0228	-0.0048220344
118	0x3ea6cfa2	0.32580286
119	0x3e3e6302	0.18592456
120	0xbe5ec8b2	-0.21756247
121	0xbe2d604a	-0.16931263
122	0x3e94e205	0.2907869
123	0x3e063e74	0.13109761
124	0xbea353d3	-0.3189989
125	0x3e828142	0.2548924
126	0xbdbb1bfc	-0.09136197
127	0xbda698e0	-0.08134627
128	0xbe7f99ab	-0.24960963
129	0xbe28bad9	-0.16477527
130	0xbe3f2565	-0.18666609
131	0x3e4f0859	0.20218028
132	0xbebc4628	-0.36772275
133	0x3ebd2456	0.36941785
134	0x3ea904b5	0.33011404
135	0xbcebe7b3	-0.028797006
136	0x3e3c9c38	0.18418968
137	0x3dba36aa	0.090924576
138	0xbe162fb4	-0.14666635
139	0xbe54fe6d	-0.2080018
140	0xbdd2a166	-0.102846906
141	0x3d8ce0e3	0.06878831
142	0x3e3b413a	0.182866
143	0x3ea068f2	0.31330067
144	0x3d1a71f1	0.03770632
145	0xbeedaec6	-0.46422404
146	0xbf005327	-0.5012688
147	0x3e3912e1	0.18073608
148	0xbed34c3a	-0.41269094
149	0x3eb3c16a	0.351085
150	0x3f04b0ac	0.5183208
151	0x3e43bd1b	0.19115107
152	0x3e527c83	0.2055531
153	0x3e312b06	0.17301568
154	0xbe5bb934	-0.21457368
155	0xbd765ca1	-0.06014693
156	0xbe11bb34	-0.14231569
157	0x3dd3673a	0.10322423
158	0x3e76bedb	0.24096243
159	0xbe3b3531	-0.1828201
160	0xbb9a43a7	-0.004707772
161	0xbd251ea5	-0.040312428
162	0xbe56a8d5	-0.20962842
163	0x3e068f07	0.13140498
164	0xbe875615	-0.26432863
165	0x3ea1e7e1	0.31622222
166	0x3e825495	0.25455156
167	0x3f66c74c	0.9014785
168	0xbeb15c6f	-0.34640834
169	0x3ece92ae	0.40346283
170	0xbedc144f	-0.42984244
171	0xbde73e6f	-0.11291205
172	0x3e426085	0.18982132
173	0x3e9a1bdf	0.3009939
174	0xbea4c05d	-0.32178012
175	0x3e937d96	0.28806752
176	0xbef34ca9	-0.47519425
177	0xbe0558c9	-0.1302215
178	0xbd277738	-0.04088518
179	0x3d1f79d3	0.03893454
180	0x3e91d61a	0.2848366
181	0x3e1bc0f4	0.15210325
182	0x3e96a929	0.29425934
183	0xbe0204f8	-0.12697208
184	0xbe6be903	-0.23038106
185	0xbe9896d3	-0.2980257
186	0xbe168451	-0.14698912
187	0x3ef4551b	0.4772118
188	0x3e1c053e	0.15236375
189	0x3e7d81a1	0.24756481
190	0x3e742c9b	0.2384514
191	0xbec4827e	-0.38380808
192	0xbcfa2bd3	-0.030538475
193	0x3dc722c3	0.09723427
194	0x3dad0ae5	0.084493436
195	0x3ed52e9b	0.4163712
196	0x3d901101	0.07034493
197	0x3ed25cb0	0.4108634
198	0xbc71debe	-0.0147625785
199	0xbd4fe7c2	-0.05075813
200	0xbe21ecb1	-0.15812947
201	0xbb1db991	-0.0024066905
202	0xbc4283aa	-0.0118722115
203	0x3ee8ec2f	0.45492694
204	0xbe91837c	-0.28420627
205	0xbe7836fd	-0.24239726
206	0x3e0605c2	0.13088134
207	0xbc32619a	-0.010887528
208	0x3eee19f5	0.4650418
209	0xbf0aff08	-0.54295397
210	0x3eb65599	0.3561218
211	0x3ed3a855	0.41339365
212	0xbf6669f3	-0.90005416
213	0x3e0c32c2	0.13691238
214	0x3d876e15	0.06612793
215	0x3dbbae2b	0.09164079
216	0x3eb1fc59	0.34762838
217	0xbe78510e	-0.2424967
218	0xbe38b11f	-0.18036316
219	0xbead6680	-0.33867264
220	0x3daeeffe	0.085418686
221	0xbe2b7d1a	-0.16746941
222	0x3e850f0e	0.25988048
223	0xbf229802	-0.63513196
224	0x3e7c1a8a	0.24619499
225	0xbda11af2	-0.078664675
226	0x3ea1d9aa	0.31611377
227	0x3e879547	0.26481077
228	0xbe693434	-0.2277382
229	0x3da8f664	0.0825012
230	0x3e73ffc2	0.23828033
231	0x3dfff6cb	0.12498244
232	0x3d1e4add	0.038645614
233	0x3ef74e57	0.48301956
234	0x3ebf0420	0.37307835
235	0x3edf5680	0.43620682
236	0x3e65853f	0.2241411
237	0xbed4e33e	-0.41579622
238	0x3ec74d78	0.3892629
239	0x3d88052b	0.06641611
240	0x3d56ee2b	0.05247323
241	0x3e8d125c	0.2755307
242	0xbd87e430	-0.0663532
243	0x3eb0c0f3	0.3452221
244	0xbe63bb9d	-0.22239538
245	0xbeb65643	-0.35612687
246	0x3db1cb13	0.086813115
247	0x3dbe3717	0.09287851
248	0x3d0965a9	0.033544216
249	0x3de702a5	0.11279801
250	0x3e0a5f27	0.1351286
251	0xbe0e7d5d	-0.1391501
252	0x3e2c84c8	0.16847527
253	0xbe669a0f	-0.22519706
254	0x3e99b3f0	0.30020094
255	0x3d81fb1b	0.06346723

e_conv1.bias f4 [32]
0	0x3e49b004	0.19696051
1	0xbc943f92	-0.018096719
2	0x3db0aa15	0.086261906
3	0xbe16cd3e	-0.14726731
4	0xbdac38de	-0.08409284
5	0x3daf28b3	0.08552685
6	0xbd879725	-0.066206254
7	0x3db8eb78	0.09029287
8	0xbd868ae4	-0.0656946
9	0x3e1d517b	0.15363114
10	0x3e52555a	0.20540372
11	0x3cf6afd8	0.030113146
12	0xbc345c01	-0.011008264
13	0x3df133b7	0.11777442
14	0xbbdb3c00	-0.006690502
15	0xbbf29ba9	-0.00740381
16	0x3d3cf37c	0.046130642
17	0xbda26b66	-0.07930641
18	0x3df5317f	0.11972331
19	0x3e594621	0.21218158
20	0x3cb3ccbb	0.021948209
21	0xbe4d2ab8	-0.20035827
22	0xbda579e5	-0.0807989
23	0x3e47e635	0.19521411
24	0x3e7cf9f5	0.24704726
25	0x3e2eae54	0.17058688
26	0x3de1c3e2	0.1102369
27	0xbd9da868	-0.076981366
28	0xbe4b5ebd	-0.19860359
29	0x3d6a464d	0.05719595
30	0x3e64d690	0.22347474
31	0xbbdf1386	-0.0068077473

e_conv1_a.weight f4 [3, 32, 3, 3]
0	0x3c8d3163	0.017235463
1	0x3cfe3045	0.031028876
2	0x3e03972f	0.1285064
3	0x3b907482	0.00440842
4	0x3d9895f3	0.074504755
5	0x3d28632e	0.04111021
6	0xbde60abc	-0.11232516
7	0x3e442f9a	0.19158784
8	0x3e0f4517	0.139912
9	0x3df1654b	0.11786898
10	0x3d3d3b99	0.046199415
11	0x3e249e60	0.1607604
12	0x3c3021c9	0.0107502425
13	0x3dd074a2	0.10178496
14	0xbc224fe1	-0.00990674
15	0x3d672cd4	0.056439236
16	0xbc8c1888	-0.017101541
17	0xbd0f1b78	-0.034938306
18	0x3d9e194f	0.07719671
19	0xbdd2205b	-0.102600776
20	0x3d25cae7	0.040476706
21	0xbdd128c6	-0.10212855
22	0x3d60fd88	0.054929286
23	0xbc059c5b	-0.008154954
24	0x3df3b394	0.11899486
25	0x3db34645	0.08753637
26	0xbd0499c1	-0.032373194
27	0xbdce549b	-0.10074731
28	0xbcd5d194	-0.026100911
29	0x3d8a69cd	0.06758461
30	0x3d97bd9b	0.07409211
31	0xbd555a05	-0.052087802
32	0x3b489428	0.0030605886
33	0x3c8fdef4	0.017562367
34	0xbe3351f2	-0.17511728
35	0xbd1b32bd	-0.037890185
36	0xbd9cb183	-0.07651045
37	0xbd19067b	-0.037359696
38	0xbcf44a54	-0.029820599
39	0xbcacde57	-0.021102114
40	0x3e017ff1	0.12646462
41	0xbce10aa5	-0.027470896
42	0x3e261163	0.1621757
43	0x3d4d07a5	0.05005612
44	0x3cdf6571	0.02727005
45	0x3c089c38	0.008338027
46	0x3d11b707	0.03557494
47	0xbd059f30	-0.032622516
48	0x3d45ffa4	0.0483395
49	0xbdafe30c	-0.08588228
50	0x3e58003b	0.21093838
51	0x3d2fc193	0.042909216
52	0x3c4f1f39	0.012641721
53	0x3dc20ce6	0.094751164
54	0x3c5485e8	0.012971379
55	0x3c458ed7	0.012057981
56	0x3e3eb596	0.18623957
57	0xbd038fb3	-0.032119464
58	0xbd0ec162	-0.034852393
59	0xbe03a1e2	-0.12854722
60	0xbd9718d8	-0.073777854
61	0x3dff97a0	0.12480092
62	0x3d4d672f	0.05014723
63	0x3d936855	0.07197634
64	0x3cb9e62f	0.022692768
65	0x3e0bc458	0.13649118
66	0x3d362db7	0.04447719
67	0x3d0cb7a5	0.034354825
68	0xbce7195a	-0.02821033
69	0x3c51e65e	0.0128112715
70	0xbceb306a	-0.028709609
71	0xbd85aba4	-0.065268785
72	0x3d892ccc	0.066979975
73	0xbd54c49d	-0.051945318
74	0x3cb715df	0.022349296
75	0x3b7cd2a4	0.00385777
76	0xbd0ad668	-0.03389588
77	0xbcd6d0c9	-0.026222603
78	0xbd80e4b6	-0.06293623
79	0x3d436e52	0.04771263
80	0x3da88519	0.08228511
81	0xbcb7b6bb	-0.022426
82	0x3d9b2f61	0.07577396
83	0x3bf5328f	0.0074828337
84	0xbd7a074a	-0.061042108
85	0x3e1d53c5	0.15363987
86	0x3d37b341	0.044848684
87	0xbd0bb9f4	-0.034112886
88	0x3e13e66d	0.14443369
89	0x3d0eb5bc	0.034841284
90	0x3e00c1d3	0.12573938
91	0x3db10b4d	0.086447336
92	0xbc4f79cb	-0.012663315
93	0xbc2af3c0	-0.010434091
94	0x3d859467	0.06522446
95	0x3c2c4adb	0.010515894
96	0xbd82b805	-0.06382755
97	0xbdb7e4c8	-0.089791834
98	0x3d868f77	0.065703325
99	0xbc7cbb8b	-0.015425573
100	0xbcada7ea	-0.021198232
101	0x3b3f0d57	0.0029152238
102	0x3e1adfb6	0.15124401
103	0x3d1297be	0.035789244
104	0xbc3ef92e	-0.011656089
105	0xbd61e8a7	-0.055153515
106	0xbd2a5097	-0.041580763
107	0xbe17a3d6	-0.14808592
108	0xbdceb0e5	-0.10092334
109	0x3d57b4a3	0.052662503
110	0x3dc953cf	0.09830438
111	0x3dc13112	0.094331875
112	0xbdba8372	-0.091071025
113	0xbd6699a7	-0.056298878
114	0x3d4cd3f2	0.050006814
115	0x3e2ea5b6	0.17055401
116	0xbcfa0e93	-0.030524528
117	0x3cb92200	0.02259922
118	0xbd441798	-0.047874063
119	0xbc44f667	-0.0120216375
120	0xbd834497	-0.06409567
121	0x3df728ec	0.12068352
122	0xbd213504	-0.0393572
123	0x3d9e4566	0.077280805
124	0xbc87c02d	-0.016571129
125	0xbcee0e5e	-0.029059585
126	0xbd719b05	-0.05898573
127	0xbbc2a4b6	-0.005940045
128	0x3c3bcbf5	0.011462201
129	0xbd1e5a3b	-0.03866027
130	0x3dc72372	0.097235575
131	0x3d660ee8	0.05616656
132	0xbc34735c	-0.011013832
133	0x3e222b84	0.15836912
134	0xbd8b6d81	-0.068079956
135	0xbd90141a	-0.07035084
136	0xbd4df16a	-0.05027906
137	0xbb48c607	-0.0030635612
138	0x3d68fb9d	0.056880582
139	0xbd1b1a19	-0.037866686
140	0x3d6138c3	0.054985773
141	0x3e02c50b	0.12770478
142	0x3cc44606	0.023959171
143	0xbdd5b058	-0.104340255
144	0xbc674afc	-0.014116999
145	0xbd3349f2	-0.04377169
146	0x3d37cb23	0.04487146
147	0xbde28af1	-0.11061657
148	0x3c874abc	0.016515128
149	0x3c8d2d86	0.017233621
150	0xbd372cb8	-0.04472038
151	0x3d9d1d77	0.076716356
152	0xbd6d847f	-0.057987686
153	0x3e1e3372	0.15449312
154	0x3d4a3504	0.049366966
155	0xbcdc51d2	-0.026894484
156	0x3df7fff6	0.121093675
157	0x3deb83d5	0.11499754
158	0xbc04eede	-0.008113591
159	0x3e03fc6a	0.12889257
160	0xbcb28203	-0.02179051
161	0xbbdf9a3d	-0.0068238066
162	0x3da26c7e	0.079308495
163	0x3d5bf100	0.053696632
164	0x3db084b3	0.0861906
165	0x3cd781f2	0.02630708
166	0xbd5cb8f0	-0.053887308
167	0x3dad8b92	0.084738865
168	0xbcc71ed4	-0.024306692
169	0xbca58928	-0.020207003
170	0x3d7949d4	0.060861424
171	0x3c506d7b	0.012721415
172	0xbdcf9628	-0.10136062
173	0x3cd643f0	0.026155442
174	0x3c35c0c7	0.011093325
175	0xbd78c769	-0.060737047
176	0xbb8ace29	-0.004236002
177	0x3e8106dd	0.2520055
178	0x3d1caca6	0.038250588
179	0x3e0558d8	0.13022172
180	0xbdc7fcf2	-0.09765042
181	0xbe024e74	-0.1272524
182	0xbcff4e97	-0.031165404
183	0xbc6f947e	-0.014622806
184	0xbc2cb48f	-0.010541095
185	0xbc8a83ac	-0.01690849
186	0x3e5f11e6	0.21784171
187	0x3d9e1f93	0.07720866
188	0x3becb7aa	0.007224043
189	0x3d79ef22	0.06101907
190	0x3da4e2a4	0.08051041
191	0xbe5b672f	-0.2142608
192	0xbd838202	-0.064212814
193	0xbd62021b	-0.05517779
194	0x3cfad459	0.030618833
195	0x3d9b2dbe	0.07577084
196	0xbd234c7d	-0.039867867
197	0x3ccd9b25	0.025098393
198	0xbb54b09a	-0.0032453896
199	0x3c691544	0.0142262615
200	0xbd5d86fe	-0.054083817
201	0xbc91abcb	-0.017782113
202	0x3d9c541f	0.07633232
203	0xba500138	-0.0007934752
204	0x3d7e3688	0.062063724
205	0x3cd1d2ac	0.025613151
206	0x3d0b5e29	0.034025345
207	0x3dd2f47b	0.10300537
208	0xbbc9f279	-0.006162938
209	0x3d875515	0.06608025
210	0xbe11d44a	-0.14241138
211	0x3df64f91	0.12026895
212	0xbce38a42	-0.027775887
213	0xbdac57a4	-0.084151536
214	0x3d0aa967	0.03385296
215	0x3d94d99f	0.072680704
216	0x3e485687	0.19564258
217	0xbcf3c99c	-0.02975922
218	0x3e5a3902	0.21310809
219	0x3cc18a0e	0.0236254
220	0x3e25d34f	0.16193889
221	0x3daa781b	0.083236896
222	0x3da3508b	0.07974347
223	0x3ddc2f2e	0.10751186
224	0x3ccdbabf	0.025113462
225	0x3c9a4e3a	0.01883613
226	0x3d12a06e	0.03579753
227	0x3de4a382	0.11163999
228	0x3e40fb07	0.1884576
229	0xbcc2f92a	-0.023800451
230	0x3dde58cd	0.10856781
231	0xbba5077b	-0.005036292
232	0x3db9bef4	0.090696245
233	0x3e18337a	0.14863387
234	0x3d90d1b0	0.07071245
235	0x3d6794f3	0.056538533
236	0x3e1d6bf2	0.15373209
237	0x3e576d26	0.2103773
238	0x3e0e094d	0.13870735
239	0x3aec39d5	0.0018022606
240	0x3dc9e42d	0.09857974
241	0xbda859e9	-0.08220274
242	0xbd1ec4aa	-0.038761772
243	0x3a110b83	0.00055330264
244	0xb31dc7bf	-3.673608e-08
245	0x2d9af1c0	1.7615132e-11
246	0xb7afe483	-2.0968035e-05
247	0x8bcd28f8	-7.902477e-32
248	0x3b75eac0	0.0037523955
249	0xb82ee624	-4.1699168e-05
250	0x36245b83	2.4491171e-06
251	0x09dad1e2	5.2678964e-33
252	0xbb8e53b7	-0.0043434757
253	0xbd140313	-0.036135744
254	0x3d1d599b	0.038415533
255	0x3d04516d	0.032304216

e_conv1_a.bias f4 [3]
0	0x3dbfa3f6	0.09357445
1	0x3d83cc39	0.06435437
2	0x3d1daefe	0.038496964

e_conv1_b.weight f4 [3, 32, 3, 3]
0	0x3d82ecc5	0.063928165
1	0x3cf34c0a	0.029699344
2	0x3daed401	0.0853653
3	0xbd2e131f	-0.042498704
4	0x3df325e4	0.118724614
5	0x3d1cb7dd	0.038261283
6	0xbd2a2e1e	-0.041547887
7	0x3e1f4f5e	0.1555762
8	0xbe1cac59	-0.1530012
9	0xbe3476b8	-0.17623413
10	0x3e0f336e	0.13984463
11	0x3d4054d8	0.046955913
12	0x3db78f83	0.089629196
13	0x3bc771e9	0.006086577
14	0x3d705580	0.05867529
15	0x3cd7b0e6	0.026329469
16	0x3d39d22b	0.045366447
17	0xbd0a620a	-0.033784904
18	0xbb2fb206	-0.002680899
19	0xbd92d010	-0.07168591
20	0x3dfb7200	0.12277603
21	0x3cb4e5c2	0.022082213
22	0xbd186291	-0.037203375
23	0xbdacb34e	-0.08432637
24	0xbd91e744	-0.071241885
25	0xbd045495	-0.032307226
26	0xbcdc699d	-0.02690583
27	0x3bfeb874	0.0077734534
28	0x3d53f1d1	0.051744286
29	0x3d8ff44a	0.07029016
30	0xbdc2757a	-0.09495063
31	0x3d8bf28a	0.0683337
32	0x3c06332a	0.008190909
33	0xbe15c114	-0.14624435
34	0x3c4a8faa	0.012363354
35	0x3ded5afc	0.115896195
36	0x3c30d1a8	0.010792173
37	0x3d393eac	0.045225784
38	0x3c9a9767	0.018871022
39	0xbd7cf07b	-0.061752778
40	0x3d7a84e4	0.06116189
41	0x3d97dc6a	0.074150875
42	0xbcd31062	-0.025764648
43	0xbb9c6825	-0.004773157
44	0xbe09fd9a	-0.13475648
45	0x3d95ee34	0.07320824
46	0xbd363b1d	-0.04448997
47	0xbc681cd0	-0.014167026
48	0x3c8639bc	0.016384952
49	0x3da9129a	0.08255501
50	0x3d0fa126	0.035065793
51	0x3cd713a4	0.026254483
52	0x3c217355	0.009854157
53	0x3c755d8d	0.0149759175
54	0xbd38d0d7	-0.04512104
55	0x3d8b947b	0.0681543
56	0xbd52f358	-0.051501602
57	0xbd969258	-0.073521316
58	0x3cfcf917	0.030880494
59	0x3e42fd83	0.1904202
60	0x3d33825b	0.04382549
61	0xbd658f71	-0.056045
62	0xbda29f10	-0.07940495
63	0xbd88c801	-0.06678773
64	0xbd01fa44	-0.031732813
65	0x3d089e14	0.03335388
66	0x3d1ee288	0.038790256
67	0x3d4b48fc	0.04963015
68	0x3ddef6f1	0.10886944
69	0xbdac9f12	-0.08428778
70	0xbcd33754	-0.025783218
71	0x3c952f08	0.018210903
72	0xbcdc6cea	-0.026907403
73	0x3dd7dbd0	0.10539973
74	0xbdf53525	-0.11973027
75	0x3d86e319	0.06586284
76	0xbdb58c16	-0.0886461
77	0xbddc0248	-0.107426226
78	0x3da2eb55	0.07955042
79	0x3c85a5cc	0.01631441
80	0x3dd5c31c	0.10437605
81	0x3d936db6	0.0719866
82	0xbd348460	-0.044071555
83	0xbce9cba3	-0.028539484
84	0x3bfa7446	0.0076432554
85	0x3cdac543	0.02670539
86	0x3b010b54	0.001969059
87	0xbd5cf7ae	-0.053947143
88	0x3c3a2be3	0.0113630025
89	0x3d39df70	0.045379102
90	0xbdcd4483	-0.10022833
91	0x3cef7abb	0.029233327
92	0xbda17381	-0.07883359
93	0x3d94ae14	0.07259765
94	0x3e08c979	0.13358106
95	0x3d580d90	0.05274731
96	0xbd858ea5	-0.06521348
97	0xbc16ba3b	-0.009199674
98	0xbd4a26b3	-0.049353313
99	0xbdfbcc9c	-0.122948855
100	0xbda8c7e8	-0.08241254
101	0x3bba75b2	0.0056903
102	0xbc948057	-0.018127603
103	0x3ab2c2c4	0.0013638367
104	0xbb162f18	-0.0022916254
105	0x3ccce311	0.025010617
106	0x3c4923cb	0.0122766
107	0xbcccdfc9	-0.025009053
108	0x3e2e35eb	0.17012756
109	0xbc9a0b7c	-0.018804304
110	0x3dce1809	0.10063178
111	0xbd64f697	-0.05589923
112	0xbd5b0f6e	-0.05348151
113	0xbd7aab6e	-0.061198644
114	0xbd8b51b5	-0.06802694
115	0xbcb6c0cb	-0.022308728
116	0x3ccc0e14	0.024909057
117	0xbd7cc309	-0.061709438
118	0x3c1893b4	0.009312559
119	0xbd4acb42	-0.049510248
120	0xbd207671	-0.039175455
121	0x3e159e6f	0.14611219
122	0x3d33d02e	0.043899707
123	0x3dba8fef	0.091094844
124	0x3cfdc71d	0.030978734
125	0x3d5ebaa8	0.054377228
126	0xbda5ad4f	-0.080896966
127	0xbd8fce5e	-0.07021783
128	0x3d0019ee	0.03127473
129	0x3df27030	0.11837804
130	0xbc2144e7	-0.009843088
131	0xbd6eb7ce	-0.05828076
132	0x3d81c140	0.06335688
133	0xbd98da73	-0.07463541
134	0x3d937f4e	0.07202016
135	0x3ccae50e	0.024767425
136	0xbdad4843	-0.084610485
137	0xbcafd6e6	-0.021464776
138	0x3dd6010b	0.10449418
139	0x3d117bac	0.035518333
140	0xbe088cb4	-0.13334924
141	0x3da52fed	0.08065782
142	0xbdf4cc81	-0.119530685
143	0xbe40bf30	-0.18822932
144	0xbd543df2	-0.05181689
145	0x3cdb2edf	0.026755748
146	0xbd4a3257	-0.049364414
147	0x3c705545	0.014668767
148	0x3e12f8cd	0.14352722
149	0xbcbab794	-0.022792615
150	0x3da68c99	0.081322856
151	0xbe2f935b	-0.17146055
152	0x3dafd676	0.08585827
153	0xbd94bd51	-0.07262672
154	0x3e017907	0.12643825
155	0x3d75abc2	0.059978254
156	0x3d46bb8b	0.0485187
157	0x3e2ebc27	0.17063962
158	0x3d86c3a0	0.06580281
159	0xbc7c57ce	-0.015401794
160	0x3de5c9a4	0.112201005
161	0x3d2b2956	0.041787468
162	0x3b9cad19	0.004781377
163	0x3c987353	0.018609678
164	0x3d269d93	0.04067762
165	0x3de72768	0.11286813
166	0x3cafbf0d	0.021453405
167	0xbe0e9f1e	-0.13927886
168	0x3d922bd8	0.07137269
169	0x3b2e95fe	0.0026639695
170	0x3ca0c7e1	0.01962656
171	0x3e063c92	0.13109043
172	0x3d42b5c1	0.047536615
173	0xbdbf6dbc	-0.09347102
174	0x3daf2a5d	0.08553002
175	0x3e2c2c59	0.16813792
176	0xb9ef7574	-0.00045673142
177	0xbd46ea3b	-0.048563223
178	0x3d770846	0.060310625
179	0xbdc09e2b	-0.09405168
180	0xbca497d8	-0.020091936
181	0xbd4b6b93	-0.049663138
182	0xbd0dd55b	-0.0346273
183	0x3cb9531b	0.022622636
184	0xbdb65024	-0.08902004
185	0xbc6f0ff3	-0.014591205
186	0xbd93a6e1	-0.07209564
187	0x3d46e7b7	0.048560824
188	0xbd880a78	-0.06642622
189	0xbbd31618	-0.0064418428
190	0xbe373406	-0.17890939
191	0x3c62e2fd	0.013848064
192	0xbbdc6bfa	-0.006726739
193	0x3d975490	0.07389176
194	0x3dd4ccfc	0.1039066
195	0x3d3d6302	0.046237
196	0x3d48187b	0.04885147
197	0xbcc31ea3	-0.02381832
198	0xbdf0d66b	-0.11759647
199	0xbcc0b6e6	-0.023524713
200	0x3d1dc929	0.03852192
201	0xbd5c9a66	-0.053858183
202	0xbb8633f7	-0.00409555
203	0x3e2a4523	0.16627936
204	0x3d95c369	0.07312662
205	0xbce8a563	-0.028399175
206	0x3d5f01ca	0.054445066
207	0x3db7b507	0.08970075
208	0x3e0cd79e	0.13754126
209	0x3cb703a1	0.022340598
210	0x3d9b93cc	0.075965494
211	0x3db7499d	0.089495875
212	0xbe399b78	-0.18125713
213	0xbdc4ff51	-0.0961901
214	0x3e1c0972	0.15237978
215	0xbc1ef6b0	-0.00970237
216	0x3cdfbcaa	0.027311642
217	0x3da8e220	0.08246255
218	0x3d367660	0.044546485
219	0x3dd07dc2	0.101802364
220	0xbd254a8c	-0.040354297
221	0x3e206e30	0.15667033
222	0x3d91662f	0.07099568
223	0x3d877858	0.066147506
224	0x3e0d8142	0.13818839
225	0xbdc40561	-0.095713384
226	0xbd1238b5	-0.03569861
227	0x3c823c0c	0.015897773
228	0xbdbe000e	-0.09277354
229	0xbce0e2af	-0.027451841
230	0xbd73b1e2	-0.059495814
231	0xbd88fa2b	-0.06688341
232	0x3b287440	0.0025704056
233	0x3d4cac16	0.0499688
234	0x3d140ec8	0.03614691
235	0xbe351710	-0.17684579
236	0x3d9cfd37	0.076654844
237	0x3a946751	0.0011322295
238	0x3d0183ea	0.031619944
239	0xbb169419	-0.0022976457
240	0x3d7cb034	0.061691478
241	0xbe02402b	-0.1271979
242	0x3c3059ff	0.010763644
243	0xba8077f2	-0.0009801371
244	0xbd2e1aba	-0.042505957
245	0x3c4115a1	0.011784942
246	0x3b107927	0.0022044869
247	0xbc55e228	-0.013054408
248	0x36d5cbee	6.371635e-06
249	0xbd40393f	-0.046929594
250	0x8d840061	-8.135219e-31
251	0x2b14fa6a	5.292768e-13
252	0x3c39f1ec	0.011349183
253	0x3ce8549b	0.028360656
254	0xbdd2bb22	-0.10289599
255	0xbd38828e	-0.04504638

e_conv1_b.bias f4 [3]
0	0x3d82e133	0.063906096
1	0x3dbc0f80	0.09182644
2	0x3dde8ac9	0.10866315

e_conv2.weight f4 [32, 32, 3, 3]
0	0x3d368d98	0.044568628
1	0x3d636e31	0.05552501
2	0x3d11ca22	0.03559316
3	0x3d7f0863	0.062263858
4	0x3ce8c054	0.028412022
5	0xbce1da9e	-0.027570065
6	0x3cbc629a	0.022996236
7	0x3da3455c	0.079722136
8	0xbd1b337e	-0.037890904
9	0xbca92445	-0.020647177
10	0x3dbea3d7	0.09308594
11	0xbdb67895	-0.08909718
12	0xbd5edd82	-0.054410465
13	0xbd9ddd64	-0.077082425
14	0x3cbbdc86	0.022932302
15	0x3d45cca6	0.04829087
16	0xbdd01099	-0.10159416
17	0xbdd257a5	-0.10270623
18	0x3dc10991	0.09425653
19	0x3e018b81	0.12650873
20	0xbdf7b090	-0.120942235
21	0xbd6cb52b	-0.057789963
22	0x3b559c80	0.0032594502
23	0xbd6cac2d	-0.057781387
24	0xbd4657b9	-0.048423503
25	0x3dec12d9	0.115270324
26	0x3d38f867	0.04515877
27	0x3da1a32d	0.078924514
28	0xbcf5c92b	-0.03000315
29	0x3e418080	0.18896675
30	0x3dc5dc16	0.09661119
31	0xbe2644ae	-0.16237137
32	0xbe033a85	-0.12815292
33	0xbe21c3da	-0.15797368
34	0xbd326397	-0.043552008
35	0x3c9782d0	0.018494993
36	0xbc2cdedb	-0.01055118
37	0xbd760999	-0.060067747
38	0xbdce6cae	-0.10079323
39	0x3dd3b80b	0.10337838
40	0xbdb4fe10	-0.08837521
41	0xbd29767c	-0.04137276
42	0x3cd4802d	0.025940025
43	0xbdd27598	-0.102763355
44	0xbd07cb2f	-0.033152755
45	0xb9aab833	-0.00032562166
46	0xbdb114d5	-0.086465515
47	0x3cf1e315	0.029527226
48	0x3d1d0dcc	0.038343236
49	0xbb78a983	-0.0037942834
50	0x3d6f98a0	0.058495164
51	0xbc5ee99b	-0.013605501
52	0xbdcdcaee	-0.100484714
53	0xbdebd8b0	-0.11515939
54	0xbe438470	-0.1909349
55	0xbdd970bd	-0.10617206
56	0x3cb3b3d3	0.021936333
57	0x3d1bc6a2	0.038031228
58	0xbd13b099	-0.03605709
59	0xbe458ed3	-0.19292764
60	0xbd54face	-0.051997
61	0xbdd43a83	-0.10362723
62	0xbcab11f4	-0.020882584
63	0xbe159341	-0.14606954
64	0xbd719f5c	-0.058989868
65	0x3a6c8738	0.0009022835
66	0x3b841767	0.00403111
67	0xbdb9e03b	-0.09075972
68	0x3d282b3f	0.041056868
69	0xbcffd33a	-0.03122865
70	0x3dac7ec9	0.0842262
71	0x3dfeb3fb	0.12436672
72	0x3c8a8038	0.016906843
73	0x3d0f0139	0.034913275
74	0xbce1b9d1	-0.027554424
75	0xbcd2d6bd	-0.02573716
76	0x3e541a5a	0.20713177
77	0xbd94f200	-0.0727272
78	0x3e015b3f	0.12632464
79	0x3e3a4874	0.18191701
80	0xbddc07b0	-0.10743654
81	0xbd997b16	-0.0749418
82	0x3dade952	0.08491768
83	0xbe09ac16	-0.13444552
84	0x3d0b6546	0.03403213
85	0x3c87b43d	0.016565436
86	0xbd358dc9	-0.04432467
87	0x3dc15aa3	0.09441116
88	0xbdc1f447	-0.0947042
89	0x3c3f727d	0.011685011
90	0xbd0aea57	-0.03391489
91	0xbd77d7dc	-0.060508594
92	0xbc0f4d64	-0.008746479
93	0x3df35ebf	0.11883306
94	0xbd363acb	-0.044489663
95	0xbc4ffa0e	-0.012693895
96	0x3c61b9ac	0.013777178
97	0x3e1e89c5	0.15482242
98	0xbb8748ca	-0.00412855
99	0xbdafc6ff	-0.08582877
100	0x3d347e3d	0.044065703
101	0xbcf8c4ee	-0.03036734
102	0xbdabe53e	-0.08393334
103	0xbd5e6d00	-0.05430317
104	0xbdd8e834	-0.10591164
105	0x3de17865	0.110092916
106	0x3cfc4dc9	0.03079881
107	0xbd0f161c	-0.034933195
108	0xbd8beacd	-0.06831894
109	0x3bd24070	0.006416373
110	0x3c564e33	0.013080168
111	0xbdb98391	-0.090582974
112	0xbe21c9c0	-0.15799618
113	0xbd0c7694	-0.034292772
114	0x3b2f7d23	0.0026777468
115	0x3e0d01dc	0.1377024
116	0xbcef13c7	-0.029184235
117	0x3e48e90f	0.19620155
118	0xbca2b78b	-0.01986291
119	0x3d38b136	0.045090877
120	0xbd924a75	-0.07143108
121	0x3db79bfe	0.089653
122	0xbdff7c9c	-0.12474939
123	0x3cae6a1e	0.021290835
124	0xbc115a4f	-0.008871629
125	0xbd995649	-0.07487161
126	0x3d2e3f21	0.042540673
127	0x3d1816b0	0.03713101
128	0xbd36da69	-0.044641886
129	0x3e15db04	0.14634329
130	0x3d239744	0.03993918
131	0xbbb4cfa7	-0.005517918
132	0xbdd4ae37	-0.10384791
133	0xbd301848	-0.042991906
134	0x3dc9dfbc	0.09857127
135	0x3c25d104	0.010120634
136	0xbdb4cbaa	-0.08827908
137	0xbdf8ce88	-0.12148768
138	0x3a724632	0.00092420273
139	0xbb114639	-0.00221671
140	0x3c97f191	0.018547805
141	0x3ce294c0	0.02765882
142	0xbc26b87e	-0.010175822
143	0xbdbdc372	-0.09265794
144	0xbd412343	-0.04715277
145	0x3dc95438	0.098305166
146	0x3d233f8a	0.039855517
147	0xbc3c839a	-0.011505986
148	0x3cf7e807	0.030262006
149	0x3df8cb16	0.121481106
150	0xbe32fc52	-0.17479065
151	0xbba286bc	-0.0049599092
152	0xbe7d2268	-0.24720156
153	0xbd9a5b19	-0.07536907
154	0xbd998172	-0.07495393
155	0x3e27c047	0.16381942
156	0x3d851503	0.06498148
157	0xbd683f8a	-0.05670122
158	0x3e0d735b	0.13813536
159	0x3d6590ae	0.05604618
160	0xbd99af17	-0.07504099
161	0x3d83a710	0.06428349
162	0xbbf7cf55	-0.0075625577
163	0xbce9d709	-0.02854492
164	0xbd0dcb00	-0.034617424
165	0xbcbbb037	-0.022911174
166	0x3d88b782	0.06675626
167	0x3b60002b	0.0034179788
168	0xbdbe303f	-0.09286546
169	0xbdb701b1	-0.089358695
170	0x3dcdb4b2	0.100442305
171	0x3e0c6c8e	0.13713285
172	0x3c477502	0.012173893
173	0xbe0e451d	-0.13893552
174	0x3d018531	0.03162116
175	0x3df4fded	0.11962495
176	0x3e128b77	0.14311014
177	0xbe1a7e66	-0.1508728
178	0xbdb75f80	-0.08953762
179	0x3cb337bb	0.02187716
180	0xbd2edc2b	-0.042690437
181	0x3e21372e	0.15743706
182	0x3e5d5838	0.21615684
183	0xbd18faaf	-0.037348446
184	0xbcdef713	-0.027217424
185	0xbe17b980	-0.14816856
186	0x3dd32b39	0.103109784
187	0x3d2a851a	0.04163084
188	0xbc1d13af	-0.0095872125
189	0x3babe71c	0.0052460562
190	0xbdc85927	-0.097826295
191	0x3bf661fb	0.0075190044
192	0x3dbb2edc	0.09139797
193	0x3d22a51e	0.03970825
194	0x3d8576f6	0.065168306
195	0xbddd220b	-0.10797509
196	0xbd207492	-0.03917367
197	0xbccb0530	-0.024782747
198	0x3d07d7c7	0.033164766
199	0xbd000743	-0.031256925
200	0xbd940c98	-0.072289646
201	0x3c3c317b	0.011486406
202	0xbc6c6b5e	-0.014429895
203	0x3e05e467	0.1307541
204	0xbe27d0fd	-0.16388316
205	0xbd4a6e2b	-0.04942147
206	0x3c0695d2	0.008214431
207	0xbdd2b548	-0.10288483
208	0xbe269a59	-0.16269816
209	0x3d119df0	0.03555101
210	0x3d87afc0	0.066253185
211	0xbb5405dc	-0.0032352125
212	0x3dbead8e	0.09310447
213	0xbdb45924	-0.08806065
214	0xbdabfef4	-0.08398238
215	0x3d40680f	0.046974238
216	0x3d1d7ad5	0.03844722
217	0xbd9af627	-0.07566481
218	0x3d8b5c76	0.06804745
219	0x3d1701c9	0.036866937
220	0x3db6711c	0.08908293
221	0xbd41f178	-0.047349423
222	0xbd4f857a	-0.050664403
223	0xbba07e21	-0.0048978482
224	0xbd022b7d	-0.031779755
225	0xbd5d9449	-0.054096494
226	0xbd1a5611	-0.037679736
227	0x3d3e36ac	0.046438858
228	0xbe385982	-0.18002895
229	0x3d8c28a6	0.068436906
230	0x3d00ae7f	0.031416412
231	0xbd94c8a9	-0.072648354
232	0x3d810bc3	0.063010715
233	0xbddd225a	-0.10797568
234	0x3a22e1cb	0.00062134553
235	0xbce446cd	-0.027865792
236	0xbd44d216	-0.048051916
237	0xbc09dcab	-0.008414428
238	0x3e1ddd62	0.15416482
239	0xbd85e7d9	-0.06538362
240	0x3d2eaed9	0.042647216
241	0xbbc980cd	-0.0061493875
242	0x3d38f03a	0.045150973
243	0xbb400d6b	-0.0029304873
244	0xb8eabe83	-0.00011193475
245	0x3b0081d5	0.0019608636
246	0x3cb5884c	0.022159718
247	0x21a106fe	1.0911635e-18
248	0xbc8e69e6	-0.01738448
249	0x35da4afc	1.6264089e-06
250	0x902f9b92	-3.4632512e-29
251	0x34cd670f	3.825921e-07
252	0xbcdbe1d0	-0.026841074
253	0xbda341f1	-0.07971562
254	0x3d36c43a	0.04462073
255	0x3de3a712	0.111158505

e_conv2.bias f4 [32]
0	0xbd25cd0a	-0.040478744
1	0xbd35fc98	-0.044430345
2	0xbb619921	-0.0034423547
3	0x3d376309	0.04477218
4	0xbd039709	-0.03212646
5	0x3cd787ce	0.026309874
6	0xbd45154f	-0.048116025
7	0x3c94cc56	0.018163841
8	0xbd742988	-0.05960992
9	0x3d65189f	0.055931684
10	0x3aefab3c	0.0018285285
11	0xbd6ec74f	-0.058295544
12	0x3ba8af86	0.005147877
13	0x3d27e90a	0.040993728
14	0x3d477448	0.04869488
15	0x3bd1c70f	0.0064019035
16	0x3d377529	0.044789467
17	0x3c7d1374	0.0154465325
18	0x3ce4b089	0.02791621
19	0xbd2006e9	-0.03906909
20	0xbd8049fa	-0.0626411
21	0xbc8a0433	-0.016847705
22	0x3d00233d	0.031283606
23	0xbd78670a	-0.06064514
24	0x3cc2319b	0.023705294
25	0x3ce987b4	0.028507091
26	0x3b071b89	0.0020615777
27	0x3bbb843d	0.005722551
28	0x3da4ee70	0.08053291
29	0xbd13c523	-0.036076676
30	0x3c969447	0.018381251
31	0x3c6de521	0.014519961

e_conv2_a.weight f4 [3, 32, 3, 3]
0	0x3c9a50af	0.018837301
1	0xbdadca39	-0.084858365
2	0x3d54e361	0.051974658
3	0x3e165b93	0.1468337
4	0xbd215247	-0.039385106
5	0xbc9f3c98	-0.019438073
6	0x3c59f450	0.013302878
7	0x3c8c5e01	0.017134668
8	0xbcc00992	-0.023442063
9	0xbd6d3dc4	-0.057920232
10	0xbdc77fe5	-0.09741191
11	0x3c5547ed	0.013017637
12	0xbd846338	-0.06464237
13	0x3caccdca	0.021094222
14	0x3da27a9e	0.079335436
15	0x3d837e49	0.06420571
16	0x3e5cfa42	0.21579841
17	0xbcdff4e7	-0.027338458
18	0x3a9c3372	0.0011917187
19	0xbc586af3	-0.013209092
20	0xbd8151d6	-0.06314437
21	0xbc3d6383	-0.01155937
22	0x3db9bb8e	0.09068976
23	0xbdbecf03	-0.09316828
24	0x3e1efdcd	0.15526505
25	0x3e03be4e	0.12865564
26	0xbe1f1b16	-0.15537676
27	0xbdc3120f	-0.09524929
28	0x3d2ba5d9	0.04190621
29	0x3da45787	0.08024507
30	0x3e457c68	0.19285738
31	0x3d63919c	0.055558786
32	0x3d8d3ba0	0.06896138
33	0xbda7abc8	-0.081870615
34	0x3cf82560	0.03029126
35	0xbde0a0a9	-0.109681435
36	0xbd0be7d2	-0.034156628
37	0xbca2ce7c	-0.01987385
38	0x3cf057c5	0.029338727
39	0xbdbe6eb5	-0.092984594
40	0xbdea5007	-0.11441045
41	0xbd69e687	-0.057104614
42	0xbe29bf06	-0.16576776
43	0xbc85cde6	-0.016333532
44	0xbdd2389e	-0.10264705
45	0x3a2b44b1	0.0006533368
46	0x3df2f4f0	0.11863124
47	0xbd8d3f96	-0.06896894
48	0x3e22d59f	0.15901802
49	0x3dfa552d	0.12223277
50	0xbdb4a017	-0.08819597
51	0xbd82a459	-0.06379003
52	0xbc720934	-0.014772702
53	0x3d58f1c3	0.052964937
54	0x3cc68619	0.024233865
55	0x3d1b0086	0.037842296
56	0x3e016f05	0.12640007
57	0x3bf5c2ef	0.0075000445
58	0x3de0219f	0.10943913
59	0xbe08f13c	-0.13373274
60	0x3dac9f6d	0.084288456
61	0xbe0c74c9	-0.13716425
62	0xbdf657cf	-0.12028467
63	0xbc621260	-0.013798326
64	0xbb3dd10d	-0.0028963715
65	0xbd83c580	-0.064341545
66	0xbd92129b	-0.07132455
67	0x3d3974cb	0.045277398
68	0x3da78136	0.08178942
69	0xbdab472d	-0.08363185
70	0x3d14cbf4	0.036327317
71	0x3ddddd09	0.10833175
72	0xbdc02a7d	-0.09383104
73	0xbcc8bf47	-0.02450527
74	0x3d9fafbc	0.077971905
75	0x3d59e454	0.053196266
76	0x3de1b08c	0.11020002
77	0xbd52b9d5	-0.051446754
78	0x3c91f6c4	0.017817862
79	0x3beb583b	0.0071821488
80	0xbe0fd46a	-0.14045873
81	0xbdc301d6	-0.095218346
82	0x3c847b19	0.016171979
83	0xbd7f4826	-0.062324665
84	0x3e630e8e	0.22173521
85	0xbd73d624	-0.059530392
86	0x3d8bd7ba	0.06828256
87	0xbc26dfad	-0.010185164
88	0xbdbdbcde	-0.09264539
89	0xb916ea0d	-0.00014392305
90	0x3c8512f3	0.016244387
91	0xbd9fe328	-0.078069985
92	0x3cd45fb2	0.025924537
93	0x3db125b7	0.08649772
94	0x3b370b19	0.0027930199
95	0x3de2595b	0.110521995
96	0xbe0561fb	-0.13025658
97	0x3cdf6e22	0.027274195
98	0xbce83e73	-0.02835009
99	0x3b6c2a71	0.003603604
100	0x3d3707df	0.04468524
101	0x397ab29d	0.00023908397
102	0x3dbec579	0.09315009
103	0x3db9b578	0.090678155
104	0x3c128353	0.008942443
105	0x3df597b2	0.11991824
106	0xbd937bd5	-0.072013535
107	0xbd797fb5	-0.060912807
108	0xbc10fb3e	-0.008848963
109	0x3dcd11a7	0.100131325
110	0xbc9d8aa1	-0.019231142
111	0xbcc53b88	-0.024076238
112	0xbde04c39	-0.10952038
113	0x3d06698e	0.03281551
114	0xbc453f85	-0.01203907
115	0x3a9f0918	0.0012133447
116	0x3dbd4852	0.0924231
117	0xbde72773	-0.11286821
118	0xbb01440a	-0.0019724392
119	0x3d6a3c29	0.05718628
120	0xbd7e84bc	-0.062138304
121	0xbe3f16f7	-0.18661104
122	0x3d8ec464	0.06971052
123	0xbc959e21	-0.018263878
124	0xbde3ff54	-0.11132684
125	0x3dc0254e	0.09382115
126	0xbdde4584	-0.10853103
127	0x3c5ddcff	0.013541459
128	0x3e4d111c	0.20026058
129	0x3e2f07ef	0.1709287
130	0x3da82280	0.08209705
131	0xbd9f49f9	-0.07777781
132	0xbd3ac725	-0.045600075
133	0x3ddbef51	0.10739005
134	0xbde78714	-0.11305061
135	0x3a983f9e	0.0011615639
136	0x3d622dac	0.055219337
137	0x3db7a06e	0.089661464
138	0x3d21a334	0.039462283
139	0xbd3102b8	-0.043215483
140	0xbccd49f9	-0.025059687
141	0x3c9d29bb	0.019184938
142	0xbd5a8754	-0.053351715
143	0xbda30e19	-0.07961673
144	0x3e329ec8	0.17443383
145	0x3db2e2b0	0.087346435
146	0x3cd2f159	0.02574985
147	0x3d42f96f	0.04760116
148	0xbd92ccc2	-0.07167961
149	0x3d0d6d5a	0.034528114
150	0x3dfadfab	0.122496925
151	0xbd3f347b	-0.04668091
152	0xbd5b6bf5	-0.053569753
153	0x3e1bb66d	0.15206309
154	0x3e3eb8c9	0.18625177
155	0xbc319848	-0.010839529
156	0x3e0d6744	0.13808924
157	0x3e327bc5	0.17430027
158	0x3dbf1024	0.093292505
159	0x3dd4ea7d	0.103962876
160	0x3dfb5b79	0.122733064
161	0x3d2df47a	0.04246948
162	0x3dbcea0a	0.09224327
163	0xbd466548	-0.048436433
164	0xbcea7649	-0.028620856
165	0xbdc1f484	-0.09470466
166	0x3d12eea8	0.03587213
167	0x3b9d4010	0.0047988966
168	0x3c0e3e29	0.008681812
169	0xbe09624c	-0.13416404
170	0xbd8a13df	-0.06742071
171	0x3c80227c	0.015641443
172	0xbd467d0c	-0.048459098
173	0xbce7d379	-0.02829908
174	0xbdc876e6	-0.09788303
175	0x3be8b0fc	0.0071011763
176	0x3d2c18df	0.042015906
177	0xbdbdc9f7	-0.09267037
178	0x3cb3f47a	0.021967161
179	0xbd5f34b6	-0.05449363
180	0xbd602346	-0.05472114
181	0xbe0e8bb5	-0.13920482
182	0x3cc0b681	0.023524525
183	0xbce343bf	-0.027742265
184	0x3db2858a	0.08716877
185	0xbdc14695	-0.094372906
186	0x3e05d141	0.13068105
187	0x3d9cf2ec	0.07663521
188	0xbdaeb8f9	-0.085313745
189	0xbcbada5c	-0.0228092
190	0x3ce5a926	0.028034758
191	0x3de7c119	0.11316127
192	0x3bf90951	0.0075999876
193	0x3d339efc	0.04385279
194	0x3d32391e	0.043511502
195	0xbd8d0c61	-0.06887127
196	0xbd9fe0f0	-0.07806575
197	0x3d0c89a4	0.03431095
198	0xbd0961ae	-0.03354042
199	0x3e2e0ea0	0.16997766
200	0xbd1231bb	-0.035691958
201	0x3d52190b	0.051293414
202	0x38ce99cc	9.851492e-05
203	0x3e1e9667	0.15487061
204	0x3d556b6c	0.0521044
205	0x3dc96d82	0.0983534
206	0x3e0f54e8	0.13997233
207	0xbdfca319	-0.12335796
208	0xbcbf7db8	-0.023375377
209	0x3db08964	0.08619955
210	0xbcbfe94e	-0.023426678
211	0xbd3057e1	-0.043052558
212	0xbde36868	-0.11103898
213	0x3d447f72	0.047973104
214	0xbdde097f	-0.10841655
215	0x3e2259fb	0.15854637
216	0x3cd8543d	0.026407355
217	0xbd4df2e3	-0.050280463
218	0xbdfeddb8	-0.12444633
219	0xbd6f11cd	-0.058366586
220	0x3dee1636	0.1162533
221	0xbccf02da	-0.025269914
222	0xbc2877cc	-0.010282468
223	0xbdd1c778	-0.10243124
224	0xbe08ea58	-0.13370645
225	0xbd0f28e3	-0.034951102
226	0x3d521d67	0.05129757
227	0xbddc82a4	-0.10767105
228	0xbdf3798e	-0.11888419
229	0x3d884faa	0.0665582
230	0xbb269c4f	-0.0025422757
231	0xbdc2dea2	-0.0951512
232	0xbe6bb290	-0.23017335
233	0xbb8b485e	-0.00425057
234	0x3dc8d028	0.09805328
235	0x3db6c17f	0.08923625
236	0x3ce74e47	0.028235568
237	0x3ce174b4	0.027521469
238	0xbca8f72e	-0.020625677
239	0x3e10b25c	0.14130539
240	0x3cf9ee3f	0.030509112
241	0xbe17f9db	-0.14841406
242	0x3da087f3	0.0783843
243	0x3e30e226	0.17273769
244	0xbd3db67b	-0.046316605
245	0x3cde1dee	0.027113881
246	0xbde3e7f4	-0.11128226
247	0xbdec6961	-0.11543537
248	0xbd92df61	-0.071715124
249	0x3d0998a8	0.03359285
250	0x3e3deaa3	0.18546538
251	0x3d6ee51c	0.058323964
252	0x3d1462e2	0.036227114
253	0x3e30ebd9	0.17277469
254	0xbc7feb33	-0.015620041
255	0x3df7bf21	0.12097002

e_conv2_a.bias f4 [3]
0	0x3d989b6e	0.07451521
1	0xbb322f74	-0.0027188929
2	0xbc71e443	-0.0147638945

e_conv2_b.weight f4 [3, 32, 3, 3]
0	0xbcb18704	-0.021670826
1	0xbd13bad0	-0.03606683
2	0xbcf31ade	-0.029675897
3	0x3dc4521a	0.09585972
4	0x3bf60a67	0.0075085643
5	0xbe0d5088	-0.13800251
6	0xbceeeaa9	-0.029164629
7	0x3bad9dba	0.0052983435
8	0x3c9348ac	0.017978989
9	0xbe09a590	-0.13442063
10	0x3d952de5	0.07284144
11	0x3c89b0c6	0.016807925
12	0x3db6bda7	0.08922892
13	0xbdb958a0	-0.09050107
14	0x3db2647e	0.087105736
15	0x3d78d8ac	0.06075351
16	0xbc12fe31	-0.008971737
17	0xbb827a96	-0.0039818985
18	0xbdd2c918	-0.10292262
19	0xbcd4120c	-0.025887512
20	0x3d3d3c80	0.046200275
21	0xbd2e57ef	-0.04256433
22	0xbdb2164b	-0.08695658
23	0xbccea0e5	-0.025223205
24	0xbdcfa73b	-0.101393186
25	0xbd87597c	-0.06608865
26	0xbdfc3d76	-0.1231641
27	0x3dbb8aab	0.09157308
28	0x3d93da07	0.0721932
29	0xbba57b52	-0.0050501013
30	0xbda076d5	-0.078351654
31	0xbe21db12	-0.15806225
32	0x3cfd977e	0.030956026
33	0xbc84dcba	-0.016218532
34	0x3ccf3cba	0.025297511
35	0xbd06fac4	-0.032953992
36	0xbd3904d6	-0.045170628
37	0x3ce0ae68	0.027426913
38	0xbe169ed3	-0.14709024
39	0xbb0ecf5c	-0.0021791076
40	0x3d4af86d	0.049553324
41	0xbe066c8f	-0.1312735
42	0xbd81e173	-0.06341829
43	0xbd84798c	-0.06468496
44	0x3e0dfae3	0.13865237
45	0x3d6a3d46	0.05718734
46	0xbd96af70	-0.07357681
47	0x3c801ffb	0.01564025
48	0x3d528a08	0.051401168
49	0xbd2c8e0f	-0.042127665
50	0xbd1fa94d	-0.038979817
51	0xbd83cad7	-0.06435173
52	0x3e0f2e5a	0.13982525
53	0xbc392174	-0.01129948
54	0xbd40b533	-0.047047805
55	0xbd84d451	-0.06485809
56	0x3cd99de0	0.026564538
57	0xbe063515	-0.13106187
58	0x3bcb7fc4	0.006210299
59	0x3d65cbde	0.056102626
60	0xbd7e6a77	-0.06211325
61	0xbcf7e6f1	-0.030261489
62	0xbd290a39	-0.041269515
63	0x3bbb286c	0.005711606
64	0xbd7e2f4f	-0.062056836
65	0x3c16d781	0.009206654
66	0x3d3d8b6b	0.046275537
67	0x3d1c4fda	0.03816209
68	0xbd0a7f25	-0.03381266
69	0x3d1428ed	0.036171842
70	0x3c1b39ac	0.009474199
71	0x3b1109d0	0.0022131093
72	0xbd966c39	-0.073448606
73	0x3dd11018	0.10208148
74	0xbd91fe88	-0.07128626
75	0xbc9eebcd	-0.019399548
76	0xbd53adc5	-0.05167939
77	0xbda53c8d	-0.0806819
78	0xbdb02082	-0.085999504
79	0x3e08dcd8	0.13365495
80	0xbcda15ec	-0.026621781
81	0xbd866668	-0.06562501
82	0xbc2818a2	-0.010259779
83	0x3d34bd57	0.04412588
84	0x3c3598d4	0.0110838
85	0x3e004419	0.12525977
86	0xbbb4f2d4	-0.0055221114
87	0xba894d1e	-0.0010475253
88	0x3d6d6d24	0.057965413
89	0xbd09d8ad	-0.033653904
90	0x3d9010fa	0.07034488
91	0x3d4115c8	0.047139913
92	0xbd684e59	-0.056715343
93	0xbd1a4fea	-0.03767387
94	0xbd55f355	-0.052234013
95	0x3a5ba809	0.0008379226
96	0xbd75b407	-0.05998614
97	0x3d10ee62	0.03538359
98	0xbcafd6f4	-0.021464802
99	0xbcb7b6fd	-0.022426123
100	0xbdee7c11	-0.116447575
101	0xbe0cebf3	-0.13761882
102	0xba83624a	-0.0010023799
103	0x3d4d05b8	0.050054282
104	0xbd22d8dc	-0.039757594
105	0xbd6a2c17	-0.057170954
106	0x3db5643e	0.0885701
107	0x3b191803	0.002336026
108	0xbde4ff15	-0.111814655
109	0x3dab234a	0.0835634
110	0xbe003ea4	-0.12523896
111	0x3e06a917	0.1315044
112	0x3d3c6f99	0.046004865
113	0xbdec5dde	-0.11541341
114	0x3d8924ca	0.0669647
115	0xbd470e39	-0.04859755
116	0xbdda220b	-0.106510244
117	0xbb8a02c9	-0.004211758
118	0x3d5f5436	0.05452367
119	0x3dba8a4a	0.09108408
120	0x3d79f0fe	0.061020844
121	0x3c8a9ef1	0.016921492
122	0xbe39e1bb	-0.18152516
123	0xbbdbb21e	-0.006704583
124	0xbd66cf6e	-0.056350164
125	0x3d39df32	0.04537887
126	0xbccfa11e	-0.025345381
127	0x3d7e1d92	0.06203992
128	0xbd790c4e	-0.06080275
129	0xbcc92e32	-0.02455816
130	0xbb289b33	-0.0025727272
131	0x3dd3f14c	0.10348758
132	0xbd7f6e36	-0.062360965
133	0xbc6fef13	-0.014644402
134	0x3db63d4a	0.08898409
135	0x3dc6cbfc	0.09706876
136	0x3ddef421	0.10886408
137	0xbca56716	-0.020190757
138	0xbca5a830	-0.0202218
139	0xbd364949	-0.044503484
140	0xbcf00ed4	-0.029303946
141	0x3c2ac802	0.010423662
142	0xbd25398a	-0.040338077
143	0x3c8bdd06	0.017073166
144	0xbd92aa5a	-0.07161398
145	0x3d5f5b3c	0.054530367
146	0x3c6a5e41	0.014304698
147	0x3b425dfe	0.0029658074
148	0xbce65336	-0.02811585
149	0xbd56ea55	-0.05246957
150	0x3d6a7b63	0.057246577
151	0x3db40b5f	0.08791231
152	0x3e466426	0.19374141
153	0x3c1eb2e1	0.009686203
154	0xbd84dcdb	-0.06487437
155	0x3d9d2e7e	0.07674883
156	0x3bb8868d	0.005631274
157	0x3cb4d491	0.022074016
158	0xbda55cd9	-0.0807435
159	0x3d0edfb9	0.034881327
160	0xbd103f47	-0.035216596
161	0x3c1c79f1	0.0095505575
162	0x3dbe59ba	0.09294458
163	0x3ca9a704	0.020709522
164	0xbcdc68c0	-0.026905417
165	0xbd04696d	-0.032327104
166	0x3c96060c	0.01831343
167	0x3cc66fe8	0.024223283
168	0xbdc3ab24	-0.09554127
169	0x3c81f1ba	0.015862335
170	0xbd63841d	-0.055545915
171	0xbd3c1e1d	-0.045927156
172	0xbc9bbf79	-0.0190122
173	0xbd28299f	-0.041055318
174	0x3cbc2f2a	0.022971708
175	0xbe294969	-0.1653191
176	0xbc72adfb	-0.014811988
177	0xbd56f4b2	-0.052479453
178	0xbd4a2f84	-0.04936172
179	0x3d05b3ba	0.032642104
180	0x3c1bb10e	0.009502662
181	0x3d8bed48	0.06832367
182	0xbc423b14	-0.011854906
183	0x3e0e3aeb	0.13889663
184	0xbc4c81a9	-0.012482085
185	0x3ce41018	0.027839705
186	0xbad7f917	-0.0016477433
187	0x3d210da8	0.039319664
188	0xbcd9d978	-0.026592955
189	0x3d7b2f39	0.061324332
190	0xbe3e00cd	-0.18554993
191	0xbd721064	-0.059097663
192	0xbba4fee8	-0.00503527
193	0xbe1b1448	-0.15144455
194	0xbcf2babb	-0.029630056
195	0xbd298419	-0.041385744
196	0x3ce8f4ee	0.028437104
197	0xbddab0ec	-0.106782764
198	0x3dcc30c3	0.09970238
199	0x3d8f05bc	0.069835156
200	0xbddd184a	-0.107956484
201	0x3d7a9e22	0.061185963
202	0xbcc750bb	-0.024330487
203	0x3d01cc7f	0.031689163
204	0x3d94536c	0.07242474
205	0xbe01baa0	-0.12668848
206	0x3c40bb2c	0.011763375
207	0x3cd4fe33	0.026000118
208	0x3d9999c1	0.07500029
209	0xbc98b023	-0.018638676
210	0xbde1851a	-0.11011715
211	0x3d180fa6	0.0371243
212	0x3c094f29	0.00838069
213	0x3da6f370	0.08151901
214	0xbd4d5b31	-0.050135795
215	0x3ce92a9c	0.0284627
216	0xbca9b869	-0.020717816
217	0x3e3c02b1	0.18360402
218	0xbe0ae805	-0.13565071
219	0xbc7e4d81	-0.015521408
220	0xbd973703	-0.073835395
221	0xbc6a6d9d	-0.01430836
222	0xbd29c911	-0.041451517
223	0xbd9002d3	-0.07031789
224	0x3d3aebca	0.045635022
225	0xbda41f77	-0.08013814
226	0xbdc0b580	-0.094096184
227	0xbd8e61a7	-0.069522195
228	0x3c80f954	0.015743889
229	0x3d9de516	0.0770971
230	0xbd006fb6	-0.031356536
231	0xbda72552	-0.08161415
232	0xbcdb8178	-0.026795134
233	0x3d384960	0.04499185
234	0x3a226652	0.00061950565
235	0x3c9dd094	0.019264497
236	0xbbf6315e	-0.0075132092
237	0x3cdcdb07	0.02695991
238	0x3d2f3e82	0.04278422
239	0xbdc0aca3	-0.09407928
240	0x3da75045	0.08169607
241	0xbdbc8947	-0.09205871
242	0x3da8fc44	0.08251241
243	0xbd9cf48a	-0.076638296
244	0x3d30adf2	0.043134637
245	0x3a0754de	0.00051624875
246	0xbe06a049	-0.13147081
247	0x3e095a71	0.13413407
248	0xbc70edb5	-0.014705111
249	0x3dc2ec19	0.09517688
250	0x3bd31f2b	0.0064429245
251	0xbcdcd88a	-0.026958723
252	0xbdfde8fe	-0.12397955
253	0xbd1c9a5c	-0.038233146
254	0xbe06e7bd	-0.13174339
255	0x39e5b65a	0.00043814146

e_conv2_b.bias f4 [3]
0	0xbd866e24	-0.065639764
1	0x3bee81d5	0.007278661
2	0x3cb950cd	0.022621537

e_conv3.weight f4 [32, 32, 3, 3]
0	0x3d59c086	0.05316212
1	0x3dec61a4	0.11542061
2	0xbd0668f5	-0.03281494
3	0x3ba56acf	0.005048133
4	0xbdbd9efa	-0.09258838
5	0x3dfc4fda	0.12319918
6	0x3e5d01d8	0.21582735
7	0xbde9327d	-0.11386583
8	0xbd194f08	-0.037428886
9	0x3ca8f9d7	0.020626945
10	0xbd88297d	-0.06648538
11	0xbdf5e56a	-0.12006648
12	0x3d413d22	0.04717744
13	0xbdef165b	-0.11674186
14	0xbbc2137f	-0.0059227343
15	0x369b8164	4.634423e-06
16	0xbcb6c75d	-0.02231186
17	0x3da8ac5b	0.08235999
18	0xbd941981	-0.07231427
19	0x3d3ea8c1	0.046547655
20	0x3d5818e0	0.052758098
21	0xbd706b35	-0.05869599
22	0x3d46294a	0.04837922
23	0x3d4725b1	0.04861993
24	0xbe03dd38	-0.12877357
25	0x3d45949e	0.048237436
26	0x3d9d405d	0.07678292
27	0xbe58ef95	-0.21185143
28	0xbda1f5ed	-0.07908235
29	0xbe2d1103	-0.1690102
30	0xbd1a7574	-0.03770967
31	0xbce41884	-0.027843721
32	0x3d985467	0.074379735
33	0xbe79f2ae	-0.24408981
34	0x3a265628	0.0006345236
35	0xbcaefc60	-0.021360576
36	0x3c7c80bb	0.015411551
37	0x3d482ce8	0.04887095
38	0x3d49d88c	0.04927878
39	0xba52b277	-0.00080374576
40	0xbd635f0a	-0.05551056
41	0x3ddf5a3f	0.10905885
42	0xbd1144d6	-0.035466038
43	0xbdbcd509	-0.09220321
44	0xbb832d27	-0.0040031853
45	0x3e264431	0.1623695
46	0x3dc3488d	0.09535322
47	0xbd1c2804	-0.0381241
48	0xbcbec9ba	-0.02328955
49	0xbe3b2432	-0.18275526
50	0xbabc5b0d	-0.0014370397
51	0x3e283cf9	0.16429509
52	0x3cf63190	0.03005293
53	0x3be70ac0	0.007050842
54	0x3c84dba0	0.016218007
55	0x3d0bbcf9	0.034115765
56	0x3cbcae4c	0.02303233
57	0xbdca0abb	-0.09865328
58	0xbdaf50be	-0.08560322
59	0x3ca6676e	0.020312991
60	0x3d2f04e9	0.042729292
61	0x3dcd0812	0.10011305
62	0xbb3146db	-0.002705029
63	0xbd686d71	-0.056744996
64	0xbd94411d	-0.07238982
65	0xbda139f9	-0.078723855
66	0x3c3a5d67	0.011374808
67	0x3dc64b70	0.09682357
68	0x3ddbf490	0.10740006
69	0xbd7405da	-0.059575893
70	0x3dc062b0	0.09393823
71	0xbda1f729	-0.0790847
72	0xbdd44aad	-0.10365806
73	0x3d603e38	0.054746836
74	0x3d7ff64b	0.062490743
75	0x3ce35ad0	0.027753264
76	0x3c8f074e	0.017459538
77	0xbc74914f	-0.014927222
78	0xbdf1707c	-0.11789033
79	0x3e5c51a6	0.21515521
80	0xbc05aba0	-0.008158594
81	0x3dd63e4f	0.10461103
82	0xbd5de4a8	-0.05417314
83	0x3dcc74cf	0.09983217
84	0x3cd123c2	0.025529746
85	0xbd1a88a1	-0.037727956
86	0xbced21ab	-0.028946718
87	0xbc9d06cc	-0.01916828
88	0xbc612b70	-0.013743266
89	0xbd21422c	-0.039369747
90	0xbcd7bef5	-0.026336173
91	0xbe6717d2	-0.2256768
92	0xbd6b28b9	-0.057411883
93	0xbd2d412e	-0.04229849
94	0xbdb35b93	-0.08757701
95	0xbd73ff99	-0.05956993
96	0x3d258d6e	0.04041808
97	0x3d1dcaf8	0.038523644
98	0x3d85b924	0.065294534
99	0xbdd938e5	-0.10606555
100	0x3cd7cae2	0.02634186
101	0x3d0ac9ad	0.03388374
102	0x3d49056f	0.049077448
103	0x3dbbd922	0.09172274
104	0x3e060822	0.1308904
105	0xbc2b299a	-0.01044693
106	0x3e3c559d	0.18392034
107	0x3cd66634	0.026171781
108	0x3bdab14f	0.006673969
109	0xbcda9448	-0.026682034
110	0x3cab6119	0.020920323
111	0x3cc5723c	0.024102323
112	0xbd941861	-0.072312124
113	0x3e066b55	0.13126881
114	0xbc7898aa	-0.015173117
115	0x3e20e28d	0.15711422
116	0x3d0cab6a	0.03434316
117	0xbc1bd0da	-0.009510243
118	0xbcb3f6f0	-0.021968335
119	0xbdbbd21b	-0.09170934
120	0xbe0a44d2	-0.13502815
121	0xbd735a7c	-0.059412464
122	0xbe5c89ad	-0.21536894
123	0x3d834676	0.06409924
124	0xbd563be3	-0.052303206
125	0x3cef2889	0.029194133
126	0x3be15988	0.006877128
127	0xbdb2b542	-0.087259784
128	0x3da2edb7	0.07955497
129	0x3e3340b4	0.17505151
130	0xbdea2af3	-0.11433973
131	0xbd4e3e2a	-0.050352253
132	0xbe07e62d	-0.13271399
133	0xbdb778db	-0.08958598
134	0x3d8adb18	0.0678007
135	0xbdf94e19	-0.12173099
136	0x3d92416d	0.07141385
137	0xbe101141	-0.14069082
138	0xbd900faf	-0.070342414
139	0x3d10892e	0.035287075
140	0x3d48ac75	0.048992593
141	0xbd3e6998	-0.04648742
142	0x3da7539d	0.08170245
143	0x3dd40632	0.10352744
144	0x3e1ac426	0.15113887
145	0xbd730fdf	-0.059341308
146	0x3d92b717	0.07163828
147	0xbe5a505c	-0.21319717
148	0xbd32b675	-0.043631036
149	0x3cc695e1	0.02424139
150	0xbe3d23b7	-0.18470655
151	0x3d15d4fe	0.03658008
152	0x3d55d1cd	0.052202035
153	0x3caf1afc	0.021375172
154	0xbd46f801	-0.04857636
155	0x3c7e8e5c	0.015536871
156	0x3dec8208	0.11548239
157	0x3d8a89c6	0.067645594
158	0xbd8234be	-0.06357716
159	0xbd5b7e45	-0.053587217
160	0xbe812c96	-0.2522933
161	0xbb989005	-0.0046558403
162	0x3d206254	0.039156273
163	0xbdeae4cd	-0.114694215
164	0xbe045561	-0.12923194
165	0x3c61bf7c	0.013778564
166	0x3e1b9b3b	0.15195934
167	0x3d68bda8	0.056821495
168	0xbd3431b5	-0.043992717
169	0x3deb022e	0.11475025
170	0xbd868f2b	-0.06570276
171	0xbd42b7a2	-0.047538407
172	0x3ded083a	0.11573835
173	0xbe11ccce	-0.14238283
174	0x3c069c52	0.008215981
175	0x3d50eda0	0.051007867
176	0xbe1f1840	-0.15536594
177	0x3df53ed8	0.11974877
178	0xbd07b0c9	-0.03312758
179	0x3d8aa7b0	0.06770265
180	0xbceba792	-0.028766427
181	0xbc6d17d5	-0.014471014
182	0xbd8ba2f1	-0.06818188
183	0x3d810dee	0.06301485
184	0x3b2c7efb	0.0026320803
185	0xbd5872e6	-0.05284395
186	0x3d024e85	0.031813163
187	0x3cb175ff	0.02166271
188	0xbdf97115	-0.12179772
189	0xbca27b31	-0.019834133
190	0x3d8ea4f7	0.06965058
191	0x3da2d4d6	0.079507515
192	0x3e03978f	0.12850784
193	0xbe048696	-0.12941965
194	0xbc11d033	-0.008899736
195	0xbd596553	-0.053075146
196	0x3d0788c6	0.03308942
197	0x3ba8f076	0.0051556183
198	0xbb7877d3	-0.0037913218
199	0xbccc6643	-0.024951106
200	0xbd645219	-0.055742357
201	0xbc8ce018	-0.0171967
202	0xbce5cc7f	-0.028051613
203	0x3cc2bf99	0.023773002
204	0x3c70d51b	0.014699246
205	0xbd6a440f	-0.057193812
206	0xbda2c5b4	-0.07947865
207	0x3cf6b994	0.030117787
208	0x3ce66495	0.028124133
209	0x3a7d2595	0.0009656784
210	0x3e2b7bb5	0.16746409
211	0x3d5f33bf	0.05449271
212	0xbda0b632	-0.07847251
213	0xbe226333	-0.15858154
214	0xbdd2344c	-0.10263881
215	0x3d1b8d1d	0.037976373
216	0xbcc44b8e	-0.023961809
217	0xbc36d7f7	-0.0111598885
218	0x3c59121e	0.013248948
219	0xbcefdb6c	-0.029279433
220	0x3d1d4665	0.03839721
221	0x3d6d4678	0.057928532
222	0xbd4ed764	-0.05049838
223	0x3d02ec78	0.031963795
224	0x3cbb626e	0.022874083
225	0x3c308a3c	0.010775145
226	0x3cab800b	0.02093508
227	0xbda4717c	-0.08029458
228	0xbcc8cd51	-0.024511965
229	0x3d9271cd	0.07150612
230	0xbc6ec289	-0.014572748
231	0x3d38f3a7	0.04515424
232	0xbd8180b9	-0.0632338
233	0x3c9a2c9f	0.018820105
234	0x3dded4f3	0.108804606
235	0x3d2888eb	0.0411462
236	0x3dc6d22b	0.09708055
237	0x3e05815d	0.1303763
238	0xbd8f9efc	-0.07012746
239	0x3cd99dd7	0.026564522
240	0xbd6dc143	-0.058045637
241	0xbd94251a	-0.07233639
242	0xbc8d3440	-0.017236829
243	0x3d007b4c	0.031367585
244	0xbb488b7a	-0.0030600713
245	0xbd8e5d6e	-0.06951414
246	0xbc93eb41	-0.018056514
247	0x3de2cd04	0.1107426
248	0x3cee81f6	0.029114705
249	0x3e16fab6	0.14744076
250	0xbdd57e58	-0.10424489
251	0x3d51139f	0.051044103
252	0xbcef1322	-0.029183928
253	0xbd3ec263	-0.0465721
254	0xbd3314b0	-0.0437209
255	0x3d361327	0.04445186
